pk.onnx (onnx, 10448 bytes, 2 tensors)

model.2.bias f4 [64]
000000 7e 92 96 3d 7c d8 01 bd f6 2c 81 3c 31 9a 8f bd
       0.0735216 -0.031700596 0.01576851 -0.070118316
000010 ef 2d 23 bd 79 d9 36 3c d4 9d bf 3c a6 45 90 bd
       -0.039838728 0.011160248 0.023390688 -0.070445344
000020 05 98 a8 bd f2 db 99 3d 6a bf 0b 3d 8a c9 4a 3c
       -0.082321204 0.07512654 0.034118094 0.012377152
000030 21 c4 31 3d 78 ec b1 3b 8e b4 9d bd e7 51 6b 3c
       0.043399934 0.0054298006 -0.07700454 0.014362789
000040 c9 45 1b 3d ed ad 24 bc 3f a9 ae 3d 1a 46 af 3d
       0.03790835 -0.010051233 0.08528375 0.08558293
000050 8e f8 fd bc 17 3e 1a 3d 34 f6 53 bd 16 b1 05 bc
       -0.03100231 0.03765687 -0.05174847 -0.008159896
000060 4e 48 dc bc 93 ba 71 bc da 4b d5 3c 5c d9 e9 bc
       -0.026889946 -0.014753955 0.026037145 -0.028546028
000070 b3 45 95 3d 5f 50 f7 3b 48 e2 96 bc a0 f2 ae 3d
       0.07288685 0.007547423 -0.018418446 0.08542371
000080 5a c8 1c bc ea 8b 8f 3d c6 14 30 3d cc 8d 85 3a
       -0.009569252 0.07009108 0.04298856 0.0010189353
000090 cc c3 9c 3d 6a 38 aa 3c 1e 44 87 bc db d0 b2 bd
       0.07654533 0.020778853 -0.016511973 -0.08731242
0000a0 e9 f0 df bc 26 13 06 bd d8 bc b0 bd 80 53 40 3a
       -0.027336555 -0.032733105 -0.08629769 0.0007336661
0000b0 12 d7 e5 3c e3 04 ee bb 2e 94 9f bc 14 3c 0b 3d
       0.028056655 -0.007263766 -0.019479837 0.03399284
0000c0 ed e7 25 bd d2 c0 70 3d 4e 19 a7 3d 0d 7e 62 bd
       -0.040504385 0.058777638 0.08159123 -0.055295993
0000d0 14 1a 32 3d 3b d9 2e 3d 9e a2 3c 3d fd 50 be bb
       0.0434819 0.042687636 0.04605352 -0.0058079944
0000e0 70 04 1e 3d c4 29 9b 3c 54 47 1c bd 11 f0 82 3d
       0.03857845 0.018940814 -0.03815396 0.06393445
0000f0 16 93 4e 3d 72 d6 4b 3c 85 87 52 3d 0a 06 12 3d
       0.05043324 0.012441264 0.051398773 0.03565029

model.4.weight f4 [1, 64]
000000 0e 79 c5 3c cf 4a 00 be 32 14 3d bc c3 f9 35 bc
       0.024105575 -0.12528537 -0.0115404595 -0.011106911
000010 06 73 90 bd eb 5b b8 bd c9 98 db bd 47 2e ac bc
       -0.07053189 -0.09001907 -0.10722501 -0.02101816
000020 46 0b 4c 3c 52 ac 6b 3d 17 38 d4 bc 60 4d b7 3c
       0.01245386 0.057537384 -0.025905652 0.022375762
000030 30 03 bb 3d 23 81 ac 3d 15 f4 11 3d 58 be 8e 3d
       0.09131467 0.084230684 0.035633165 0.06969899
000040 90 d5 91 3d a4 12 72 bd c8 0c 97 3c 89 57 90 bc
       0.07120812 -0.05909981 0.018438712 -0.017619865
000050 b4 2a 2c bd a0 dd 14 3d 98 23 d3 bd 1f f5 99 bd
       -0.042032912 0.03634417 -0.10309523 -0.07517456
000060 94 2a 11 bd b5 80 74 bc c8 d9 8e 3d b0 ca 9a bd
       -0.035440996 -0.014923264 0.06975132 -0.07558191
000070 fd b3 85 3d 5d 67 8c 3c 07 66 91 bd 11 10 dd bd
       0.06528471 0.017139131 -0.07099538 -0.1079408
000080 d5 c3 ee bd 9c f0 a8 3c 0b ee 1a 3d b2 78 a4 bc
       -0.11658446 0.020622544 0.03782467 -0.020077083
000090 7a 8c f8 bd 0b c8 98 bd 96 47 8d 3d 41 69 97 3c
       -0.12136169 -0.0746003 0.068984196 0.018482806
0000a0 82 78 6b 3c 6c 7b c3 3d 9f 06 a6 3d 4a 1e 66 bd
       0.014371993 0.09545025 0.081067316 -0.05618123
0000b0 5f 64 e4 3d 47 c2 c3 3d 95 1a b5 3d 18 4d 4a bd
       0.11151957 0.0955854 0.08842961 -0.04938993
0000c0 36 9b f3 3d 1b 45 af 3d c6 6c 1d bd 1b f2 e1 3c
       0.118948385 0.08558103 -0.038433813 0.027581265
0000d0 a0 7e 89 bc cc 29 98 bd c3 46 c6 bd 18 69 61 3d
       -0.016784012 -0.07429847 -0.096814655 0.055031866
0000e0 34 a3 c9 3c dc 24 3d 3d 4c 1a da bd 14 75 1e 3d
       0.024613954 0.04617773 -0.10649547 0.038685873
0000f0 c1 bd 8f bd f8 f7 37 3d 49 0c d6 3d 39 57 15 bc
       -0.070186146 0.044914216 0.10451562 -0.009115034
