pk.onnx (onnx, 46639 bytes, 5 tensors)

model.0.weight f4 [128, 6]
-0.5059063 0.46488404 0.16432172 -0.03434222 -0.10272999 0.11240263 -0.16347404 0.5853962
0.38304958 -0.34532404 0.008139268 0.43699747 -0.4075308 0.32301718 0.48080394 -0.1326616
0.19803648 0.15663722 0.039083883 0.46771264 0.6127237 0.4092143 0.21045618 -0.09962438
0.2083119 -0.092608616 0.6807042 0.30619088 -0.31113198 0.5788272 0.14127462 0.09147051
0.075603984 0.24011806 -0.15973409 0.15373492 0.42642036 0.5839804 -0.084205836 0.17735039
-0.12637864 -0.33314818 -0.029326089 0.1576615 0.5442779 -0.36193994 -0.14653699 -0.25900158
0.019443674 0.25848344 0.24740963 0.38138363 -0.39435905 0.18746226 -0.4103284 0.65102947
0.13238503 0.36864746 0.4050732 0.17825101 0.5622526 -0.07546673 0.22610728 -0.48449785
0.4811214 0.46403405 -0.6020969 0.31466925 0.28000686 0.14618935 0.054269377 0.10092823
-0.019196942 0.5691271 0.33168733 0.3179814 0.27565372 0.39671537 0.58387613 0.4149768
-0.1029121 -0.36420563 0.46552724 0.60948527 0.17377861 0.45589292 0.25763366 -0.43879265
0.30309236 -0.29212487 0.35149652 -0.045491472 0.42036122 -0.12829201 -0.20857023 -0.18924241
-0.35959312 0.60959566 0.53371614 0.1643948 0.29637933 -0.3824868 -0.05888546 0.4147603
0.17854899 0.33046612 0.1644799 -0.33838493 0.27628693 0.042670384 0.5893157 -0.16745351
-0.3065684 -0.38328874 0.20021185 0.57585484 0.66316015 -0.060769025 0.099156246 -0.21390627
-0.26578325 0.40890664 0.22358961 -0.3593403 0.34479356 0.51872116 0.27488688 0.1415968
0.62050503 0.18428887 0.03448746 0.33824626 -0.34804672 0.2311583 0.49643648 -0.25094408
-0.22484636 -0.3541604 0.16150273 0.43403485 0.12279729 -0.104715794 -0.15128946 -0.19757551
-0.21415336 0.6036736 0.60163397 0.15160011 0.032108698 -0.32336488 -0.081450805 0.3765104
0.16550538 0.20557095 -0.23762964 -0.2102438 -0.43326584 0.34428602 0.23596604 0.00912241
-0.3976772 0.056115754 -0.5377858 0.19444317 0.69935805 -0.026002167 -0.059923626 0.17092633
0.42358786 -0.22233368 -0.2104519 -0.24152836 -0.25753075 0.16586564 -0.02860304 0.051653285
-0.098724045 0.45710164 -0.51826584 -0.3957123 0.25995645 -0.0018645532 0.3487816 0.32479304
-0.40315074 0.35433173 0.038991023 0.5059513 0.04106743 -0.27641106 -0.119808026 0.43230888
-0.07709587 0.34751552 0.09717591 -0.36860326 -0.33207035 -0.01851708 -0.08923364 0.28763163
0.5695961 -0.42872673 -0.40967283 -0.4526222 0.20726836 0.44538537 0.008352564 -0.30232415
-0.083381765 0.38362896 0.4946026 0.3495126 0.08737871 0.34245965 -0.1600548 0.43144387
-0.07665531 0.55331707 0.4865012 0.083960734 0.019620048 -0.1375795 0.17559756 -0.058420055
0.3952126 0.09370223 0.43770444 -0.25940925 -0.08210643 0.41601196 -0.054943107 -0.4454217
0.16195877 -0.24215868 -0.25024882 0.069138706 0.52854234 -0.27423042 0.21697868 -0.35403058
0.4267665 0.057334904 0.45503095 0.12991484 0.31374583 0.09716898 0.0676839 0.10356024
0.19467498 0.42303964 -0.11794036 -0.55937433 -0.073324166 0.54851395 0.48673117 -0.05770645
00000000: 1383 01bf 4805 ee3e f443 283e 6daa 0cbd
00000010: 1a64 d2bd 5a33 e63d bd65 27be 86dc 153f
00000020: 131f c43e 50ce b0be 905a 053c 22be df3e
00000030: e1a7 d0be 8262 a53e ef2b f63e 71d8 07be
00000040: 13ca 4a3e 8265 203e 6c16 203d 0878 ef3e
00000050: 76db 1c3f 8984 d13e d381 573e de07 ccbd
00000060: b74f 553e 96a9 bdbd a142 2e3f 0dc5 9c3e
00000070: b14c 9fbe 052e 143f 4baa 103e e454 bb3d
00000080: 43d6 9a3d 82e1 753e 5591 23be b06c 1d3e
00000090: c553 da3e bd7f 153f 1c74 acbd 579b 353e
000000a0: 6769 01be 6692 aabe 443d f0bc 0472 213e
000000b0: cc55 0b3f 3150 b9be cb0d 16be db9b 84be
000000c0: 5748 9f3c f157 843e f358 7d3e b744 c33e
000000d0: 6ee9 c9be 1bf6 3f3e 9016 d2be dea9 263f
000000e0: f18f 073e 5cbf bc3e c165 cf3e 6f87 363e
000000f0: c9ef 0f3f 4d8e 9abd ab88 673e 1a10 f8be
00000100: 8b55 f63e df95 ed3e 0623 1abf 541c a13e
00000110: 0f5d 8f3e a9b2 153e 9149 5e3d 76b3 ce3d
00000120: e842 9dbc 50b2 113f ecd2 a93e 75ce a23e
00000130: 7c22 8d3e 471e cb3e e878 153f d777 d43e
00000140: 94c3 d2bd 2979 babe 9659 ee3e 3a07 1c3f
00000150: 05f3 313e cc6a e93e 8fe8 833e 6ea9 e0be
00000160: ec2e 9b3e 6491 95be 5af7 b33e 4455 3abd
00000170: 9639 d73e fb5e 03be 6f93 55be c3c8 41be
00000180: 971c b8be 760e 1c3f 9fa1 083f 1c57 283e
00000190: 08bf 973e 4fd5 c3be e131 71bd 765b d43e
000001a0: 8cd5 363e db32 a93e 6b6d 283e ca40 adbe
000001b0: 7b75 8d3e 24c7 2e3d 65dd 163f ef78 2bbe
000001c0: 89f6 9cbe 6c3e c4be 5604 4d3e 396b 133f
000001d0: ddc4 293f f1e8 78bd 6e12 cb3d 3f0a 5bbe
000001e0: be14 88be 365c d13e adf4 643e 74fb b7be
000001f0: c888 b03e e9ca 043f f9bd 8c3e c0fe 103e
00000200: 6bd9 1e3f 39b6 3c3e b942 0d3d 9d2e ad3e
00000210: 2e33 b2be c3b4 6c3e ec2c fe3e be7b 80be
00000220: 203e 66be 8354 b5be f960 253e d139 de3e
00000230: 257d fb3d 3c75 d6bd a0eb 1abe 3c51 4abe
00000240: 054b 5bbe 5a8a 1a3f af04 1a3f 0f3d 1b3e
00000250: 6984 033d 1590 a5be aecf a6bd f9c5 c03e
00000260: 3e7a 293e 3181 523e 2f55 73be 274a 57be
00000270: 05d5 ddbe 4246 b03e 15a1 713e 2976 153c
00000280: 599c cbbe a2d9 653d 55ac 09bf 1c1c 473e
00000290: 2109 333f 7f02 d5bc 7a72 75bd 5007 2f3e
000002a0: 82e0 d83e 71ab 63be b480 57be 3653 77be
000002b0: 12db 83be afd8 293e ec50 eabc 6592 533d
000002c0: d52f cabd 3a09 ea3e 12ad 04bf cd9a cabe
000002d0: 0319 853e 0664 f4ba 8093 b23e 464b a63e
000002e0: c669 cebe f86a b53e 0db5 1f3d 0686 013f
000002f0: 5236 283d c085 8dbe e95d f5bd 9757 dd3e
00000300: 71e4 9dbd 8eed b13e 2a04 c73d 91b9 bcbe
00000310: 2005 aabe 22b1 97bc 20c0 b6bd 7444 933e
00000320: 0dd1 113f 1282 dbbe a3c0 d1be 19be e7be
00000330: 283e 543e 8d09 e43e 31d9 083c 3bca 9abe
00000340: 0fc4 aabd 046b c43e 8d3c fd3e 51f3 b23e
00000350: 9cf3 b23d df56 af3e 68e5 23be 36e6 dc3e
00000360: 76fd 9cbd 30a6 0d3f af16 f93e 9bf3 ab3d
00000370: 39ba a03c a4e1 0cbe d9cf 333e de49 6fbd
00000380: 4e59 ca3e f4e6 bf3d cc1a e03e 4ad1 84be
00000390: 6a27 a8bd 85ff d43e 060c 61bd 500e e4be
000003a0: 85d8 253e 72f8 77be 9d20 80be 9898 8d3d
000003b0: 8d4e 073f ee67 8cbe a92f 5e3e 7f43 b5be
000003c0: 2481 da3e 01d8 6a3d d1f9 e83e 6508 053e
000003d0: 4ba3 a03e 8800 c73d db9d 8a3d 6417 d43d
000003e0: e158 473e a798 d83e b78a f1bd 2833 0fbf
000003f0: fb2a 96bd 696b 0c3f d434 f93e 995d 6cbd

model.0.bias f4 [128]
-0.03386813 0.3560907 -0.04691633 -0.09403652 0.050097343 0.5140121 0.64633346 0.060512863
0.18396315 0.26178634 0.32536983 -0.20877926 0.5353142 -0.02779795 0.11656471 0.13938306
0.3455064 -0.12889051 0.51648355 0.385763 0.4609988 0.30227512 0.059542067 0.428188
0.507336 -0.014713262 -0.036403492 0.03121794 -0.23039047 0.44214213 0.39221892 0.13334091
0.25537187 -0.051437337 0.21382439 0.6014225 0.7031149 0.35141015 0.528252 0.0363216
0.63060963 0.15640779 0.52724046 0.600602 0.09739577 0.2576848 0.36874908 0.09192665
-0.014418352 0.12916793 0.3154938 0.44266036 0.5739754 0.0126501415 0.6469234 -0.21554618
0.0018862734 0.6036636 0.3303619 0.38282275 0.50451505 0.11101065 0.4448205 -0.09912904
0.048182942 -0.05043884 0.24417126 0.041424192 0.66211975 -0.062206708 0.24586038 0.62209207
0.07892006 -0.010506593 0.011299594 0.42863563 0.02581279 -0.07038096 0.23000582 0.52527916
0.31740758 -0.0006754543 0.29617926 -0.06008577 0.15783295 0.4658191 0.21217902 0.5212999
0.40732437 0.38929996 0.23431951 0.33269835 0.094636 0.4458321 -0.061662313 0.17357698
0.1985761 0.29320633 0.20670854 0.25210944 0.28592125 0.06719293 -0.044085052 0.10629281
0.47990546 -0.05806706 0.37600535 0.4421041 0.5197859 0.5585125 0.49741358 0.5655353
-0.024366936 -0.095641926 0.27831715 0.46181935 -0.074885026 0.5449222 0.51400715 0.16848476
-0.03481501 0.033757925 0.27228463 0.41267005 0.32506272 0.08043416 0.4665435 0.43807077
00000000: 4fb9 0abd 8551 b63e 562b 40bd 3896 c0bd
00000010: df32 4d3d 4c96 033f 1c76 253f 56dc 773d
00000020: d660 3c3e dc08 863e e096 a63e 3bca 55be
00000030: 5a0a 093f 87b8 e3bc 7bb9 ee3d 6fba 0e3e
00000040: 37e6 b03e e0fb 03be 4438 043f ba82 c53e
00000050: 0908 ec3e cec3 9a3e 62e2 733d 753b db3e
00000060: c6e0 013f e50f 71bc d41b 15bd c4bc ff3c
00000070: 7beb 6bbe 7460 e23e ebd0 c83e 858a 083e
00000080: 1ac0 823e f5af 52bd c8f4 5a3e d3f6 193f
00000090: 57ff 333f 08ec b33e 863b 073f f5c5 143d
000000a0: a26f 213f 5d29 203e 3bf9 063f 0dc1 193f
000000b0: 6f77 c73d 43ef 833e aecc bc3e 0a44 bc3d
000000c0: f43a 6cbc 9944 043e 6788 a13e 61a4 e23e
000000d0: 0df0 123f 8a42 4f3c c69c 253f 23b8 5cbe
000000e0: d53c f73a b389 1a3f 3225 a93e 5801 c43e
000000f0: e627 013f 8d59 e33d 83bf e33e 2b04 cbbd
00000100: 7a5b 453d f598 4ebd 0808 7a3e 6aac 293d
00000110: ae80 293f 76cc 7ebd d3c2 7b3e 6d41 1f3f
00000120: d7a0 a13d d823 2cbc ef21 393c 2176 db3e
00000130: 5875 d33c e523 90bd a586 6b3e b278 063f
00000140: 3f83 a23e f910 31ba cfa4 973e 7f1c 76bd
00000150: f69e 213e d77f ee3e 7545 593e e973 053f
00000160: d28c d03e 5352 c73e 74f1 6f3e 7057 aa3e
00000170: 85d0 c13d 1b44 e43e 9f91 7cbd 2abe 313e
00000180: 8857 4b3e 241f 963e 67ab 533e 7d14 813e
00000190: 4564 923e 729c 893d 8792 34bd 0bb0 d93d
000001a0: 2bb6 f53e bad7 6dbd c683 c03e 785b e23e
000001b0: b010 053f adfa 0e3f feac fe3e ecc6 103f
000001c0: 2b9d c7bc eadf c3bd 967f 8e3e 9673 ec3e
000001d0: 525d 99bd 0580 0b3f f995 033f 4587 2c3e
000001e0: 2f9a 0ebd c045 0a3d e468 8b3e 7d49 d33e
000001f0: 9f6e a63e aaba a43d cade ee3e d04a e03e

model.2.weight f4 [64, 128]
0.35549256 0.20418476 0.18488528 0.15309179 0.33376712 0.16927126 0.25009012 0.17440605
0.28154153 0.1856532 0.18460672 0.178744 0.2754663 0.19356962 0.15937221 0.23800617
0.18615055 0.22545277 0.3094085 0.28736907 0.14943734 0.27246436 0.24991967 0.3114667
0.29253355 0.32337794 0.27775547 0.2752978 -0.058196343 -0.036535773 0.1646274 0.34644035
0.2589518 0.23016389 0.2659661 0.25330806 0.27493703 0.19036734 0.26217645 0.2407603
0.17543733 0.15242198 0.21383202 0.30698046 0.3091521 0.12986045 0.29484904 0.17202967
0.13511427 0.20899238 0.12268595 0.16524021 0.2766543 0.23607811 0.29618695 -0.10215612
0.21085873 0.22775616 0.28268513 0.25423712 0.30190393 0.31221706 -0.3534794 -0.23766814
0.19785284 0.23813537 0.12700325 0.12590422 0.29982176 0.21650286 0.2774639 0.25908038
0.27329484 0.15046808 0.27830943 0.18525016 0.005214984 0.30730528 0.20835587 0.08579835
0.20877352 0.16183597 0.23388371 0.26061165 0.17821375 0.3418212 0.31200063 0.24581975
0.27589098 0.30603108 0.23325737 0.29445454 0.15863328 0.15738231 0.12699345 0.28680438
0.25833556 0.2826524 0.19706783 0.22178452 0.28766733 0.010926842 0.30084816 0.011918357
0.24058834 0.18401314 0.27654585 0.17105788 0.27522776 0.22244197 0.2739043 0.17902106
-0.23690422 0.16542912 0.29412204 0.18860514 0.2618132 0.265929 0.22498871 0.24283563
0.19985782 0.2372318 0.167314 0.14817737 0.17173308 0.21306573 0.26623306 0.108602
0.0143962065 -0.017206142 0.052801657 -0.09296959 -0.09129025 0.026258541 -0.07428638 0.039065674
-0.07467778 -0.10199308 0.031182723 0.016794851 0.028248789 -0.100676365 -0.018420883 -0.067355946
0.046723917 0.029678522 0.0375756 -0.037441492 -0.032712314 0.0025241526 0.02742962 0.052472487
0.061227646 -0.0030615577 -0.07707045 -0.037759144 -0.03905398 0.02269733 0.012250588 -0.075272046
0.012628501 0.06096594 -0.0011592743 0.05730415 -0.025856784 0.046921 -0.030060725 -0.046655774
-0.10799387 -0.06645739 -0.072927356 0.021605203 0.06544003 0.06818435 0.05817807 -0.028452244
0.06024547 0.06336171 0.045080602 -0.037598357 -0.050699048 -0.07835524 0.04654398 0.029588437
-0.028593881 -0.055078477 -0.05822265 0.0010063446 -0.06440219 -0.07882967 0.022781035 -0.06537354
-0.049748056 -0.0017475666 -0.036399703 0.018950006 -0.02697383 0.02381505 0.034200944 -0.063661315
-0.080674686 -0.002620984 0.0072870436 -0.023821179 -0.009381657 0.008851901 -0.085257456 -0.058082435
0.04059323 0.032729402 0.037244327 -0.098367065 -0.058153134 0.05380935 -0.020165067 0.027725654
0.055275384 0.06944745 0.040577803 -0.06938172 -0.008174849 -0.104958385 -0.06546454 -0.042603787
0.06569566 -0.021156596 0.04009251 -0.038745727 -0.086508356 0.047360424 -0.057517458 0.04953061
0.025844434 0.027970126 -0.02582033 -0.024838682 -0.038895685 -0.031163001 0.043652326 -0.036957886
0.027364481 -0.047171637 -0.095402606 -0.03640466 0.014395085 -0.0068466975 -0.052335918 -0.07976655
-0.08839244 -0.08273269 -0.036378372 -0.015298585 -0.00089527946 0.06106623 -0.08235945 -0.092147835
00000000: 1f03 b63e cf15 513e 9152 3d3e 18c4 1c3e
00000010: 86e3 aa3e 7255 2d3e d00b 803e 8097 323e
00000020: 3626 903e df1b 3e3e 8b09 3d3e ab08 373e
00000030: eb09 8d3e 1d37 463e 7832 233e e4b7 733e
00000040: 409e 3e3e 17dd 663e ca6a 9e3e 0a22 933e
00000050: 1a06 193e 7380 8b3e f1ea 7f3e 9078 9f3e
00000060: f5c6 953e cb91 a53e f735 8e3e d5f3 8c3e
00000070: 4a5f 6ebd 89a6 15bd 1694 283e a160 b13e
00000080: 5595 843e 15b0 6b3e b52c 883e 98b1 813e
00000090: 8cc4 8c3e a8ef 423e fe3b 863e de89 763e
000000a0: d8a5 333e 8214 1c3e c8f6 5a3e 8b2c 9d3e
000000b0: 2f49 9e3e 23fa 043e 74f6 963e 8c28 303e
000000c0: 655b 0a3e 1902 563e c542 fb3d bb34 293e
000000d0: a2a5 8d3e 76be 713e d1a5 973e 3a37 d1bd
000000e0: 5aeb 573e e938 693e 1bbc 903e 5e2b 823e
000000f0: 2793 9a3e eada 9f3e 40fb b4be 475f 73be
00000100: ef99 4a3e c2d9 733e 240d 023e 09ed 003e
00000110: 3d82 993e edb2 5d3e c00f 8e3e 2fa6 843e
00000120: 4ded 8b3e 4e14 1a3e 937e 8e3e 38b2 3d3e
00000130: 75e2 aa3b 1e57 9d3e 3e5b 553e 0cb7 af3d
00000140: bac8 553e 54b8 253e 367f 6f3e e46e 853e
00000150: aa7d 363e 3003 af3e 8cbe 9f3e 2cb8 7b3e
00000160: 9541 8d3e 1bb0 9c3e 05db 6e3e bfc2 963e
00000170: c370 223e d428 213e 920a 023e 06d8 923e
00000180: 8f44 843e d1b7 903e 26cc 493e 7b1b 633e
00000190: 2249 933e 7f06 333c c508 9a3e 3645 433c
000001a0: ca5c 763e f16d 3c3e 6b97 8d3e cc29 2f3e
000001b0: a7ea 8c3e d4c7 633e 2f3d 8c3e 4c51 373e
000001c0: 0597 72be 4066 293e 2a97 963e b521 413e
000001d0: 610c 863e d927 883e 7163 663e e7a9 783e
000001e0: 87a7 4c3e e5ec 723e 5c54 2b3e cfbb 173e
000001f0: ccda 2f3e e72d 5a3e b34f 883e ba6a de3d
00000200: 11de 6b3c e5f3 8cbc 8d46 583d d766 bebd
00000210: 62f6 babd 271c d73c 7523 98bd 5403 203d
00000220: aaf0 98bd bfe1 d0bd e972 ff3c 5b95 893c
00000230: 016a e73c 692f cebd 64e7 96bc eaf1 89bd
00000240: 9461 3f3d 5f20 f33c dfe8 193d 405c 19bd
00000250: 59fd 05bd 416c 253b 15b4 e03c 64ed 563d
00000260: d7c9 7a3d 6aa4 48bb 1dd7 9dbd 55a9 1abd
00000270: 11f7 1fbd c0ef b93c b1b6 483c 3b28 9abd
00000280: c6e7 4e3c 6cb7 793d caf2 97ba c2b7 6a3d
00000290: 9bd1 d3bc 3c30 403d e941 f6bc 201a 3fbd
000002a0: e42b ddbd d01a 88bd f05a 95bd 65fd b03c
000002b0: 6c05 863d 3da4 8b3d 214c 6e3d ae14 e9bc
000002c0: f4c3 763d c9c3 813d 70a6 383d bc00 1abd
000002d0: cea9 4fbd b678 a0bd e6a4 3e3d 7363 f23c
000002e0: b73d eabc f899 61bd e07a 6ebd 52e7 833a
000002f0: 4ce5 83bd 7371 a1bd 4b9f ba3c 90e2 85bd
00000300: 9ec4 4bbd 9b0e e5ba db17 15bd 0b3d 9b3c
00000310: 39f8 dcbc c817 c33c 4a16 0c3d dd60 82bd
00000320: c538 a5bd d1c4 2bbb 27c8 ee3b a224 c3bc
00000330: 85b5 19bc 9007 113c 769b aebd d9e7 6dbd
00000340: 1645 263d 440f 063d 828d 183d ac74 c9bd
00000350: fb31 6ebd 3167 5c3d 3631 a5bc e920 e33c
00000360: 7168 623d 773a 8e3d e934 263d 0118 8ebd
00000370: cdef 05bc 6cf4 d6bd 4612 86bd 4f81 2ebd
00000380: 728b 863d 9950 adbc 0b38 243d d7b3 1ebd
00000390: 4b2b b1bd 01fd 413d 6d97 6bbd 9ce0 4a3d
000003a0: b5b7 d33c 9b21 e53c 2885 d3bc 7e7a cbbc
000003b0: 1551 1fbd 8d49 ffbc c8cc 323d 2761 17bd
000003c0: 7a2b e03c 0c37 41bd 7162 c3bd 0e1d 15bd
000003d0: 5dd9 6b3c 435a e0bb 305e 56bd a55c a3bd
000003e0: 1807 b5bd c26f a9bd 7d01 15bd eba6 7abc
000003f0: 30b1 6aba 9520 7a3d 12ac a8bd 01b8 bcbd

model.2.bias f4 [64]
0.14984329 -0.02633094 0.21090133 0.23763043 0.036941968 0.20210746 0.23849101 0.005668061
0.1172544 0.056067135 0.2287847 0.040805858 0.17121899 0.18704502 0.19360965 0.22292297
0.16139248 0.017036038 0.24187575 0.0053915665 0.1951757 0.16281167 0.2283857 0.18249913
-0.051392138 -0.09187832 0.16755673 -0.0864026 0.21249048 0.011480862 0.04335762 0.076413795
0.11322662 0.03868542 -0.0822751 0.24303651 0.08659226 0.035702687 0.14042316 0.09723813
-0.050917692 0.20709097 0.104102276 0.085453056 -0.041819576 -0.17604141 0.25397015 0.116774596
0.11222744 -0.10266885 -0.019622248 0.11016084 0.09186087 0.2334841 0.24071126 0.1120694
0.20766097 0.17158242 0.16132224 0.045606002 0.14480336 0.09861701 0.21200493 0.23580694
00000000: 8570 193e fcb3 d7bc 85f6 573e 6455 733e
00000010: 7650 173d 42f5 4e3e fd36 743e 24bb b93b
00000020: 1323 f03d a7a6 653d 8946 6a3e 0b24 273d
00000030: 0854 2f3e bb88 3f3e 9c41 463e eb45 643e
00000040: 1244 253e 298f 8b3c 47ae 773e bdab b03b
00000050: 24dc 473e 1ab8 263e f1dd 693e 0de1 3a3e
00000060: 9080 52bd b32a bcbd fe93 2b3e d9f3 b0bd
00000070: 1b97 593e 3a1a 3c3c c297 313d d67e 9c3d
00000080: 5ce3 e73d 9a74 1e3d d97f a8bd 90de 783e
00000090: 4857 b13d fb3c 123d 17cb 0f3e c924 c73d
000000a0: 128f 50bd a80f 543e 9333 d53d 0302 af3d
000000b0: 014b 2bbd 3344 34be 6008 823e 8527 ef3d
000000c0: 80d7 e53d 0c44 d2bd d6be a0bc 029c e13d
000000d0: 8d21 bc3d 7516 6f3e 037d 763e a484 e53d
000000e0: 14a5 543e 4db3 2f3e a831 253e 5ccd 3a3d
000000f0: 5547 143e b7f7 c93d d217 593e 6077 713e

model.4.weight f4 [1, 64]
0.32128328 -0.07529413 0.35359088 0.3690185 -0.078318894 0.27536952 0.26821977 -0.062190633
0.3584598 -0.07670393 0.2751526 -0.018202653 0.34399852 0.36122164 0.2715812 -0.37222847
0.29565302 -0.050017007 -0.5301063 -0.13996159 -0.6904687 -0.3800841 0.35612592 -0.343751
0.0860658 -0.08194846 0.3036277 -0.004399092 0.2936176 -0.328943 -0.0017782224 0.3461628
0.3323122 -0.42173553 -0.028945316 0.29719532 -0.34215036 -0.055086385 0.31820807 -0.4088626
-0.014486954 0.35936216 0.2903182 0.34935716 -0.07586536 -0.64218456 0.2910665 0.30379155
0.28734112 -0.038728252 -0.018760258 0.3115684 0.37392998 0.30440754 0.3004561 0.29109633
0.30314454 0.30439928 -0.35627636 -0.057904996 0.30095237 -0.6690251 0.38839054 -0.50018746
00000000: 3e7f a43e cf33 9abd dd09 b53e feef bc3e
00000010: a865 a0bd 3cfd 8c3e 1a54 893e 9bbb 7ebd
00000020: 0b88 b73e f316 9dbd cde0 8c3e bb1d 95bc
00000030: 9320 b03e 0bf2 b83e b10c 8b3e bb94 bebe
00000040: d55f 973e a2de 4cbd 0cb5 07bf 1752 0fbe
00000050: 8fc2 30bf 629a c2be 2356 b63e 2200 b0be
00000060: 4443 b03d 98d4 a7bd 1775 9b3e 4226 90bb
00000070: 0c55 963e 386b a8be 3e13 e9ba 403c b13e
00000080: d324 aa3e b8ed d7be ba1e edbc fc29 983e
00000090: 552e afbe 43a2 61bd 2bec a23e 7056 d1be
000000a0: b05a 6dbc 51fe b73e 96a4 943e f1de b23e
000000b0: 4c5f 9bbd 3566 24bf ab06 953e 918a 9b3e
000000c0: 601e 933e 84a1 1ebd 1daf 99bc e585 9f3e
000000d0: c073 bf3e 4edb 9b3e 62d5 993e 940a 953e
000000e0: c335 9b3e 39da 9b3e db69 b6be ca2d 6dbd
000000f0: 6e16 9a3e 3b45 2bbf 20db c63e 490c 00bf
