pk_adv_no_sex.pth (torch, 39517 bytes, 5 tensors)

model.0.weight f4 [128, 5]
00000000: 5b25 4bbe 50a3 0d3e ce35 b33e f409 b33d
00000010: 9545 1d3d d395 c0be 6780 193f 370b 5d3d
00000020: 32ba 8cbe 9601 d5bd 6bb2 a63e 8aeb 8bbd
00000030: 8f9e a33e 8359 193e 8285 f63d e574 23bd
00000040: beab e63e 6925 223f 334e a33d 53df aebe
00000050: 0642 003f 8788 113e a521 9c3e 54ea 793e
00000060: 6fbe 9b3e d522 c23e 0cb0 433e a61f 163d
00000070: 4ea7 cbbc e41a 3f3d 257e 393e 2a80 1cbc
00000080: 5075 ef3e b234 59be 61cb e83d 0103 263e
00000090: 7a34 9d3d 0649 af3e d641 08bf 89e7 e03e
000000a0: a4b3 8ebe 2abf 093f fb9f 223f af6f 823d
000000b0: 3515 49bd ba45 65be 8987 fd3e 7fc6 2c3d
000000c0: bb41 63be 947a 48bd 05fa b9be ff14 c23e
000000d0: b3fa 053e e770 04be 9813 8fbe e1c4 f3be
000000e0: 424b a73d 1060 9e3e 492c 82be 6509 b0be
000000f0: 3b4e dabe 3bc8 043f a0ec ad3e b574 963c
00000100: c4b0 28bd e1a1 973d 8c05 e7ba 38ca e5bc
00000110: 6d16 653e ac96 01be 3323 da3e 310e 4b3e
00000120: 8377 88bd 795e cd3d a640 23bb 3b7d 8f3e
00000130: de76 02be 1427 983e ac6e c5be 7892 7ebe
00000140: 2b8f c93d 2913 6f3d a164 293f 0be8 af3d
00000150: 7976 5d3e f542 e43d 0efe 043d 704a 54be
00000160: ec86 0d3d f082 b73e 09b2 91be acfe 9a3e
00000170: 1882 383f c31f d0bc 11e9 b5bd e053 c13e
00000180: 28b2 263f 668f 1c3f c386 ef3e f74f c23e
00000190: af1d 1b3f 141b d8bd 1ef9 103e 08c9 06bf
000001a0: a9c3 0abe af77 3abe fe93 0b3f 375a 283e
000001b0: 01e8 973c fdef 7cbe 6b74 b13e bda4 263f
000001c0: fde0 0b3e 6185 9f3c 4f9a dcbc 349b 54be
000001d0: f280 bebd 13d2 403f 25e6 c6bc 397f 9b3c
000001e0: 6fb7 05bf 1e2d f73e 2ae8 77bd ecc1 283a
000001f0: 2829 45bc 2483 d1be 3464 443e e136 a93e
00000200: 52a1 3fbe e3f5 b9be 3f10 74be ea15 3e3f
00000210: 2c30 c63d b88a 273d b6f1 acbd cae3 223f
00000220: 513f 0f3d 8f6b 883c abd5 87bd 121c cf3e
00000230: 8527 4dbb 68dd 37be a659 d93e 164f 9abe
00000240: 5483 f33d b7c8 aebd 45d3 083e 7957 143d
00000250: e95f e93e 3dee 2abf 9bc2 993e d9e2 993e
00000260: c41c 983c 5d3e 91be 5ba9 ccbe b9b2 003e
00000270: a02d 223f 1545 5f3d b25b 15bd 0a0b a4be
00000280: 3063 d93d ac63 083e dcc8 143f f5e5 01bc
00000290: b7ce bf3d 6b61 493e 5994 e7bd 49f7 db3e
000002a0: f025 63be dd23 2abe a2a3 493e 7fd0 243f
000002b0: 781d 343f 663a 4abe 75be 4ebe 68ae 87bd
000002c0: 048a af3e 67df 203f 7a3b 803e 02c2 6bbe
000002d0: 0c5f b0bc c8bf f53e 4dbd 083f 5d61 783d
000002e0: 9e98 ea3d fb31 bbbe c1bb ce3d 4061 483f
000002f0: b47d 163e a737 15be 8a78 a63d 0cde 2c3f
00000300: ec6e 073f 3380 013e 19de 47bd 99d5 93be
00000310: 7eae b9bd d049 113f b0be 73be 6d27 723e
00000320: 8dce 94be 999a 1e3f 16f8 233e fde7 14be
00000330: 44e2 0b3d fec1 11bf 5dd4 223f 9a69 903d
00000340: d96d 093c 93db e13c 37b2 2b3e 6c3b 0d3d
00000350: 1613 19bc 4c00 c1be 1afc 353d 4693 983e
00000360: eea9 e43e 84fd 253f f9d5 fbbd e246 c03e
00000370: b70f 2cbe 5f7e 283f 9e62 b23e 6eac 0fbd
00000380: 9aff f63d dd16 c1be d124 ad3e 007e 33be
00000390: 867b b9be 3047 89be e25d de3d 8bac bb3e
000003a0: f32e 8dbe c74b 41bd 3041 91bc 8384 3cbe
000003b0: 02a6 2c3f a64e c33c 71d1 88bd 6f50 5b3c
000003c0: a7c2 713d 6f0e 1e3f 80cf 2b3f d5d2 3ebe
000003d0: 5a0f ca3d b6c2 7ebe 6eee 2c3f e48d f43e
000003e0: e9d9 283e 374d c83d 7d21 96be c551 fc3e
000003f0: 33a7 3f3f 5bd7 0abd 0df3 eabd 1d9e 2cbf
-0.19838469 0.1383183 0.35001987 0.08742133 0.038396437 -0.37614307 0.5996155 0.053965773
-0.27485806 -0.10400693 0.32557997 -0.06832035 0.31956908 0.14975552 0.12037183 -0.0399064
0.45052904 0.63338333 0.079739 -0.34154758 0.50100744 0.14212237 0.3049442 0.24405795
0.30418727 0.379172 0.19110125 0.036651276 -0.02486005 0.046656504 0.18114527 -0.009552041
0.4676919 -0.21211508 0.113669164 0.16212083 0.07676025 0.342354 -0.5322546 0.43926647
-0.2787143 0.5380732 0.6352536 0.06368958 -0.04909249 -0.2238988 0.49517468 0.042181488
-0.22193043 -0.048945025 -0.36323562 0.37906644 0.13083915 -0.12933694 -0.27944636 -0.47611144
0.08168651 0.30932665 -0.25424412 -0.34382167 -0.4263781 0.5186803 0.33969593 0.018366197
-0.0411842 0.07403923 -0.0017625554 -0.028050527 0.22371836 -0.12655133 0.4260498 0.19829632
-0.0666342 0.10027785 -0.002491036 0.2802523 -0.12740657 0.29717314 -0.38560998 -0.24860561
0.0984176 0.058367882 0.6616917 0.085891806 0.21627225 0.111455835 0.032468848 -0.2073152
0.0345525 0.35842085 -0.28456143 0.30272424 0.7207351 -0.02540577 -0.088823445 0.37759304
0.65115595 0.6115631 0.46782503 0.37951633 0.6059217 -0.1055204 0.1415753 -0.526505
-0.13551201 -0.18209718 0.54522693 0.16440664 0.018543245 -0.24700923 0.34659132 0.6509512
0.13660045 0.01947278 -0.026929049 -0.2076233 -0.09301938 0.7532055 -0.024279663 0.018981563
-0.5223302 0.4827661 -0.060524143 0.0006437588 -0.012033738 -0.40920365 0.1917885 0.33049682
-0.18713883 -0.3632041 -0.23834322 0.7425219 0.09677157 0.040903777 -0.0844454 0.6362883
0.034972493 0.01665285 -0.06632551 0.40451103 -0.0031304073 -0.17955554 0.4245121 -0.30138463
0.11890283 -0.08534377 0.13361843 0.036216233 0.45580986 -0.6676977 0.30031285 0.30055884
0.018568404 -0.28367892 -0.39972958 0.12568177 0.6335087 0.05450924 -0.0364644 -0.32039672
0.10614622 0.13319272 0.5811899 -0.007928361 0.093655996 0.19666068 -0.11307592 0.429621
-0.22182441 -0.16615243 0.19691327 0.6438064 0.70357466 -0.1974884 -0.20189841 -0.06625062
0.34284985 0.62840885 0.25045377 -0.23023227 -0.021529697 0.4799788 0.5341385 0.060639728
0.11454891 -0.3656157 0.10094405 0.7827339 0.1469639 -0.14572011 0.0812846 0.67526317
0.5290363 0.1264656 -0.048795793 -0.288739 -0.09066485 0.56753254 -0.2380321 0.23647852
-0.29063836 0.6195465 0.16012606 -0.14541622 0.03415133 -0.56936634 0.6360529 0.07051392
0.008388006 0.027570521 0.16767202 0.034480497 -0.009342929 -0.3769554 0.044429876 0.2979986
0.44660896 0.6483996 -0.122966714 0.3755408 -0.1680287 0.65817827 0.34840864 -0.03507655
0.12060471 -0.37712756 0.3381715 -0.17528534 -0.36227053 -0.26812124 0.108577505 0.36655077
-0.27574882 -0.047191408 -0.01773128 -0.18409924 0.6744081 0.023841213 -0.06680573 0.013385876
0.059023526 0.61740774 0.67113495 -0.18635114 0.09866209 -0.24878964 0.67551315 0.47764504
0.16489376 0.097803526 -0.29322425 0.49281135 0.748645 -0.033896785 -0.114721395 -0.6742876

model.0.bias f4 [128]
00000000: 85b6 1e3f f92d 41be 09f7 1b3f 85f6 35bc
00000010: 482b 453f 2b76 2c3f 97d6 8d3e 6d5b 3e3e
00000020: 6a29 043f 21c3 a1bd 7d3c df3e 16a2 f83e
00000030: 1e2c 5e3e c0d6 1b3f a98a 263f 5bdd 0b3f
00000040: 8995 783e 4d88 113f ec41 aa3e ff67 263d
00000050: ee47 463e 80db 8f3d f236 6d3f ae87 5e3e
00000060: 435a 1fbe 0583 053d bf57 ab3e 1eec f3bb
00000070: 474c 283f 2ab3 b43d 2062 4b3e 2bce a93d
00000080: fb19 193f 797b 5a3e 645c 023f 7f6d 5a3d
00000090: 3429 333f 2448 503d a6b0 4f3f a6b8 ee3e
000000a0: da61 c63e 3e34 7bbc cfc8 5a3f 059b bc3e
000000b0: 6add 513f c27b 833e c02b b03e ce6a 373f
000000c0: bc98 0b3f c543 4b3f b89c ec3e 74ab 41be
000000d0: 6f27 773e e7aa 073d bab1 453f 37b5 273f
000000e0: 8bc4 6e3e ddd6 303f 21e8 48bd f851 cebd
000000f0: ea55 883e 6b25 3e3f 3348 323d 3527 103f
00000100: 4212 343f e95e 333f 5845 913e 77c3 793e
00000110: 8441 ebbd 4356 273f 13e2 463e 3442 c23e
00000120: 6e72 93bd ee64 1b3f 456a 3b3f 6031 f9bd
00000130: c388 533f d64b 203f 9060 ba3e d747 303f
00000140: 11ce 543f 66db 1a3f 2e2d 4abe d580 a6bd
00000150: b0b5 1c3e 2f91 053f ee01 003e 7c30 183f
00000160: 2a26 c43e 8ddf 523e 77c8 d73e 752c 313f
00000170: 597a 403e 2402 853e 043c 1a3f 6266 683e
00000180: 88ea 1f3f 0030 bfbd 0593 18be 88ad ad3e
00000190: b799 be3e 7afd d1be a3aa 433f 2431 f83e
000001a0: 5055 053e e89b 483f 854c 29be 11ef 053f
000001b0: 8786 393f eb0b 293f 5bd9 263f cd2d 433f
000001c0: a4ca 463f 581c 983e 7657 bf3d 5840 533d
000001d0: b332 103f 6e57 db3e 13a8 83bc d025 433f
000001e0: bfe9 363f 1442 10be a1f1 aebc 1280 3e3f
000001f0: 2c7f d73e 1958 6b3e 02f4 893e c62d 1f3f
0.6199725 -0.18865193 0.6092382 -0.011106138 0.77019167 0.6736781 0.27702782 0.18589564
0.5162569 -0.07898546 0.43600836 0.48561162 0.21696517 0.6087456 0.6505533 0.54634637
0.24275793 0.56848603 0.3325342 0.040626522 0.19363376 0.07024288 0.92661965 0.21731445
-0.15561776 0.032595653 0.33465382 -0.007443919 0.6574139 0.08823235 0.1986165 0.082912765
0.5980527 0.21336164 0.50922227 0.05332708 0.69984746 0.05085005 0.8112892 0.4662525
0.3874653 -0.01533228 0.8546266 0.3683702 0.81978476 0.25680357 0.3440838 0.71647346
0.5452993 0.79400283 0.46213317 -0.1891306 0.24136136 0.03312197 0.77224314 0.65510887
0.23317163 0.69077855 -0.0490495 -0.10074228 0.26628047 0.74275845 0.043525886 0.56309825
0.7034036 0.70066696 0.28373218 0.2439097 -0.114871055 0.65366 0.19422178 0.37941134
-0.0719956 0.6070088 0.7320903 -0.12167621 0.82630557 0.62615716 0.36401796 0.6885962
0.8312693 0.60491025 -0.19743797 -0.081300415 0.15303683 0.5217466 0.12500736 0.5944898
0.38310367 0.2059309 0.4214513 0.6920846 0.18796672 0.25978196 0.60247827 0.22695306
0.6246724 -0.09335327 -0.14899834 0.33921456 0.3722665 -0.410137 0.76432246 0.4847499
0.13020825 0.78362894 -0.16533096 0.5231791 0.724709 0.6603381 0.6517541 0.7624176
0.77652955 0.29709125 0.09342854 0.051575035 0.5632736 0.4284014 -0.016071355 0.7622957
0.7145042 -0.14087707 -0.021355452 0.7441417 0.42089212 0.22982825 0.26943976 0.6217922

model.2.weight f4 [64, 128]
00000000: c7d2 27bc 4ab0 933d 9073 c1bd 9a2c 733d
00000010: 4675 0abd 43e0 a0bc 2a53 623d 31d5 b3bd
00000020: ecd0 89bc a7c7 b6bb 0907 873c dd0c 12bb
00000030: 9606 153d cd99 643d 883f cdbd 1dd7 50bd
00000040: b8c4 bd3c 4a25 a4bc 7823 c8bc bd7f 9abd
00000050: a631 cabd 4d04 90bd 7374 403d 52fc 7b3d
00000060: 57a6 c1bd e192 143c b0df 9bbc 18f2 acbd
00000070: e049 063d ed99 913d b099 57bd a265 f9bc
00000080: 622b c7bd 5f9a d63c 7d12 7fbc 1c23 96bd
00000090: 6617 1c3d a0ef 4cbc fd8e c4bd 779e 233d
000000a0: b4a9 a4bd 3978 91bd 79e4 2a3c 37ec 62bd
000000b0: e96f 723c 0472 ecbc 0a44 42bc 0719 903c
000000c0: 33bd 883d b5ca 9abd 8a2b 883d cbbd 81bd
000000d0: 976f a13b 8deb b2bd b51f 933d b2c9 b03c
000000e0: b9fd 203d d133 733d 0182 4d3c 21a2 8abd
000000f0: 87c1 73bb dea5 a1bd ec5f f13b 10a4 afbc
00000100: 2e8b 5eba fcd5 97bd 8b56 e53c f73c cebd
00000110: a410 a2bd 359b 55bd c72c e63b ed93 7f3d
00000120: 8942 4e3d 41c5 a63c 0d98 5ebc b188 6abb
00000130: 2bbf 86bc fbe0 793d 7c66 943d 50e8 453d
00000140: 2c50 a1bd d5ba 88bd cfdb b7bd 5304 8c3c
00000150: 2c7c 663c 4e2d 9abb 164e 723d fd59 bfbd
00000160: 91ce 873d 0785 59bd 23e2 53bd f455 c3bd
00000170: 051b 3fbc ed74 b5bc 5c8d febc 4279 a73c
00000180: a806 97bc 3b21 833a 4813 e4bc 6cb6 aebd
00000190: ab7f bdbd 08d8 b2bd 8626 aabd 7af0 8abc
000001a0: 5bc7 aabd 29ba 023d 47f8 873d 3715 79bc
000001b0: a745 9fbd f6c3 513d 1520 41bd 233e c8bd
000001c0: b847 1b3d 5586 153d d693 b6bd fe9d 95bd
000001d0: c0f4 c53c 7df6 0abd 1782 91bd 3d01 b33c
000001e0: 4dcc 5dbd 75d1 91bd 2b50 193d 7ccb 163d
000001f0: 60a7 e8bc 2eac 97bd 57d3 8f3d 4894 16bd
00000200: c43e 8e3e c8bb 2b3e 5ff1 4b3e 534e e93d
00000210: 6f53 4e3e 11fe 8f3e 98ab 373e ea4b 293e
00000220: 8839 ae3e 33b2 343e ee45 863e 0c91 843e
00000230: 8d8c 1f3e 8f50 523e b726 3c3e 152d 263e
00000240: 657f 863e ed9e 9d3e f5fe a63e fbf7 773e
00000250: 2bdb 803d d39d 593e 8116 9d3e 3e8b a73e
00000260: c480 2d3e 71b0 f03d cbaf 803e 2917 a83d
00000270: 4458 593e 389b 0b3e bb3f b43c c7fc 1f3e
00000280: 5847 9f3e a666 aa3d 17f1 993e a9bd 313e
00000290: 57b7 503e c002 1d3e ec76 b23e 3aad 213e
000002a0: f891 933e a163 483e 8fef ae3e 9ed2 173e
000002b0: fd47 873e 102c 8d3d 9fca af3e 6d33 6f3e
000002c0: de6e 793e 782f 553e ba8d 773e 4176 dfbe
000002d0: f5c3 3e3e 20ab af3d 6cdb 783e 5de8 7c3e
000002e0: 02f2 733e 8876 a63e 0f7b 6abe 7ec0 ea3d
000002f0: 5116 453e 5907 863e 1d5c 433e 95eb 5b3e
00000300: c1d4 533e 65cb 923e a647 933e c2a9 753e
00000310: 4dcf 073e 7e1c 923e 569a 423e 89f2 393e
00000320: efa6 c63d 30cd a23e 1706 5f3e ed1c c63d
00000330: dfbb 763e 32f9 7a3e cde6 8c3e 9e82 4f3e
00000340: e573 b93e b137 133e 02d0 243d 8ed3 c0be
00000350: fb9d 733d 5e1f 023e f90e 363e eb89 723e
00000360: ac63 a73e 5124 913e 8dfb ab3d 4431 a63e
00000370: 4596 e33d 6d18 803e aaf9 913e f9c1 903e
00000380: 279d 623e c81d ff3d f6e8 19bd 516b e43d
00000390: 175a b93d 4762 903d 415a 7e3e 0873 9d3e
000003a0: eec7 b6bb 6805 843e 7b10 883e 8ce7 663e
000003b0: 181b 6d3e 7a0d 5f3e b3e2 c83e 5d09 703e
000003c0: d97b bb3e 5c16 863e bd98 323e ff88 c83d
000003d0: 4d10 8f3e fe37 7f3e 7e2f 2b3e ce04 bb3e
000003e0: 2cb7 c63e b415 94bc 4ac5 453e 474f a43e
000003f0: 0c13 a33e 6275 763e f957 6d3e 6aeb 5d3e
-0.010243124 0.07211359 -0.0944587 0.059368707 -0.033803247 -0.019638186 0.055255093 -0.087808974
-0.016823255 -0.0055779996 0.016482847 -0.00222855 0.036383234 0.05581074 -0.10021883 -0.050986398
0.023165092 -0.020037312 -0.024430975 -0.075438954 -0.09872751 -0.0703207 0.046986055 0.06151993
-0.09455555 0.009068222 -0.019027561 -0.08444613 0.032785296 0.07109437 -0.052636802 -0.03044397
-0.097250715 0.026196657 -0.015568373 -0.07330915 0.038108252 -0.012508303 -0.09597585 0.039946046
-0.08040181 -0.07103009 0.010430449 -0.055401053 0.014797189 -0.02886296 -0.011857042 0.017590059
0.06676712 -0.075581945 0.066489294 -0.06335028 0.0049266326 -0.08736334 0.07183782 0.02158055
0.03930447 0.059375588 0.012543202 -0.06769205 -0.0037194209 -0.07892965 0.007366171 -0.021440536
-0.00084893673 -0.07413861 0.027995368 -0.10070222 -0.0791333 -0.05214997 0.007024381 0.062396932
0.05035642 0.02035773 -0.013586056 -0.003578704 -0.016448578 0.061005574 0.0724611 0.048317254
-0.0787662 -0.066762604 -0.08977472 0.017091906 0.014067691 -0.004705108 0.0591565 -0.09343336
0.06631196 -0.05310538 -0.051729333 -0.09537879 -0.011664157 -0.022150481 -0.031073265 0.020443562
-0.018435791 0.001000441 -0.027841225 -0.08530888 -0.09252866 -0.08732611 -0.08308129 -0.016960371
-0.08338805 0.031915817 0.06639152 -0.015202812 -0.07776957 0.051212274 -0.047149736 -0.09777477
0.037910193 0.036505062 -0.08914916 -0.07305525 0.024164557 -0.033926476 -0.07104891 0.021851176
-0.054149915 -0.07120029 0.03742997 0.03681515 -0.028400123 -0.074058875 0.07022732 -0.036762506
0.2778226 0.16770852 0.19916295 0.11391892 0.20149015 0.28123525 0.17936552 0.16532865
0.34028268 0.17646103 0.26225227 0.25891912 0.1558096 0.20538543 0.18374144 0.16228135
0.2626907 0.30785313 0.32616392 0.24215691 0.06291803 0.21251611 0.30681232 0.3272342
0.16943651 0.117524035 0.2513412 0.082075424 0.21225077 0.1363343 0.022003045 0.1562377
0.31109118 0.0832036 0.3006675 0.17357506 0.20382439 0.1533308 0.34856355 0.15788737
0.28822303 0.19569255 0.34167144 0.14826438 0.2642211 0.0689317 0.34334275 0.23359461
0.24358699 0.20818889 0.24175158 -0.43644908 0.18629439 0.085775614 0.24302453 0.24698015
0.23822787 0.32512307 -0.22898506 0.11462496 0.19246794 0.2617748 0.19078107 0.21476586
0.20686628 0.28670803 0.287656 0.23990539 0.13262673 0.28537363 0.19004187 0.18158926
0.09699809 0.3179717 0.21779667 0.09673486 0.24095105 0.24509123 0.27519837 0.2026467
0.36221233 0.14376713 0.040237434 -0.37661403 0.059476834 0.12707278 0.17779149 0.23685424
0.3269323 0.2834802 0.08397589 0.32459462 0.11112646 0.25018635 0.2851079 0.2827299
0.22130261 0.12456852 -0.037575684 0.111532815 0.090503864 0.07049995 0.24839117 0.30751824
-0.0055780327 0.25785375 0.26575074 0.22549266 0.23154867 0.21782485 0.39235458 0.23441072
0.36617926 0.26188934 0.17441078 0.09791755 0.27942124 0.24923703 0.16717336 0.36527103
0.38811624 -0.018076755 0.19313541 0.32091734 0.3185047 0.24068215 0.2317809 0.21671835

model.2.bias f4 [64]
00000000: df99 8c3d 3afa a63e 1194 9d3e f1d1 b83e
00000010: 306a b6bd 03a8 c33e f951 673b 6c8d 46be
00000020: ba01 5f3e b1ea 9ebc 092d 5d3e 2986 963e
00000030: f460 963e 6030 973e 57ef f4bc 1a10 5c3e
00000040: 5cf4 2fbc 8530 863e b95c 7b3c 212e 773d
00000050: 7463 c23e 57dc b33e 4619 8ebc cd56 4ebd
00000060: f898 ae3e cd47 acbd 4af7 883e b7c9 093d
00000070: 445c 813e 4e31 853e 5004 84bc f259 583e
00000080: 7710 5f3e 312a 803e dd07 26bd 784b bb3b
00000090: 603c 033b a4ee 613e f952 cfbd 49a4 823e
000000a0: 1f6b e7bd 9f53 5d3e 98aa de3c 0630 653e
000000b0: 9420 97be 9cc9 863e d96b 8b3e 9d4f 7c3e
000000c0: 36e4 213d ff0a 73bd e2d9 63bd d8b6 4f3e
000000d0: acce b03e b5bb 9e3e 1c04 babd d78a d0bc
000000e0: 8e78 433e dedf 94bd 79e9 953e 4ce4 5abb
000000f0: 02d0 8d3d c1ed 603e 95d8 993e 6ea8 4f3e
0.06865286 0.32612783 0.30777028 0.36097673 -0.089069724 0.3821412 0.0035296662 -0.19389886
0.21778002 -0.019399019 0.21599211 0.2939923 0.29370844 0.29529095 -0.029899282 0.21490517
-0.010739412 0.26208892 0.015341931 0.060346726 0.37966502 0.35129043 -0.017346036 -0.05037575
0.3410108 -0.084121324 0.26751167 0.033639636 0.25265706 0.2601418 -0.016115338 0.21128061
0.21783625 0.2503219 -0.040534843 0.0057157837 0.0020025 0.2206369 -0.10123248 0.25515965
-0.112997286 0.2161393 0.027180955 0.223816 -0.29517043 0.2632569 0.2723072 0.24639745
0.03952428 -0.05933666 -0.05562771 0.20284593 0.34532678 0.31002584 -0.09082815 -0.025456829
0.19088957 -0.07269262 0.29279688 -0.0033400236 0.0692444 0.21965696 0.3004805 0.20279095

model.4.weight f4 [1, 64]
00000000: 87f8 26bd 0e37 8c3e d1e0 8d3e 90b8 833e
00000010: a4f4 a5bd 4da9 903e d3ec a2bd 37d5 50bf
00000020: 4ee3 a93e 3c77 23bd 639d 8d3e 419d 9a3e
00000030: fd0d 913e c6ef b53e 5496 29bf 1c69 9b3e
00000040: 7f71 5fbc 4001 ac3e 674e 97bd 49cf 9cbd
00000050: 9a55 853e e5d7 a93e 174a b0bc 737f 7bbc
00000060: 8a85 8e3e b248 d0bd c6dc 9b3e 98ea 78bd
00000070: 989a a03e f8ed 983e 856c 1cbc 76ec a63e
00000080: 97fd a53e 996d ae3e 86e6 ffbe 9634 9bbd
00000090: 2fc4 d9bd 7e79 ab3e 8578 61bd 3b2d 9d3e
000000a0: 72e0 2abf 26c2 a53e 8a0a 8a39 b9ba 993e
000000b0: c0ea 6abf cd2b 8e3e 1483 b03e 748a 9d3e
000000c0: 50fd 75bd 44aa b0bd 72f4 73bc 2745 58bf
000000d0: 11b6 883e 2f51 973e b312 d4bd 6c7a 74bd
000000e0: 60ad bb3e ef49 e4bc 4a55 8f3e 033f babb
000000f0: 234f 94bd b199 a73e df5f be3e a8f5 a73e
-0.040764358 0.27385753 0.27710584 0.25726748 -0.08103302 0.28254166 -0.07955327 -0.8157534
0.33181232 -0.039908633 0.2765914 0.301981 0.28330985 0.35534495 -0.6624501 0.3035363
-0.013637899 0.33594704 -0.07388001 -0.07656724 0.2604187 0.33172527 -0.021519704 -0.0153502105
0.27836257 -0.101701155 0.30441874 -0.0607706 0.31367946 0.29869056 -0.009547357 0.3260228
0.32420036 0.3406799 -0.49980563 -0.07578389 -0.10633122 0.3349113 -0.055046577 0.3069857
-0.66748726 0.32374686 0.00026329263 0.3002527 -0.9176445 0.27767792 0.34475005 0.30769694
-0.06005603 -0.086262256 -0.014889823 -0.8448052 0.26701406 0.29554126 -0.10355129 -0.059687063
0.36655712 -0.027867286 0.27994758 -0.005683781 -0.07241657 0.32734445 0.3718252 0.32804608
