pk_adv_no_sex.onnx (onnx, 46241 bytes, 5 tensors)

model.0.weight f4 [128, 5]
000000 85 87 4b be 64 cb 13 3e 58 0b bb 3e 05 8b b2 3d
       -0.19875915 0.14433056 0.36532092 0.08717922
000010 e2 4b f6 3c 73 22 b7 be 74 ac 1a 3f d5 77 6d 3d
       0.03006548 -0.3576847 0.6041939 0.05797561
000020 34 8f 94 be 2b c0 c7 bd e8 65 a7 3e 1a 52 93 bd
       -0.29015505 -0.0975345 0.32694936 -0.07193394
000030 39 f5 a2 3e 61 d4 15 3e 8c 5b f8 3d 9c 05 95 bc
       0.31827715 0.14631797 0.12126836 -0.018191151
000040 a1 d7 e8 3e 1e 9c 1f 3f 2b aa a7 3d a0 73 b8 be
       0.45477012 0.6234759 0.08186754 -0.36025715
000050 9d 40 01 3f dc 72 11 3e dc 27 9c 3e 0d 57 77 3e
       0.5048922 0.14203972 0.3049916 0.24154301
000060 47 0f 9d 3e 74 ff bf 3e 29 57 42 3e c3 9b 33 3d
       0.30675718 0.37499583 0.18978561 0.043849718
000070 d2 eb bf bc 7e e0 4e 3d 5e 70 42 3e 60 c6 59 bc
       -0.023427878 0.05050706 0.18988177 -0.013291925
000080 39 90 ed 3e de e4 6c be 0b 8e e2 3d 46 5e 29 3e
       0.46399096 -0.23134181 0.11062249 0.16539869
000090 cc 71 82 3d 28 43 a7 3e 58 80 0d bf cd c4 eb 3e
       0.06369361 0.32668424 -0.5527396 0.46048585
0000a0 ab 2c 8a be e4 25 0a 3f aa 64 20 3f ad d7 9e 3d
       -0.26987204 0.53964067 0.626536 0.07755981
0000b0 ba 82 c0 bc ad a9 61 be d5 97 00 3f c1 bb 27 3d
       -0.023499835 -0.22037382 0.5023168 0.04095054
0000c0 06 91 61 be d2 c1 15 bd ea c2 b9 be ab 46 bd 3e
       -0.22027978 -0.036561795 -0.3628152 0.36967978
0000d0 ca 96 fc 3d 04 13 03 be 3a 3f 8c be f0 e6 f8 be
       0.12333448 -0.12800223 -0.27391988 -0.4861369
0000e0 53 34 8c 3d db 5f 9a 3e 24 f3 87 be d5 7f aa be
       0.068459176 0.30151257 -0.2655269 -0.33300653
0000f0 98 2d c9 be a8 96 06 3f 87 8e ad 3e 0b 89 35 3c
       -0.39292598 0.52573633 0.33897802 0.011080037
000100 20 86 86 bd 8c 6a 94 3d 2a 77 13 bc 41 c7 eb bc
       -0.06568551 0.07246885 -0.009000579 -0.028781535
000110 2c 1c 6f 3e 7b 12 03 be 6b a7 dc 3e 3c 7c 4b 3e
       0.2335059 -0.12800018 0.4309648 0.1987161
000120 98 a9 80 bd 0b 33 d6 3d b3 5c 92 bb bf 8e 8f 3e
       -0.062823474 0.104589544 -0.004466617 0.28038594
000130 b6 c2 01 be 57 fb 96 3e e3 fd c3 be a3 f4 7e be
       -0.12671933 0.29488632 -0.38279638 -0.24898009
000140 a3 b8 db 3d 9c 0b 69 3d ef 58 26 3f 67 a3 b8 3d
       0.10728576 0.056895837 0.6497945 0.090155415
000150 22 09 75 3e 34 33 f4 3d d6 20 04 3d 15 dc 41 be
       0.23929265 0.11923829 0.032257877 -0.18931611
000160 8d d9 ec 3c 92 0b b4 3e 5d a2 89 be 4f d9 99 3e
       0.02891233 0.35165077 -0.26881686 0.30048606
000170 63 09 36 3f d7 f9 db bc cc 11 c5 bd f8 85 c2 3e
       0.71108073 -0.026852531 -0.09622535 0.37992835
000180 80 a6 26 3f 01 49 1a 3f 0c 8e f4 3e d5 e4 c4 3e
       0.6509781 0.60267645 0.47764623 0.38455835
000190 21 31 19 3f c0 05 02 be 00 30 03 3e 37 62 05 bf
       0.5984059 -0.12697506 0.1281128 -0.5210299
0001a0 f9 89 f3 bd c0 c4 21 be 64 c4 0d 3f c8 92 2b 3e
       -0.118915506 -0.1579771 0.55377793 0.16755211
0001b0 d6 b7 53 3c dd 0a 81 be e9 69 b2 3e 90 5d 25 3f
       0.012922248 -0.252036 0.34846428 0.6459589
0001c0 91 91 03 3e 7d f3 bb 3c 0d 96 ea bc d0 e3 52 be
       0.12848498 0.022943253 -0.028636003 -0.20594716
0001d0 87 49 c9 bd 3c c1 3d 3f 05 98 d1 bc 57 62 09 3d
       -0.09828477 0.7412298 -0.025585184 0.03354105
0001e0 c4 57 02 bf 1b 6b f5 3e b3 67 8a bd 74 a8 9b bb
       -0.5091517 0.47933277 -0.0675806 -0.004750306
0001f0 d2 6c c8 bb f9 3a db be 63 c9 49 3e 5f 15 ac 3e
       -0.006116488 -0.4281843 0.19705729 0.33610055
000200 0b 3c 2e be 9b 1b b8 be fa 25 6f be 75 a9 3e 3f
       -0.17015092 -0.3595856 -0.2335433 0.7447732
000210 c7 71 bb 3d 38 4d 6c 3d 90 93 a1 bd 95 63 22 3f
       0.09152561 0.05769083 -0.078894734 0.634332
000220 61 04 3c 3d be da e7 3c 1c 27 6e bd 53 23 d4 3e
       0.045902614 0.028302547 -0.058142766 0.414332
000230 c0 3a cf bb e9 83 45 be 58 31 d6 3e 09 bd 92 be
       -0.006324142 -0.19288601 0.4183452 -0.28659847
000240 c2 27 ed 3d 80 35 b6 bd 32 0f ce 3d 70 94 a0 3c
       0.11579849 -0.08896923 0.10061492 0.01960203
000250 39 d8 d8 3e eb 02 32 bf 7c 10 99 3e 2f 94 99 3e
       0.42352465 -0.695357 0.2989539 0.29995868
000260 9d fa 7d 3c 16 e7 91 be ef 4e c7 be c9 87 0f 3e
       0.015501645 -0.28496617 -0.3892741 0.14016642
000270 f5 e3 23 3f be 16 54 3d fd 9b 0e bd c7 32 a8 be
       0.6401971 0.0517795 -0.03481673 -0.3285124
000280 e9 05 b2 3d 06 f2 e6 3d 8e b2 0f 3f 00 42 63 bc
       0.086925335 0.11276631 0.5613183 -0.013870716
000290 b5 cc d5 3d 54 c4 50 3e 71 26 f1 bd 3b fc d8 3e
       0.104394354 0.20387393 -0.1177491 0.42379937
0002a0 53 75 72 be ec 38 2c be f1 21 5a 3e 61 dc 25 3f
       -0.23677568 -0.16818589 0.2130201 0.64789397
0002b0 ab 4b 32 3f a6 28 4f be 53 12 58 be 9c 93 67 bd
       0.6964671 -0.2023035 -0.2110074 -0.056537256
0002c0 4c fd b0 3e cd bc 1f 3f 77 a8 83 3e d0 f7 78 be
       0.3456825 0.6239746 0.25714466 -0.24313283
0002d0 2c 65 f6 bc 03 79 ec 3e 55 61 05 3f 14 0b 60 3d
       -0.03007754 0.46186075 0.5210164 0.054698065
0002e0 0f fc f1 3d 30 88 b2 be c1 82 dc 3d a7 1e 48 3f
       0.118156545 -0.34869528 0.10767127 0.7817177
0002f0 68 1d 22 3e 7b 07 0e be b0 cd a2 3d 0f 68 29 3f
       0.1583153 -0.13870041 0.07949388 0.66174406
000300 bd ee 00 3f 62 e9 08 3e 37 8b 94 bd 9e bc 95 be
       0.50364286 0.13370278 -0.072531156 -0.29245466
000310 a7 cc cc bd 48 68 11 3f 33 99 78 be 6f 7e 80 3e
       -0.09999972 0.56799746 -0.24277191 0.2509646
000320 da b3 8e be 35 13 1e 3f 29 02 23 3e 29 b7 00 be
       -0.2787159 0.6174806 0.15918793 -0.1256987
000330 8e b5 1d 3d f4 fd 0c bf d2 a4 23 3f da dc 8a 3d
       0.038503222 -0.55075 0.6392337 0.06780405
000340 2f 76 b1 3a 5c 0e 3b 3d db 0d 29 3e 6f 6f 13 3d
       0.001353925 0.04566799 0.16509192 0.035994943
000350 91 e7 af 3a 57 73 c0 be 8c 80 30 3d b8 47 9b 3e
       0.0013420453 -0.37587997 0.04309134 0.30328155
000360 0a c6 e3 3e 9b b8 23 3f 57 36 e8 bd ed 80 d2 3e
       0.4448703 0.6395356 -0.113384895 0.41113988
000370 a6 f2 34 be 0a a4 23 3f b8 3b ab 3e 02 5a e2 bc
       -0.17670688 0.6392218 0.33444 -0.02763081
000380 54 06 f7 3d 07 75 be be 8b 70 a6 3e e5 f1 43 be
       0.12061754 -0.3719866 0.32507738 -0.19135244
000390 de 9a ba be d3 bb 88 be 5f 4e e0 3d ed d1 be 3e
       -0.3644628 -0.26705799 0.10952448 0.37269536
0003a0 53 3e 85 be ec 06 47 bd 40 05 a9 bc fe 40 3e be
       -0.26024112 -0.048590586 -0.020632386 -0.1857948
0003b0 1b cf 2a 3f bf 41 02 3d dc 42 86 bd f9 67 5a 3c
       0.6672227 0.03180098 -0.06555721 0.013330453
0003c0 7e 2a 9a 3d 92 26 1c 3f 56 d8 28 3f d0 e0 3c be
       0.07527636 0.60996354 0.659551 -0.18445134
0003d0 f1 68 f0 3d 68 cf 82 be 3d e6 28 3f b2 82 f1 3e
       0.11738766 -0.25548863 0.65976316 0.47170025
0003e0 38 97 0c 3e 3b bf b8 3d 61 54 90 be 72 9d fd 3e
       0.1372956 0.09020849 -0.28189376 0.49534184
0003f0 21 5c 3e 3f cf 3c 34 bd 65 f0 ef bd f7 1a 27 bf
       0.7435933 -0.044003304 -0.117157735 -0.6527552

model.0.bias f4 [128]
000000 0b 36 1d 3f 76 58 39 be df 85 1b 3f f8 cf ac bc
       0.6141059 -0.18100151 0.60751146 -0.021095261
000010 54 90 43 3f 91 38 2b 3f 49 e4 8a 3e ef fc 31 3e
       0.763921 0.6688319 0.27127293 0.17381643
000020 79 d2 07 3f f2 09 a0 bd ed f6 e1 3e 90 12 f7 3e
       0.5305553 -0.07814397 0.44133702 0.4825635
000030 c9 35 5a 3e e6 dd 1b 3f 2b 1b 23 3f 4a 53 0c 3f
       0.2130958 0.60885465 0.6371333 0.5481459
000040 45 6f 6e 3e ad 42 0e 3f 81 02 ad 3e aa 04 18 3d
       0.23284633 0.5557049 0.33790973 0.037113823
000050 11 5a 44 3e 77 e7 b4 3d 3e 82 6d 3f 37 4e 6d 3e
       0.19174983 0.08833211 0.9277686 0.23174368
000060 be 29 22 be 5a 2b 55 3c 11 41 b5 3e 8a 38 e0 bc
       -0.15836236 0.013010824 0.35401204 -0.02737071
000070 74 38 28 3f dd bb c8 3d dd 9e 4b 3e 64 7a 97 3d
       0.6571114 0.09801457 0.1988482 0.07396391
000080 10 a4 1e 3f f8 36 5a 3e 07 4a 01 3f 20 0f 49 3d
       0.6196909 0.21310031 0.5050358 0.04908669
000090 58 02 38 3f 37 5b 79 3d e8 57 54 3f 64 cb e5 3e
       0.71878576 0.060878005 0.82946634 0.44881737
0000a0 3d f8 c4 3e c9 97 85 bc db 76 58 3f 03 f6 b9 3e
       0.3847064 -0.016307728 0.8455636 0.36320505
0000b0 e3 5a 53 3f 38 d4 80 3e 99 6f ac 3e 7b 70 36 3f
       0.8256056 0.2516191 0.33678892 0.7126538
0000c0 3c 03 0d 3f 80 89 4f 3f da e9 f0 3e 84 8e 45 be
       0.5508306 0.81069183 0.47053415 -0.19292647
0000d0 44 39 7d 3e 34 1b 34 3c f0 e0 41 3f c1 d9 2a 3f
       0.24728876 0.010992814 0.7573385 0.66738516
0000e0 77 91 6a 3e bd b2 2f 3f f1 87 69 bd fb 20 cc bd
       0.22907053 0.6863211 -0.05701441 -0.09967228
0000f0 7d 4d 86 3e 57 62 42 3f d0 6a 43 3d b8 d7 0d 3f
       0.26230994 0.75931305 0.047709286 0.55407286
000100 fb f6 32 3f b4 a9 36 3f dc 80 94 3e fd 46 72 3e
       0.6990811 0.71352696 0.29004562 0.23659892
000110 f9 de 01 be bd 25 27 3f ac 72 40 3e 82 96 be 3e
       -0.12682714 0.6529196 0.18793744 0.37224203
000120 7b c2 43 bd ca 51 19 3f 13 9f 3f 3f ad 09 e5 bd
       -0.047792893 0.59890425 0.74852103 -0.11183486
000130 03 41 53 3f 1d c6 1f 3f 11 18 b3 3e 5c 9a 32 3f
       0.82521075 0.6241167 0.349793 0.69766784
000140 8f 65 54 3f 97 db 17 3f 63 34 66 be fe 98 a9 bd
       0.82967466 0.5931944 -0.22480921 -0.08281134
000150 0d ed 0e 3e 87 19 03 3f 55 13 ef 3d 7d c7 1a 3f
       0.13957615 0.51210827 0.11673609 0.60460645
000160 2a 39 c6 3e 95 38 4f 3e 2c de d2 3e 8b a8 2f 3f
       0.38715488 0.20236428 0.4118513 0.6861655
000170 0c d0 47 3e fb 0e 89 3e f5 42 17 3f fd d6 64 3e
       0.19512957 0.26769242 0.59086543 0.22347637
000180 b5 88 1a 3f fd 31 c0 bd a3 d7 06 be d4 9e a8 3e
       0.6036485 -0.093845345 -0.13168196 0.32933676
000190 53 f4 be 3e 7a fd d1 be d3 2d 41 3f 43 1d fb 3e
       0.3729578 -0.410137 0.7546055 0.49045762
0001a0 6f f6 2f 3e 58 9f 4a 3f 74 1f 39 be 99 0e 01 3f
       0.1718385 0.7914939 -0.18078405 0.504129
0001b0 b9 a5 3b 3f a1 05 27 3f be 2b 24 3f 35 b6 42 3f
       0.7329975 0.65242964 0.64129245 0.76059276
0001c0 80 2e 46 3f b0 a4 a3 3e 0d 56 ba 3d de c4 15 3d
       0.77414703 0.31961584 0.09098444 0.0365647
0001d0 25 37 0c 3f 73 11 d7 3e 8e 88 d2 bc 1b b0 43 3f
       0.54771644 0.420055 -0.02569988 0.7644059
0001e0 3b 74 34 3f 7d 95 20 be 2f 6b ba bc 91 de 3f 3f
       0.70489854 -0.15682025 -0.022756187 0.74948984
0001f0 e3 d2 d7 3e e3 9b 5f 3e fe 93 91 3e 4b 9d 1d 3f
       0.4215308 0.2183681 0.28433222 0.61568135

model.2.weight f4 [64, 128]
000000 c7 d2 27 bc 4a b0 93 3d 90 73 c1 bd 9a 2c 73 3d
       -0.010243124 0.07211359 -0.0944587 0.059368707
000010 46 75 0a bd 43 e0 a0 bc 2a 53 62 3d 31 d5 b3 bd
       -0.033803247 -0.019638186 0.055255093 -0.087808974
000020 ec d0 89 bc a7 c7 b6 bb 09 07 87 3c dd 0c 12 bb
       -0.016823255 -0.0055779996 0.016482847 -0.00222855
000030 96 06 15 3d cd 99 64 3d 88 3f cd bd 1d d7 50 bd
       0.036383234 0.05581074 -0.10021883 -0.050986398
000040 b8 c4 bd 3c 4a 25 a4 bc 78 23 c8 bc bd 7f 9a bd
       0.023165092 -0.020037312 -0.024430975 -0.075438954
000050 a6 31 ca bd 4d 04 90 bd 73 74 40 3d 52 fc 7b 3d
       -0.09872751 -0.0703207 0.046986055 0.06151993
000060 57 a6 c1 bd e1 92 14 3c b0 df 9b bc 18 f2 ac bd
       -0.09455555 0.009068222 -0.019027561 -0.08444613
000070 e0 49 06 3d ed 99 91 3d b0 99 57 bd a2 65 f9 bc
       0.032785296 0.07109437 -0.052636802 -0.03044397
000080 62 2b c7 bd 5f 9a d6 3c 7d 12 7f bc 1c 23 96 bd
       -0.097250715 0.026196657 -0.015568373 -0.07330915
000090 66 17 1c 3d a0 ef 4c bc fd 8e c4 bd 77 9e 23 3d
       0.038108252 -0.012508303 -0.09597585 0.039946046
0000a0 b4 a9 a4 bd 39 78 91 bd 79 e4 2a 3c 37 ec 62 bd
       -0.08040181 -0.07103009 0.010430449 -0.055401053
0000b0 e9 6f 72 3c 04 72 ec bc 0a 44 42 bc 07 19 90 3c
       0.014797189 -0.02886296 -0.011857042 0.017590059
0000c0 33 bd 88 3d b5 ca 9a bd 8a 2b 88 3d cb bd 81 bd
       0.06676712 -0.075581945 0.066489294 -0.06335028
0000d0 97 6f a1 3b 8d eb b2 bd b5 1f 93 3d b2 c9 b0 3c
       0.0049266326 -0.08736334 0.07183782 0.02158055
0000e0 b9 fd 20 3d d1 33 73 3d 01 82 4d 3c 21 a2 8a bd
       0.03930447 0.059375588 0.012543202 -0.06769205
0000f0 87 c1 73 bb de a5 a1 bd ec 5f f1 3b 10 a4 af bc
       -0.0037194209 -0.07892965 0.007366171 -0.021440536
000100 2e 8b 5e ba fc d5 97 bd 8b 56 e5 3c f7 3c ce bd
       -0.00084893673 -0.07413861 0.027995368 -0.10070222
000110 a4 10 a2 bd 35 9b 55 bd c7 2c e6 3b ed 93 7f 3d
       -0.0791333 -0.05214997 0.007024381 0.062396932
000120 89 42 4e 3d 41 c5 a6 3c 0d 98 5e bc b1 88 6a bb
       0.05035642 0.02035773 -0.013586056 -0.003578704
000130 2b bf 86 bc fb e0 79 3d 7c 66 94 3d 50 e8 45 3d
       -0.016448578 0.061005574 0.0724611 0.048317254
000140 2c 50 a1 bd d5 ba 88 bd cf db b7 bd 53 04 8c 3c
       -0.0787662 -0.066762604 -0.08977472 0.017091906
000150 2c 7c 66 3c 4e 2d 9a bb 16 4e 72 3d fd 59 bf bd
       0.014067691 -0.004705108 0.0591565 -0.09343336
000160 91 ce 87 3d 07 85 59 bd 23 e2 53 bd f4 55 c3 bd
       0.06631196 -0.05310538 -0.051729333 -0.09537879
000170 05 1b 3f bc ed 74 b5 bc 5c 8d fe bc 42 79 a7 3c
       -0.011664157 -0.022150481 -0.031073265 0.020443562
000180 a8 06 97 bc 3b 21 83 3a 48 13 e4 bc 6c b6 ae bd
       -0.018435791 0.001000441 -0.027841225 -0.08530888
000190 ab 7f bd bd 08 d8 b2 bd 86 26 aa bd 7a f0 8a bc
       -0.09252866 -0.08732611 -0.08308129 -0.016960371
0001a0 5b c7 aa bd 29 ba 02 3d 47 f8 87 3d 37 15 79 bc
       -0.08338805 0.031915817 0.06639152 -0.015202812
0001b0 a7 45 9f bd f6 c3 51 3d 15 20 41 bd 23 3e c8 bd
       -0.07776957 0.051212274 -0.047149736 -0.09777477
0001c0 b8 47 1b 3d 55 86 15 3d d6 93 b6 bd fe 9d 95 bd
       0.037910193 0.036505062 -0.08914916 -0.07305525
0001d0 c0 f4 c5 3c 7d f6 0a bd 17 82 91 bd 3d 01 b3 3c
       0.024164557 -0.033926476 -0.07104891 0.021851176
0001e0 4d cc 5d bd 75 d1 91 bd 2b 50 19 3d 7c cb 16 3d
       -0.054149915 -0.07120029 0.03742997 0.03681515
0001f0 60 a7 e8 bc 2e ac 97 bd 57 d3 8f 3d 48 94 16 bd
       -0.028400123 -0.074058875 0.07022732 -0.036762506
000200 91 47 95 3e 2e a9 28 3e 3c 42 4a 3e 84 11 d4 3d
       0.29156163 0.16470787 0.19751829 0.10354903
000210 fe 81 4b 3e 56 53 8d 3e fe e0 33 3e f4 2b 28 3e
       0.19873807 0.27602643 0.17566296 0.16423017
000220 22 68 af 3e c4 c7 33 3e 72 d7 87 3e 56 c2 86 3e
       0.34259135 0.17556673 0.2653156 0.26320142
000230 51 8d 1a 3e 1a 49 51 3e 99 d5 35 3e 14 99 29 3e
       0.1509297 0.20438042 0.17757262 0.16562301
000240 34 fb 82 3e 9f 39 91 3e 08 d0 a2 3e 24 b0 75 3e
       0.25582278 0.28364274 0.3179934 0.23992974
000250 73 d2 94 3d 09 02 5a 3e 36 8a 9e 3e 5d 6d a1 3e
       0.072667025 0.21289839 0.30964822 0.3152875
000260 9c 23 26 3e a6 35 cf 3d d6 bb 82 3e 4e 24 ab 3d
       0.16224521 0.101176545 0.25533932 0.08356534
000270 e6 c7 58 3e b0 3d fa 3d 71 dd d7 3c 65 f1 1d 3e
       0.21170005 0.12218797 0.026350709 0.15424116
000280 78 75 a2 3e 7d 5e a5 3d 8c ca 98 3e 9f 59 23 3e
       0.31730247 0.08074663 0.2984203 0.15952156
000290 f7 ef 55 3e 56 f7 11 3e b6 b8 b4 3e 71 16 23 3e
       0.2089232 0.14254507 0.35297173 0.1592653
0002a0 aa 7e 93 3e cb f1 42 3e 1c fd a8 3e 0a 92 12 3e
       0.28807575 0.19037549 0.33005607 0.14313522
0002b0 24 39 8b 3e b3 8e 96 3d be b4 ac 3e fc ec 77 3e
       0.27192032 0.073514365 0.33731645 0.24211496
0002c0 0e 79 76 3e c2 3b 5c 3e 13 86 74 3e c2 05 de be
       0.24069616 0.21507171 0.2387927 -0.43363768
0002d0 a9 eb 3a 3e 15 27 98 3d 2f 4a 7c 3e dc f8 7d 3e
       0.1825396 0.07429329 0.24637674 0.24801964
0002e0 a1 ac 6b 3e d4 5c ad 3e 76 30 64 be 9c 70 e3 3d
       0.23015071 0.33859885 -0.22284111 0.11105463
0002f0 6b e6 41 3e d0 5c 88 3e 25 f1 40 3e 69 e7 5a 3e
       0.18935554 0.2663331 0.1884199 0.21377338
000300 72 29 54 3e 11 b6 99 3e 8c dd 92 3e 54 47 72 3e
       0.20718935 0.30021718 0.28684652 0.23660022
000310 d7 eb f2 3d 4a 75 98 3e 39 94 3c 3e 04 b9 32 3e
       0.11861389 0.29776984 0.18415917 0.1745339
000320 32 c6 b8 3d 94 d5 a0 3e 78 fe 66 3e 66 2c d2 3d
       0.09022178 0.31412947 0.2255801 0.102623746
000330 eb 97 79 3e ca 50 77 3e 43 c6 8a 3e 17 b3 5f 3e
       0.24374358 0.24151912 0.27104387 0.21845661
000340 6c 62 bc 3e ad 84 10 3e 98 61 19 3d 48 02 bf be
       0.3679384 0.14113112 0.03744659 -0.37306428
000350 af c4 71 3d ba a3 f9 3d 3f dd 36 3e 5a ce 7c 3e
       0.059025463 0.121894315 0.17857836 0.24688092
000360 27 cb a7 3e a2 92 8d 3e 2f fc b1 3d db 77 ab 3e
       0.3277218 0.27650934 0.08690678 0.3348988
000370 70 4a e6 3d fe 5d 7e 3e 17 ee 90 3e 06 52 90 3e
       0.112446666 0.24840543 0.28306648 0.2818758
000380 3b 7e 57 3e ad 73 01 3e 0e e5 15 bd a4 e5 f0 3d
       0.21044247 0.12641783 -0.036595397 0.117625505
000390 86 3c ae 3d 47 62 90 3d d2 7a 83 3e ac 94 a1 3e
       0.08507638 0.07049995 0.25679642 0.3155874
0003a0 dc 09 a5 ba d4 43 87 3e f3 86 7f 3e 7c df 62 3e
       -0.0012591439 0.26418936 0.24953823 0.22155565
0003b0 36 4d 6e 3e 64 04 5b 3e 7f da cb 3e 96 c0 6f 3e
       0.23271641 0.21388394 0.39815137 0.2341331
0003c0 ba a2 c2 3e 6a 52 83 3e b7 a8 2e 3e 7f eb ad 3d
       0.38014776 0.25648814 0.17056547 0.08492183
0003d0 a1 06 8e 3e 36 a0 7d 3e 32 47 34 3e 4c 9d bd 3e
       0.27739432 0.24768147 0.17605284 0.3703407
0003e0 d3 28 cf 3e 04 26 94 bc eb 7c 43 3e 19 21 a5 3e
       0.40460834 -0.018084534 0.19090621 0.32251814
0003f0 d2 02 a1 3e 63 b2 76 3e 97 7a 68 3e a7 9d 4f 3e
       0.31447464 0.24091487 0.22703014 0.20274983

model.2.bias f4 [64]
000000 df 99 8c 3d ca 65 a1 3e 24 00 98 3e ab 3e b3 3e
       0.06865286 0.3152297 0.29687607 0.3500875
000010 30 6a b6 bd 53 13 be 3e f9 51 67 3b 89 f3 3e be
       -0.089069724 0.37124118 0.0035296662 -0.18647589
000020 67 d7 53 3e b1 ea 9e bc c3 00 52 3e c0 ec 90 3e
       0.20687638 -0.019399019 0.20508103 0.28305626
000030 14 cd 90 3e 80 99 91 3e c7 7d a1 bc 4d e3 50 3e
       0.28281462 0.28437424 -0.019713296 0.20399208
000040 5c f4 2f bc 07 9c 80 3e b9 5c 7b 3c 21 2e 77 3d
       -0.010739412 0.2511904 0.015341931 0.060346726
000050 74 cf bc 3e 07 48 ae 3e 46 19 8e bc cd 56 4e bd
       0.36877024 0.34039328 -0.017346036 -0.05037575
000060 18 02 a9 3e cd 47 ac bd f0 5f 83 3e b7 c9 09 3d
       0.3300941 -0.084121324 0.25659132 0.033639636
000070 ae 8b 77 3e af 35 7f 3e 50 04 84 bc f0 2f 4d 3e
       0.24174377 0.24922822 -0.016115338 0.20037818
000080 3e e3 53 3e 25 2a 75 3e b3 6b 1a bd 78 4b bb 3b
       0.20692155 0.23941858 -0.037700366 0.0057157837
000090 60 3c 03 3b f1 c3 56 3e f9 52 cf bd 2e 18 7a 3e
       0.0020025 0.20973183 -0.10123248 0.24423286
0000a0 0a 8b d5 bd c5 27 52 3e 98 aa de 3c 60 fc 59 3e
       -0.1042691 0.20522983 0.027180955 0.2128768
0000b0 47 d6 92 be e6 34 81 3e 49 d3 85 3e 63 27 71 3e
       -0.28679106 0.2523567 0.2613776 0.23550181
0000c0 36 e4 21 3d ff 0a 73 bd e2 d9 63 bd 9a 0f 4e 3e
       0.03952428 -0.05933666 -0.05562771 0.20123139
0000d0 22 3a ab 3e bc 24 99 3e 1c 04 ba bd d7 8a d0 bc
       0.3344279 0.2991084 -0.09082815 -0.025456829
0000e0 c7 42 38 3e de df 94 bd 6b 51 90 3e 4c e4 5a bb
       0.17994224 -0.07269262 0.28187117 -0.0033400236
0000f0 02 d0 8d 3d 18 c0 55 3e 63 40 94 3e a1 7e 44 3e
       0.0692444 0.20874059 0.28955373 0.1918893

model.4.weight f4 [1, 64]
000000 87 f8 26 bd ae a3 8c 3e 1b 5b 8e 3e a8 11 84 3e
       -0.040764358 0.27468628 0.27803883 0.2579472
000010 a4 f4 a5 bd db 1e 91 3e d3 ec a2 bd ea ad 4f bf
       -0.08103302 0.28343853 -0.07955327 -0.81124747
000020 f7 62 aa 3e 3c 77 23 bd ed f1 8d 3e d1 d2 9a 3e
       0.3327863 -0.039908633 0.27723637 0.30238965
000030 df 86 91 3e 7e 69 b6 3e b0 9b 27 bf c7 ce 9b 3e
       0.2842321 0.3562736 -0.65471935 0.30431196
000040 7f 71 5f bc f6 9c ac 3e 67 4e 97 bd 49 cf 9c bd
       -0.013637899 0.33713502 -0.07388001 -0.07656724
000050 59 bc 85 3e d5 5f aa 3e 17 4a b0 bc 73 7f 7b bc
       0.2612026 0.3327624 -0.021519704 -0.0153502105
000060 6b da 8e 3e b2 48 d0 bd 41 32 9c 3e 98 ea 78 bd
       0.27901015 -0.101701155 0.3050709 -0.0607706
000070 cc 0e a1 3e f0 47 99 3e 85 6c 1c bc 93 6a a7 3e
       0.31456602 0.29937696 -0.009547357 0.32698497
000080 bb 62 a6 3e cf f3 ae 3e 9d 05 fd be 96 34 9b bd
       0.324972 0.34170386 -0.49418345 -0.07578389
000090 2f c4 d9 bd 54 09 ac 3e 85 78 61 bd 63 6d 9d 3e
       -0.10633122 0.33600867 -0.055046577 0.30747518
0000a0 24 22 28 bf 0f 42 a6 3e 8a 0a 8a 39 ea e7 99 3e
       -0.65677094 0.32472274 0.00026329263 0.3005975
0000b0 42 5e 6a bf f3 98 8e 3e 13 e0 b0 3e 02 0b 9e 3e
       -0.91550076 0.27851066 0.34545955 0.30867773
0000c0 50 fd 75 bd 44 aa b0 bd 72 f4 73 bc 34 58 55 bf
       -0.06005603 -0.086262256 -0.014889823 -0.8333771
0000d0 7e 1c 89 3e 88 9c 97 3e b3 12 d4 bd 6c 7a 74 bd
       0.2677955 0.2961161 -0.10355129 -0.059687063
0000e0 79 e9 bb 3e ef 49 e4 bc fb 8f 8f 3e 03 3f ba bb
       0.36701563 -0.027867286 0.28039536 -0.005683781
0000f0 23 4f 94 bd a8 03 a8 3e 8b cf be 3e c2 78 a8 3e
       -0.07241657 0.3281529 0.37267718 0.3290463
