pk_adv_vehicle_dl2.pth (torch, 39577 bytes, 5 tensors)

model.0.weight f4 [128, 5]
00000000: 6a39 4bbe c281 0b3e 8494 b03e a1ca b83d
00000010: 81cd 193d 6f20 c1be 461b 1a3f 8bcc 613d
00000020: 67f4 90be b09f cebd 818e ac3e cda3 94bd
00000030: b1d5 9f3e f37a 1b3e 112f f93d 2048 a5bc
00000040: 4d9e e73e 6f70 223f 269c 863d 1853 b1be
00000050: d406 033f b30a 0e3e 2b94 993e 1134 743e
00000060: 9bf7 9a3e 6d9b c63e 278d 3f3e c219 f63c
00000070: 79b6 dcbc b09e 333d 51bd 453e 7f4c 35bc
00000080: 0e81 ef3e fb8a 62be e375 dd3d 604f 303e
00000090: 24ed 803d 568e a73e e074 0bbf b277 e83e
000000a0: 6f4a 8dbe 72f2 093f 84ac 233f 434c 783d
000000b0: 0291 5bbd 70e0 76be 82f5 ff3e 344f 313d
000000c0: 23e0 5abe 10ae 25bd 99e5 b8be f2cc c13e
000000d0: 2f68 013e 735a fcbd fb03 8fbe 50ba f5be
000000e0: c4c1 b33d a87a 9f3e 9f74 82be 95e1 afbe
000000f0: c1dc cdbe 5814 073f 7fe9 b73e 79eb 443c
00000100: 6a7e 8dbd caa9 aa3d 495e d0bb 3668 05bd
00000110: e0dc 733e 38dd efbd 4470 e03e 674e 453e
00000120: b4a6 98bd 79ae c83d 9791 c3bb 3b8a 953e
00000130: cf5f 00be 5dbb 943e cf3d c2be 8a7a 7abe
00000140: 3f3b d93d 7e43 6a3d 9d9c 293f 7f82 ae3d
00000150: b9e8 5a3e 39aa fd3d bad9 193d d200 51be
00000160: 80d7 fd3c 3894 b53e 08ec 9abe d880 9d3e
00000170: f5e4 3b3f 9df7 c4bc 63fc abbd c068 c53e
00000180: d1a9 253f b250 1c3f 28d7 ee3e 4e8f be3e
00000190: f735 1a3f 0a0c f1bd 26bd 093e 69c1 05bf
000001a0: 1291 00be 1707 3fbe 5142 0d3f 7751 373e
000001b0: ba5f 7a3c a753 71be 1304 b93e 3185 243f
000001c0: 74d7 003e 6c18 973c 7e3a fdbc 81ee 58be
000001d0: e889 a5bd eee8 433f 67f1 a5bc 2f0e fe3b
000001e0: d524 05bf ddbb f63e 1947 82bd 894e cf3a
000001f0: 257a 44bc 036b dbbe f756 403e 246b a83e
00000200: 2753 37be 6867 bcbe b37a 7cbe 81d4 3f3f
00000210: b639 d93d 353a 2e3d ae01 b2bd 55f8 223f
00000220: 0b43 0e3d 4ba3 ab3c 26fe 25bd eda9 cd3e
00000230: f683 be3b 5d7f 3cbe 4a7c d53e eb4a 99be
00000240: e0e0 e93d 1fd0 d4bd 5b77 053e 0868 233d
00000250: f511 ec3e e7b0 28bf edd0 9e3e 1053 983e
00000260: 1898 6e3c d88b 91be 4736 cdbe d4ea 113e
00000270: f313 223f c9ab 5b3d 8014 3ebd 767c a1be
00000280: 0bac d83d f9ef 023e 571d 133f 0696 6dbc
00000290: ce99 c43d b15e 573e 32be e7bd 2795 da3e
000002a0: 76a0 65be 3c39 27be 6713 5e3e f7fb 243f
000002b0: ebb5 333f 8eff 4bbe 71ba 51be 2b12 72bd
000002c0: ee9f b03e c7f5 213f 7c27 833e b00b 78be
000002d0: 69d1 8abc 6959 f63e fa83 093f a80e 543d
000002e0: c653 de3d 3fdf bbbe 929d de3d 4f52 4a3f
000002f0: 3555 183e b536 1bbe 5740 bc3d af63 2c3f
00000300: e16c 063f 7d76 053e 17c3 63bd b6ae 94be
00000310: 9684 b7bd d300 123f aef7 74be f072 6f3e
00000320: c35f 9abe 68a9 1f3f 69fd 2e3e 5d8e 0fbe
00000330: af31 fa3c 9efd 10bf a41c 233f 5126 983d
00000340: 56f3 c93a 647a c53c e05c 333e e24f 023d
00000350: 62e9 70bc bf47 c1be 2c80 333d 24ed 9b3e
00000360: 74d0 e43e c5c5 263f 03f3 eebd d79e c13e
00000370: 39e5 2bbe 1601 283f 5614 b13e e362 07bd
00000380: 9677 fd3d 7267 c1be 3608 a43e 74b9 4dbe
00000390: c652 b7be 3b89 8dbe bbe2 eb3d bbb8 bc3e
000003a0: 2952 8ebe 0684 4abd 7534 40bc fc1e 40be
000003b0: f1cc 2c3f ab2a a73c 7e4a 8dbd c1b3 1a3c
000003c0: bda4 8f3d 9055 1e3f 593c 2c3f 8eb1 39be
000003d0: 5f5a cc3d aed1 80be 54bb 2c3f b600 f63e
000003e0: 74cc 213e 2c1f b03d 4d5b 98be 8c19 fd3e
000003f0: a6e9 403f a71f e3bc df7b efbd c9e4 2bbf
-0.1984612 0.13623717 0.34488308 0.090230234 0.0375495 -0.37720057 0.60197866 0.055126708
-0.28311464 -0.10089052 0.33702472 -0.07257805 0.3121772 0.1518362 0.1216718 -0.020175993
0.4523796 0.6345281 0.06572752 -0.34633708 0.51182294 0.13871269 0.29995856 0.23847987
0.30267033 0.38790455 0.18706189 0.03004158 -0.026942478 0.043852508 0.193105 -0.011065601
0.46778148 -0.2212333 0.10813501 0.17217779 0.06295231 0.3272578 -0.5447521 0.4540382
-0.2759585 0.5388557 0.6393511 0.060619604 -0.053605087 -0.24109054 0.49991995 0.043288425
-0.21374564 -0.040449202 -0.3611267 0.37851673 0.12637399 -0.12321939 -0.27932724 -0.47993708
0.08777192 0.31148267 -0.254796 -0.34351793 -0.40207484 0.5276542 0.3592033 0.012019032
-0.06908877 0.08333166 -0.006358896 -0.032570086 0.23814726 -0.11712116 0.43835652 0.1926819
-0.07453671 0.09798903 -0.0059682834 0.29207024 -0.12536548 0.29049197 -0.3793778 -0.24460807
0.106070034 0.05719327 0.662546 0.08520984 0.21377839 0.12385983 0.037561156 -0.20410469
0.030986547 0.35464644 -0.30258203 0.30762362 0.73396236 -0.024043852 -0.08397748 0.3855648
0.64712244 0.6106063 0.46648526 0.37218708 0.60238594 -0.117698744 0.1345106 -0.52248245
-0.1255534 -0.18655048 0.55179316 0.1790217 0.015281612 -0.23567067 0.3613592 0.64265734
0.12582189 0.018444262 -0.03091168 -0.21184732 -0.08082944 0.765273 -0.020256711 0.0077531557
-0.52009326 0.48190203 -0.06361217 0.0015816252 -0.011992012 -0.4285508 0.18783174 0.32894242
-0.17902814 -0.36797643 -0.24656181 0.7493363 0.106067106 0.04253598 -0.086917266 0.63660175
0.034731906 0.020951888 -0.040525578 0.40168706 0.005814071 -0.1840796 0.41696388 -0.2993997
0.114198446 -0.103912584 0.13033812 0.039894134 0.4610745 -0.6589493 0.31018773 0.29750872
0.014562629 -0.28427005 -0.40080473 0.14249736 0.6331169 0.053630624 -0.04640627 -0.3154027
0.105796896 0.12786855 0.57466644 -0.0145011 0.095996484 0.21032216 -0.11315574 0.4269192
-0.22424492 -0.16330427 0.21687089 0.6444697 0.7019946 -0.19921705 -0.20481278 -0.059099358
0.34497017 0.6326565 0.25616062 -0.24223208 -0.016945558 0.4811509 0.53717005 0.05177179
0.10855822 -0.3669376 0.10869898 0.7903184 0.14876254 -0.15157588 0.09191959 0.67339605
0.52509886 0.13033481 -0.055605974 -0.29039544 -0.08960836 0.5703251 -0.23922607 0.23383689
-0.30151185 0.6236787 0.17088856 -0.14019151 0.03054127 -0.5663699 0.6371558 0.07429183
0.0015407603 0.024106212 0.17515898 0.031814463 -0.01470408 -0.3775005 0.043823406 0.3045436
0.44690287 0.6514552 -0.116674446 0.37816498 -0.1678666 0.65626657 0.34585828 -0.03305329
0.12376325 -0.37774235 0.32037514 -0.20090276 -0.3580534 -0.2764376 0.11517855 0.36859688
-0.27797058 -0.049442314 -0.011731257 -0.1876182 0.67500216 0.020406088 -0.06898974 0.009442271
0.07013843 0.6184931 0.67279583 -0.18134138 0.099781744 -0.25159973 0.6747334 0.48047417
0.15800649 0.085996956 -0.29757157 0.49433553 0.7535652 -0.027725054 -0.116935484 -0.67145973

model.0.bias f4 [128]
00000000: 16fa 1d3f 89d8 31be f3f0 1b3f 4477 ecb8
00000010: 0533 443f 11c6 2c3f 3a32 8b3e 2f38 3f3e
00000020: aba5 033f f0cb 9fbd 8167 e53e fc0d 003f
00000030: 2f0a 6a3e 0a27 1c3f bd13 253f 8f9b 0d3f
00000040: 53ac 783e a212 123f 8992 b03e 00d7 143d
00000050: 0587 3c3e b79d c03d 2198 6e3f 3d14 643e
00000060: 3a5f 1fbe a073 f93c 6d77 b03e 800b 8abc
00000070: 9a7a 293f 5c6f b83d cf78 473e e777 c43d
00000080: 789c 193f 9c5b 5c3e 8086 033f c62e 5b3d
00000090: 713a 323f 992f 5e3d f35d 4f3f 5d12 e83e
000000a0: a492 c83e ec5e 34bb fa28 5b3f 5423 ba3e
000000b0: 0dba 503f e640 8c3e c5dd b03e 930d 383f
000000c0: d7d1 0b3f 04d3 4a3f 33cc ed3e 45da 3abe
000000d0: 7548 823e 93b4 243d ef90 433f abde 2a3f
000000e0: 8b7a 793e 46a3 303f 9b80 69bd 6039 c8bd
000000f0: 1eb1 883e 8864 3e3f 1fa9 653d e9a0 0f3f
00000100: a882 333f 1f8c 333f 25ab 973e 67de 773e
00000110: 88ee f6bd 130e 283f b073 483e 91aa c23e
00000120: b856 97bd 2347 1b3f bc64 3c3f 6141 edbd
00000130: 8b90 543f 375c 223f e190 b63e 702b 303f
00000140: 31be 553f bd04 193f c636 4bbe b063 aabd
00000150: e6ef 1d3e 8c59 023f abe9 fc3d 9757 1a3f
00000160: b49d c93e 9213 513e f623 d43e 5a7c 313f
00000170: 3eab 373e 9317 873e 56d2 193f a25a 6b3e
00000180: a94c 1d3f 039c b5bd 74ff 0cbe 59da af3e
00000190: 5be9 bb3e 7afd d1be 3b26 433f 0f83 fd3e
000001a0: 2bf2 223e 13e5 463f db21 28be 18d3 033f
000001b0: 23ee 393f 5c55 283f 4a2a 263f afde 433f
000001c0: 2953 473f 3106 9c3e 765a b23d 2968 5e3d
000001d0: 5e8c 0d3f 332f da3e e684 c7bc 6bbe 443f
000001e0: ec55 363f adf2 10be e6d8 dfbc 29a0 3f3f
000001f0: dade d93e 3286 683e a615 8d3e 0b2b 1e3f
0.61709726 -0.17367758 0.60914534 -0.00011275572 0.7664035 0.67489725 0.27186757 0.18673776
0.51424664 -0.0780257 0.4480553 0.5002134 0.22855447 0.6099707 0.64483243 0.5531549
0.24284486 0.5705968 0.34486797 0.036337852 0.18410881 0.09405082 0.9320088 0.22273345
-0.1556367 0.030450642 0.34466115 -0.016851187 0.662027 0.09005615 0.19479679 0.09593182
0.6000438 0.21519321 0.51377106 0.053511404 0.69620425 0.05424461 0.8100273 0.4532651
0.39174378 -0.0027522398 0.856094 0.36355078 0.8153389 0.27393264 0.34544197 0.7189571
0.54617065 0.79228234 0.46444854 -0.18247326 0.25445905 0.04021127 0.76393026 0.66746014
0.24363153 0.68999135 -0.057007413 -0.097765684 0.2669763 0.7437215 0.05606949 0.56104904
0.7012124 0.7013568 0.2962276 0.24205934 -0.12057215 0.65646476 0.19575381 0.38020757
-0.07389587 0.6065542 0.7359121 -0.11584736 0.83033055 0.6342196 0.3565741 0.6881628
0.83493334 0.59772855 -0.19845113 -0.08319795 0.15423545 0.5091789 0.12349256 0.602899
0.3937813 0.20417622 0.41433686 0.6933037 0.17936417 0.26385173 0.6008657 0.22983792
0.614451 -0.088676475 -0.13769323 0.34346274 0.36701474 -0.410137 0.7623021 0.49514052
0.15912692 0.7769329 -0.16419165 0.5149398 0.7262899 0.6575525 0.6490828 0.76511663
0.7786127 0.30473474 0.0870866 0.054298554 0.5529231 0.42614135 -0.024355363 0.76853055
0.71224856 -0.14155073 -0.027325105 0.7485376 0.42552835 0.22707441 0.2755558 0.6178443

model.2.weight f4 [64, 128]
00000000: c7d2 27bc 4ab0 933d 9073 c1bd 9a2c 733d
00000010: 4675 0abd 43e0 a0bc 2a53 623d 31d5 b3bd
00000020: ecd0 89bc a7c7 b6bb 0907 873c dd0c 12bb
00000030: 9606 153d cd99 643d 883f cdbd 1dd7 50bd
00000040: b8c4 bd3c 4a25 a4bc 7823 c8bc bd7f 9abd
00000050: a631 cabd 4d04 90bd 7374 403d 52fc 7b3d
00000060: 57a6 c1bd e192 143c b0df 9bbc 18f2 acbd
00000070: e049 063d ed99 913d b099 57bd a265 f9bc
00000080: 622b c7bd 5f9a d63c 7d12 7fbc 1c23 96bd
00000090: 6617 1c3d a0ef 4cbc fd8e c4bd 779e 233d
000000a0: b4a9 a4bd 3978 91bd 79e4 2a3c 37ec 62bd
000000b0: e96f 723c 0472 ecbc 0a44 42bc 0719 903c
000000c0: 33bd 883d b5ca 9abd 8a2b 883d cbbd 81bd
000000d0: 976f a13b 8deb b2bd b51f 933d b2c9 b03c
000000e0: b9fd 203d d133 733d 0182 4d3c 21a2 8abd
000000f0: 87c1 73bb dea5 a1bd ec5f f13b 10a4 afbc
00000100: 2e8b 5eba fcd5 97bd 8b56 e53c f73c cebd
00000110: a410 a2bd 359b 55bd c72c e63b ed93 7f3d
00000120: 8942 4e3d 41c5 a63c 0d98 5ebc b188 6abb
00000130: 2bbf 86bc fbe0 793d 7c66 943d 50e8 453d
00000140: 2c50 a1bd d5ba 88bd cfdb b7bd 5304 8c3c
00000150: 2c7c 663c 4e2d 9abb 164e 723d fd59 bfbd
00000160: 91ce 873d 0785 59bd 23e2 53bd f455 c3bd
00000170: 051b 3fbc ed74 b5bc 5c8d febc 4279 a73c
00000180: a806 97bc 3b21 833a 4813 e4bc 6cb6 aebd
00000190: ab7f bdbd 08d8 b2bd 8626 aabd 7af0 8abc
000001a0: 5bc7 aabd 29ba 023d 47f8 873d 3715 79bc
000001b0: a745 9fbd f6c3 513d 1520 41bd 233e c8bd
000001c0: b847 1b3d 5586 153d d693 b6bd fe9d 95bd
000001d0: c0f4 c53c 7df6 0abd 1782 91bd 3d01 b33c
000001e0: 4dcc 5dbd 75d1 91bd 2b50 193d 7ccb 163d
000001f0: 60a7 e8bc 2eac 97bd 57d3 8f3d 4894 16bd
00000200: 90cd 8e3e 3bd3 293e 869a 493e 9a9a e33d
00000210: f2d9 4a3e 9b86 8e3e d36c 333e 4915 263e
00000220: 87cf af3e 7d78 323e 967f 893e 81ae 853e
00000230: 033d 223e 43fe 503e 0aa7 383e 6a19 263e
00000240: a80a 853e 1832 983e c383 a73e 1688 753e
00000250: 1d14 8b3d 8ee7 5e3e 46e1 9b3e 79ef a63e
00000260: 096b 2e3e 9895 e33d 375f 823e ac67 bf3d
00000270: 25ad 603e 786d 083e 3f61 8d3c 2c2a 1b3e
00000280: d399 9f3e 5a33 a53d efaf 983e f122 2e3e
00000290: 4912 523e 469b 1b3e 2397 b23e 7e1c 203e
000002a0: f6cf 933e 25ed 493e 46cc b03e c5d6 123e
000002b0: beac 883e a61b a03d 7302 b13e 5d0f 753e
000002c0: e30c 793e 07e3 553e 9138 7d3e f067 e0be
000002d0: 9db2 423e d575 b93d d872 763e 7017 7e3e
000002e0: 78f4 703e e7f0 a93e e8a5 72be 86d8 e83d
000002f0: cf1d 443e 0fab 873e 62c4 443e 0bb0 593e
00000300: 654d 573e 2bb3 923e ba13 963e 63c2 733e
00000310: f72b 083e 22b4 963e b058 3d3e 2d2c 363e
00000320: 9cef c03d 2c48 a13e d043 603e 855a af3d
00000330: 47c5 733e a083 7e3e 0265 8a3e 1707 543e
00000340: d6d0 bb3e 6dd4 0e3e 66b2 2a3d fa3d bebe
00000350: 2ab7 733d 9925 013e 95c6 353e 72db 743e
00000360: 1813 aa3e 1c6e 8f3e 6471 ba3d a60d a93e
00000370: 0afa f93d 74d7 803e 5ffe 8f3e 4c2a 913e
00000380: 5ce2 5c3e ae2c 043e 4590 2ebd fc00 e43d
00000390: 3a0c ba3d 4762 903d 6d94 803e afca a03e
000003a0: f1d9 193c 02a7 833e fd3a 853e a590 633e
000003b0: 5132 6a3e 54c3 5b3e f0f2 c73e 5889 703e
000003c0: 8a5f bf3e fb58 853e 1679 313e e856 cd3d
000003d0: a3eb 8d3e 20ee 7e3e b040 303e 800e bb3e
000003e0: 23dc c83e 47f4 8dbc 301c 493e 12f8 a33e
000003f0: f91f a23e dd24 763e e673 6d3e 8bb9 543e
-0.010243124 0.07211359 -0.0944587 0.059368707 -0.033803247 -0.019638186 0.055255093 -0.087808974
-0.016823255 -0.0055779996 0.016482847 -0.00222855 0.036383234 0.05581074 -0.10021883 -0.050986398
0.023165092 -0.020037312 -0.024430975 -0.075438954 -0.09872751 -0.0703207 0.046986055 0.06151993
-0.09455555 0.009068222 -0.019027561 -0.08444613 0.032785296 0.07109437 -0.052636802 -0.03044397
-0.097250715 0.026196657 -0.015568373 -0.07330915 0.038108252 -0.012508303 -0.09597585 0.039946046
-0.08040181 -0.07103009 0.010430449 -0.055401053 0.014797189 -0.02886296 -0.011857042 0.017590059
0.06676712 -0.075581945 0.066489294 -0.06335028 0.0049266326 -0.08736334 0.07183782 0.02158055
0.03930447 0.059375588 0.012543202 -0.06769205 -0.0037194209 -0.07892965 0.007366171 -0.021440536
-0.00084893673 -0.07413861 0.027995368 -0.10070222 -0.0791333 -0.05214997 0.007024381 0.062396932
0.05035642 0.02035773 -0.013586056 -0.003578704 -0.016448578 0.061005574 0.0724611 0.048317254
-0.0787662 -0.066762604 -0.08977472 0.017091906 0.014067691 -0.004705108 0.0591565 -0.09343336
0.06631196 -0.05310538 -0.051729333 -0.09537879 -0.011664157 -0.022150481 -0.031073265 0.020443562
-0.018435791 0.001000441 -0.027841225 -0.08530888 -0.09252866 -0.08732611 -0.08308129 -0.016960371
-0.08338805 0.031915817 0.06639152 -0.015202812 -0.07776957 0.051212274 -0.047149736 -0.09777477
0.037910193 0.036505062 -0.08914916 -0.07305525 0.024164557 -0.033926476 -0.07104891 0.021851176
-0.054149915 -0.07120029 0.03742997 0.03681515 -0.028400123 -0.074058875 0.07022732 -0.036762506
0.27891207 0.16584484 0.19687852 0.11113472 0.19809702 0.2783707 0.17521982 0.16219057
0.34338018 0.17428775 0.26855153 0.26109698 0.15843587 0.20409493 0.1803247 0.16220632
0.25984693 0.29725718 0.32717714 0.23977694 0.06790946 0.21768019 0.30445307 0.32604578
0.17033018 0.11112517 0.25463268 0.09345946 0.2194105 0.13323009 0.017258285 0.15152806
0.31172046 0.08066435 0.29821727 0.17005517 0.20514788 0.15195951 0.34880933 0.15635869
0.288696 0.1971937 0.34530848 0.1433974 0.26694292 0.078177735 0.3457218 0.23931642
0.24321322 0.20887385 0.2472861 -0.43829298 0.19013448 0.09055678 0.24067247 0.24813628
0.23530757 0.33191606 -0.236961 0.113694236 0.19151996 0.26497695 0.19215539 0.21258561
0.21025617 0.2865232 0.29311925 0.23804621 0.13298021 0.29434305 0.18490863 0.17790289
0.09420702 0.31500375 0.21900868 0.08562187 0.23805724 0.24854898 0.27030188 0.2070583
0.36682767 0.13948222 0.04167404 -0.3715666 0.05950085 0.12611999 0.17751534 0.23911837
0.33217692 0.28013694 0.09103659 0.33018225 0.12205894 0.25164378 0.28123757 0.28352582
0.21570724 0.12907669 -0.042618055 0.11133 0.09084363 0.07049995 0.2511324 0.31404635
0.00939034 0.25713354 0.26021567 0.22223146 0.22870757 0.2146123 0.39052534 0.23489892
0.37377578 0.2604445 0.17331347 0.10026342 0.2771884 0.24895525 0.17212176 0.365345
0.3923045 -0.017328395 0.19639659 0.320252 0.31665018 0.240375 0.23188743 0.20773904

model.2.bias f4 [64]
00000000: df99 8c3d 24a6 a53e 1340 9c3e 087d b73e
00000010: 306a b6bd a254 c23e f951 673b f735 48be
00000020: 955c 5c3e b1ea 9ebc 3d84 5a3e 7230 953e
00000030: ce0d 953e d2dc 953e 6618 c7bc c167 593e
00000040: 5cf4 2fbc 68de 843e b95c 7b3c 212e 773d
00000050: 900f c13e 018a b23e 4619 8ebc cd56 4ebd
00000060: 1943 ad3e cd47 acbd 04a4 873e b7c9 093d
00000070: 0508 803e afdc 833e 5004 84bc c1b2 553e
00000080: c868 5c3e 68ae 7d3e d318 1dbd 784b bb3b
00000090: 603c 033b 7a49 5f3e f952 cfbd ac4f 813e
000000a0: 357d e9bd 86ac 5a3e 98aa de3c 3a85 623e
000000b0: 7067 98be 6175 853e e317 8a3e bbaa 793e
000000c0: 36e4 213d ff0a 73bd e2d9 63bd 4cb8 513e
000000d0: e57a af3e e366 9d3e 1c04 babd d78a d0bc
000000e0: b8cf 403e dedf 94bd be93 943e 4ce4 5abb
000000f0: 02d0 8d3d c346 5e3e 3c85 983e 1503 4d3e
0.06865286 0.32353318 0.30517635 0.3583758 -0.089069724 0.37955195 0.0035296662 -0.19551836
0.21519692 -0.019399019 0.21339507 0.29138523 0.29112095 0.29270035 -0.024303626 0.21230985
-0.010739412 0.25950933 0.015341931 0.060346726 0.37707186 0.34870914 -0.017346036 -0.05037575
0.33840254 -0.084121324 0.26492321 0.033639636 0.25006118 0.25754306 -0.016115338 0.2086897
0.21524346 0.24773562 -0.038353752 0.0057157837 0.0020025 0.21805373 -0.10123248 0.25256097
-0.114008345 0.21354875 0.027180955 0.22121134 -0.29766417 0.26066115 0.2697135 0.24381535
0.03952428 -0.05933666 -0.05562771 0.2048046 0.3427345 0.3074256 -0.09082815 -0.025456829
0.18829238 -0.07269262 0.29018968 -0.0033400236 0.0692444 0.21706681 0.2978915 0.20020707

model.4.weight f4 [1, 64]
00000000: 87f8 26bd 92e6 8b3e 3499 8d3e b769 833e
00000010: a4f4 a5bd 366c 903e d3ec a2bd 95bd 51bf
00000020: 28a9 a93e 3c77 23bd db4a 8d3e 8031 9a3e
00000030: 86d5 903e 4998 b53e 4e33 2abf e50e 9b3e
00000040: 7f71 5fbc 7ecb ab3e 674e 97bd 49cf 9cbd
00000050: af10 853e c6a6 a93e 174a b0bc 737f 7bbc
00000060: e71a 8e3e b248 d0bd b093 9b3e 98ea 78bd
00000070: 6e46 a03e f196 983e 856c 1cbc 36a1 a63e
00000080: 27aa a53e 682e ae3e 02ad fcbe 9634 9bbd
00000090: 2fc4 d9bd 0d44 ab3e 8578 61bd f1cd 9c3e
000000a0: ca87 29bf a878 a53e 8a0a 8a39 af4b 993e
000000b0: addf 6bbf 6edd 8d3e f52d b03e a452 9d3e
000000c0: 50fd 75bd 44aa b0bd 72f4 73bc a002 5abf
000000d0: 6578 883e 60f3 963e b312 d4bd 6c7a 74bd
000000e0: 373a bb3e ef49 e4bc d8f3 8e3e 033f babb
000000f0: 234f 94bd 4f52 a73e 090a be3e 5db4 a73e
-0.040764358 0.2732435 0.27655947 0.25666592 -0.08103302 0.28207558 -0.07955327 -0.81929904
0.33136868 -0.039908633 0.27596173 0.3011589 0.28287905 0.35467747 -0.66484535 0.302848
-0.013637899 0.3355369 -0.07388001 -0.07656724 0.2598929 0.3313505 -0.021519704 -0.0153502105
0.277549 -0.101701155 0.30386114 -0.0607706 0.31303734 0.2980266 -0.009547357 0.3254487
0.32356378 0.3401978 -0.49350744 -0.07578389 -0.10633122 0.33450356 -0.055046577 0.3062587
-0.6622282 0.32318616 0.00026329263 0.29940554 -0.9213818 0.27708 0.34410062 0.30727112
-0.06005603 -0.086262256 -0.014889823 -0.85160255 0.26654354 0.29482555 -0.10355129 -0.059687063
0.36567852 -0.027867286 0.27920413 -0.005683781 -0.07241657 0.32679984 0.3711703 0.32754794
