pk_adv.pth (torch, 39625 bytes, 5 tensors)

model.0.weight f4 [128, 6]
00000000: 2839 c03e ba3d 953e a08e 53bd 0647 073e
00000010: 80ea 043f da82 fdbe bc03 91be e7ea e53e
00000020: 0174 0b3f fae4 49be d578 2c3c db50 ee3e
00000030: 29ad 513e 3bb5 253e 32c7 c03d 2838 7abc
00000040: 1519 44be 3b46 eebe d7d3 babd 3387 103f
00000050: 3be5 343e 2531 fabd 11cf 653c 1266 443e
00000060: 0ee4 9cbe c3b9 9c3e 22f3 9a3e dcc8 9cbc
00000070: 7afe 3f3e cbd9 babe 9998 6bbe b0b7 453e
00000080: d85c 223e b2d7 a93d cc7d 71be bc50 2bbd
00000090: bd6d b23d e121 fb3c 3793 f53d bf77 dbbd
000000a0: 61f2 aabe f923 c7be d2ca 2abe 76b4 913e
000000b0: f93c 423f 6868 5a3b 9055 e53c 2820 743d
000000c0: 8cda 193f 87f9 bc3e c393 34be 88a5 5a3e
000000d0: 9492 a33e 6807 f73e c045 5abe b57a f83e
000000e0: 7445 463e 9f0c ebbd 3d17 973d 06fd a53e
000000f0: d162 2c3e 4fee d83e b1e8 d23e d25a d2bd
00000100: c634 eabd c465 973e a77e 62be b8a8 ff3d
00000110: 0dd7 c93d 22c3 6e3e 7f0b dfbe 2885 ac3e
00000120: 0617 a73e 7dda 1b3f 530a 92bd b8af 7bbe
00000130: 8c7f b03e 8a59 983d 768d 263e 1424 13bd
00000140: acb7 dc3e f012 c7bd b055 213e 168a d73e
00000150: 96c4 4b3e 4664 e33e 4cb9 c43d 34f6 9fbc
00000160: f45a 303e 6256 11be a715 383d 4bc9 803e
00000170: 967e 163d f6aa a03d ee01 ae3e f6e2 06bf
00000180: 2965 bbbe 2fb1 ef3e fed0 47bd c67c 05bf
00000190: 3944 063f 25d2 a33e f41e 57be 5886 623e
000001a0: 8653 893e 0cd1 70bd d13e 9ebe 339a dfbe
000001b0: 351f 203e 2373 8e3e eb5e 403e 7884 e53d
000001c0: 4bf6 a83d 517a d93c a656 39bd 988a 1b3f
000001d0: b39a 2b3f 1d6c 73bd 0ed9 df3d a33e 1cbe
000001e0: 9932 ffbd 73f7 8d3e 2f81 0a3f 16bd 34be
000001f0: e3d4 443d aef0 abbe f23c fdbe d678 033f
00000200: 8945 5b3e 960a 37be db2b 6bbe a71b 1ebd
00000210: 0f96 d0be cec9 c73d 4069 153f b6b5 a53e
00000220: 613e 62bc 7b1b 0ebf 311b 303e 87a1 293e
00000230: 4de1 823e fe52 873e 6778 9abe b1d9 eb3e
00000240: 475b fdbd ab0d 84bd fb1a 713e 1432 083e
00000250: e771 f73e 90cd 7c3e 0448 43be bc9b b33e
00000260: 6e58 613e df2b 14be 2596 23bd b887 8e3b
00000270: ea43 b23c 2e96 ad3e abef 2d3f 4fa7 32bd
00000280: 1fc0 b83d ab27 8ebe 3ab2 0ebe d33d f3bc
00000290: a34b 0b3f 499f b2bd a41f e93d adc7 763e
000002a0: b00d 0b3e a282 a9bc be78 b43d 7e42 ccbe
000002b0: 5e0e 51be c8c4 0a3e 1851 4b3e b43e d43e
000002c0: 2073 b13e d3ec debc 3f84 2d3d 9f15 8ebe
000002d0: 0c2f fe3e 1a26 80bd 49e5 493e 015f 6b3e
000002e0: 2235 12be 30fc 07bf af00 1abe 2a68 203e
000002f0: aaf2 403f d45c 403c 95cf 0bbe fef5 b83c
00000300: 6b0a 963e f61e ddbc de2f df3d 4e9b 1bbf
00000310: cbc0 f2be d0f0 d6be 863b 68be b71a e53e
00000320: 6cfe 293f 83c7 c63d 8073 dd3c 40df 81bd
00000330: 5fbb cc3e a4bd e93e 7b61 c7bd 7ef5 8cbe
00000340: 2112 473d 8477 12bf ae6b 7cbd 555b 0c3f
00000350: 05fb f43e 0bed 233c 56a8 2f3b b78c b93d
00000360: 7db9 cf3e 2621 f93d abf4 153e 867d 9abe
00000370: e1f7 97be ab8e 0dbf 2bd8 ff3d 256f a5be
00000380: f24d 2a3d a9f1 0dbf f4de 383e 17e9 b33e
00000390: fbad 00bf 3192 f23e c8b6 143f 4e3f 863d
000003a0: 1ff5 aa3c 2d79 07bd b21f 9d3e 1046 053f
000003b0: 640e cd3e b235 12be ae95 763e 6e6e d4bd
000003c0: 4d75 8cbd c937 cabd 1501 203f 3f7a 82be
000003d0: 06e7 783e 1637 a6be c61f 3fbd 5818 293e
000003e0: 40e9 0e3f 5f3f 553e a5a8 023c eb49 8e3e
000003f0: 450c 583d 2ea7 3e3d 79da 063e ebf1 1fbe
0.37543607 0.29148656 -0.05164969 0.13210687 0.5192032 -0.49513894 -0.28323162 0.4490578
0.5447388 -0.19716254 0.0105268555 0.46546063 0.20476212 0.16182415 0.094129935 -0.015272178
-0.19150193 -0.46537957 -0.091224365 0.564563 0.1766557 -0.12216405 0.014026419 0.19179562
-0.30642742 0.30610475 0.3026362 -0.019138746 0.18749419 -0.36494288 -0.2300743 0.19308352
0.1585573 0.08293094 -0.23583144 -0.04182504 0.08712337 0.030655803 0.1199097 -0.10716199
-0.33388045 -0.38894632 -0.16678932 0.28457993 0.75874287 0.003332639 0.027994901 0.05960098
0.600991 0.36909124 -0.17634492 0.21352208 0.31947768 0.48247838 -0.2131567 0.48531118
0.19362432 -0.11477017 0.07377479 0.32419604 0.1683457 0.42369315 0.41193154 -0.10271229
-0.11435847 0.2956983 -0.22118627 0.124833524 0.09855471 0.23316625 -0.43563458 0.3369534
0.32634753 0.6088026 -0.071308754 -0.2457875 0.3447231 0.07438953 0.162649 -0.03592308
0.4310888 -0.09720409 0.15755343 0.4209754 0.1989921 0.4441244 0.09605655 -0.019526578
0.17222196 -0.14193109 0.044942524 0.25153574 0.036741816 0.07845108 0.33985847 -0.52690065
-0.36600617 0.46814868 -0.048783295 -0.52143514 0.5244785 0.31996265 -0.21007901 0.2212156
0.26821536 -0.058793113 -0.309073 -0.43672332 0.15636905 0.27822217 0.18786208 0.11206907
0.08250102 0.026547583 -0.04524865 0.6075835 0.6703293 -0.059429277 0.10930072 -0.15258269
-0.124608226 0.2772785 0.5410337 -0.17650256 0.048054587 -0.33582062 -0.4946056 0.51356256
0.21413244 -0.17875132 -0.22965948 -0.03860059 -0.40739486 0.09755288 0.58363724 0.32365197
-0.013808818 -0.5551068 0.17197873 0.16565524 0.25562516 0.26430506 -0.30169985 0.46064523
-0.123709254 -0.064479195 0.23545448 0.13300353 0.48329088 0.24687791 -0.1907044 0.35079753
0.2200639 -0.1446986 -0.03993811 0.004349675 0.0217609 0.3390364 0.6794383 -0.04361659
0.09021019 -0.2776464 -0.13935176 -0.029692566 0.5441229 -0.087217875 0.11382988 0.24099608
0.1357944 -0.020692173 0.08812092 -0.3989448 -0.20415637 0.13551629 0.19855154 0.4145409
0.34658146 -0.027212536 0.042362448 -0.2775087 0.4964527 -0.06257267 0.19716372 0.2298546
-0.14278081 -0.5311918 -0.15039323 0.15664735 0.75370276 0.011740882 -0.13653405 0.022578236
0.29304823 -0.026992302 0.10897802 -0.6078385 -0.47412714 -0.419806 -0.22678956 0.44746944
0.6640384 0.097060226 0.027032614 -0.0634141 0.39986703 0.45652497 -0.0973539 -0.27531046
0.048601273 -0.57213616 -0.06162613 0.5482686 0.47847763 0.010005246 0.0026803217 0.09060042
0.40571204 0.12164526 0.14644115 -0.30173892 -0.29681304 -0.5529582 0.12492403 -0.3231136
0.04157824 -0.5544687 0.180538 0.3513877 -0.50265473 0.4737716 0.580914 0.06555043
0.020868836 -0.033074547 0.30688244 0.5206003 0.40050042 -0.14278296 0.24080536 -0.10372625
-0.06858311 -0.098739214 0.6250165 -0.2548389 0.24306878 -0.32463902 -0.04666116 0.16513193
0.5582466 0.20824955 0.007974778 0.2779077 0.052746076 0.046546154 0.13169278 -0.15619628

model.0.bias f4 [128]
00000000: 6985 373a 8e29 503e 4e88 953e 163f 1a3f
00000010: e601 ef3e b30e 2b3f 514d fc3e 198e 0a3f
00000020: a189 953e 240c 133f bdaf c23e ddee ff3e
00000030: c068 b83e 3df7 043f 73f8 2d3f 5045 673e
00000040: 515a 303d 9954 113f 43f2 373f 2b01 493f
00000050: 856e 033f a663 2abd f886 a33e 3e99 c2b9
00000060: e3c2 db3e 1dfe 2c3f 863e c43d b5f5 143f
00000070: 7f44 393f 4c55 793e f5ac 283d cf13 883e
00000080: fbda 07be e4fb c93e c1be 603e 7e82 3b3f
00000090: f29c 2f3e bce3 e3bc 2198 573e 7c76 ca3e
000000a0: d96d 0a3f 48ee ed3e 9b6a 873e a87c ff3e
000000b0: a9b5 a63e 054c 313f bfce f93e 708d 2fbd
000000c0: 9558 243d 8b52 ca3e fa91 393f e44c af3e
000000d0: 91a1 67bc 53d0 cc3e 4f66 c53e f9af 9fbd
000000e0: 89a1 0abe 9756 953e a2e2 0a3f f94c c2bd
000000f0: c444 173f aa12 c73e 2725 3dbc 0812 173f
00000100: 7ef9 0b3f 6877 a23e bdc1 9b3d 80e6 2a3f
00000110: e974 033f e288 663e 44be 2d3e 0860 2b3f
00000120: 2e14 9bbe 3e96 e03e 4fac 003f 84b7 fcbc
00000130: 134a 493e 71b0 fd3e c374 163f e853 94be
00000140: cb01 af3e cd5d 3d3f b415 293f 35e1 7a3e
00000150: 9f17 4c3e 11ea e83e 3158 983d 16f5 9b3e
00000160: 593a f93e ab6f 8a3e 014a b73e aa28 b53e
00000170: 5122 af3d a6bf ec3a 3f9a 893e e738 4b3d
00000180: 73e9 ac3e edbc 563e 5aca 143f 064c de3e
00000190: 5ed9 ed3e 7a23 e6bd f202 6b3e 2f7f 3b3e
000001a0: 8fbe bb3e dba6 e63e 8355 2f3f ad5e 3f3f
000001b0: a993 0e3f 2948 143f 4289 fc3e 7165 003f
000001c0: c966 773d a689 32bd e1ed 9f3e 522f 133f
000001d0: 890d 183f 586f 213e 05af ed3d 1834 6d3d
000001e0: aaa2 bb3e 4f80 083e 67c2 263e dc31 b4bc
000001f0: 5024 923b 5bf3 03bc 9996 043f b53f 3f3f
0.00070007757 0.20328352 0.29205555 0.6025251 0.46681136 0.66819304 0.49277738 0.54123074
0.29206565 0.574404 0.38024703 0.49986926 0.36017418 0.51939756 0.6795723 0.22585034
0.043054882 0.5676971 0.7185404 0.7851741 0.51340514 -0.04159894 0.3193891 -0.00037116738
0.42922124 0.67575246 0.09582238 0.5818742 0.7237014 0.24348944 0.04118057 0.26577613
-0.13267128 0.3944999 0.21947767 0.7324599 0.17149714 -0.027818553 0.21054126 0.3954352
0.54073864 0.46470857 0.2644852 0.49899793 0.3256047 0.6925662 0.48790547 -0.042859495
0.04012354 0.395161 0.7248837 0.3423835 -0.0141376415 0.4000269 0.38554618 -0.07797236
-0.13538183 0.29167625 0.54252064 -0.094873376 0.59089303 0.38881427 -0.011544502 0.5901189
0.5467757 0.31731725 0.07605312 0.66757965 0.51350266 0.22513154 0.16967112 0.6694341
-0.30288833 0.43864626 0.5026292 -0.030849226 0.19657163 0.49548677 0.58771914 -0.28970265
0.34181055 0.73971254 0.6604874 0.24499972 0.19930886 0.45491078 0.07438696 0.30460423
0.48677328 0.2703832 0.35798648 0.35382587 0.08551467 0.0018062487 0.26875493 0.049614813
0.33771858 0.20970507 0.58121264 0.43417376 0.464549 -0.11237235 0.22950342 0.18310235
0.36668822 0.45049176 0.68489856 0.7475384 0.5569406 0.5792261 0.4932347 0.5015479
0.060400758 -0.043588303 0.31236175 0.5749408 0.59395653 0.1576513 0.11605648 0.05791101
0.3664754 0.13330196 0.16285096 -0.021996431 0.004459895 -0.008053626 0.51792294 0.74706584

model.2.weight f4 [64, 128]
00000000: 2370 573d 6c51 403e 0295 7c3e 854c a43e
00000010: 500a 063e ea20 9b3e 03cd 7e3e 0913 953e
00000020: 9e07 5b3e 3f54 843e ccf2 523e c7bf f93d
00000030: 9f31 6c3e 5e9c 753e 35aa 8d3e 0ea5 3f3e
00000040: ee7a 643d 3a68 943e d8f9 7b3e 8dbb 8b3e
00000050: 8e88 533e 8d89 813e 8468 723e d958 0c3e
00000060: ec3d 283e 4eb1 963e e350 383e 91fe 883e
00000070: 474a da3d b94b 383e 5b4c 183d ff0e ad3e
00000080: 7b0a f43d 0064 593e bc1e a93d 3bd6 583e
00000090: aeab b23d e9fd c6bc cb0d 5b3e 9891 c63d
000000a0: d8bc 3b3e 4a15 573e 24be c83d c263 263e
000000b0: 42cc 813e fe65 6b3e fe59 793e 1773 dc3d
000000c0: e9da c93d cbf2 513e e2d1 5b3e 983c 373e
000000d0: 4516 6e3e 4a74 5d3e 2ef2 773e 4588 043e
000000e0: eeeb a6bd a7ac 8d3e 2853 423e ff90 343e
000000f0: b341 343e b58d 843e 0f30 2e3e 76e7 3b3e
00000100: f20a 0a3e 75b9 1a3e a901 5b3e 36b7 a13e
00000110: 1af6 843e 14b4 7b3e ad96 0c3e ae08 4b3e
00000120: a58d 63be e591 5abe cb9f 893e d153 203d
00000130: 0c0b 753e d371 2a3e 1937 683e 81a8 a13c
00000140: eb32 1b3e ffe5 643e 4f1f 8f3e 63d8 383e
00000150: 6a55 823e cd58 993e 14f7 743e e402 423e
00000160: 22ef 2c3e e7ad a23e bfe1 9a3e ec00 393e
00000170: 95ef 023e d497 a53d 8acb e83d f54a 03bf
00000180: 2832 533e 77b8 9d3d cbb2 443e fee7 8f3e
00000190: 58a3 903e 6be0 983e 723c 323e 2757 bf3d
000001a0: 77a7 0a3e bb50 8e3e 948e 943e 40fa 753e
000001b0: ce23 533e 3c1a 523e 29bf 303e 11d6 693e
000001c0: 4bfd 443d 5bab b33d 7a26 b23e 9035 433e
000001d0: 2702 4e3e e4e2 50bd e720 1c3e 1d32 403e
000001e0: 858b 623e ab89 403e c195 3f3e d2b2 033e
000001f0: 54a7 d5be 189b de3d 5f3e 633e 8c5c 4d3e
00000200: 238b 49bd 3e67 a7bd 154f 813d fdd8 b8bb
00000210: b4a5 61bd 0066 bdbd 46b0 88bd 9174 aebd
00000220: c7d1 9bbd d3ed f439 e800 8b3d d551 8cbd
00000230: 00e8 563c b93a acbb 2562 b3bd c602 c8bd
00000240: 7050 aabd 041a 003c 2886 bc3c 79fd 053d
00000250: 9015 7dbd 49a4 a3bd db7e 3cbd 8079 a4bd
00000260: f705 843d f30c c7bd 3210 1bbc 44be 72bc
00000270: b282 16bc 3899 09bb 7eea ae3c 0023 d0bd
00000280: 6fb2 643d 55c9 ff3c a1fa 0abc 2e2d 013d
00000290: 2410 91bd 3fd2 38bb 46a2 073d a998 3ebd
000002a0: a95c 53bd ae8c 37bd 7ad5 703b fd76 47bd
000002b0: ba4a 1dbd 8f9a a0bd 28d7 ac3b cde0 2a3d
000002c0: caea 623c 418c 363d b1d3 88bd 7973 afbc
000002d0: 43fb b3bd d3a6 c2bd 23d3 893d a70f 413d
000002e0: 19fa 03bd 4e54 c2bd 118e 763d d911 863d
000002f0: 5086 e3bc 91d7 f3bc 0f6c 293d dd64 c9bb
00000300: 0212 643c 6475 04bd bcb4 b3bd 04f0 6c3c
00000310: eca8 403d 8758 6f3c 5fbe a3bd 6dcf 843d
00000320: 7eba 64bd 9260 633d 7f29 283b ec68 2ebd
00000330: eace b2bd 3dbc d8bc 093c 03bd ec60 2c3d
00000340: 6671 fb3c e665 adbd fd10 ec3c 09c8 03bd
00000350: 930d b93c 57b9 7e3d a641 da3c f96c 6abd
00000360: bf99 b7bd 2098 de3a 3748 7b3d dca4 833d
00000370: 97eb 8b3d def3 413d 95a8 3fbd 6c3d e6bc
00000380: e808 943d 0bc4 9cbc b7bf c7bd 14ea 623d
00000390: c9d0 c3bd b76d 18b9 9155 1f3b 2e00 f63c
000003a0: 5376 333d 5c2b 893d 63fa 7e3d ed04 ac3c
000003b0: 2a1f a7bc 8607 fd3c 64d9 883d 9ddd 913d
000003c0: 0285 b63b 9ea9 443d cc96 913b 1d91 72bc
000003d0: 9487 84bd a15e b6bd c308 5a3d 058f 10bd
000003e0: b81f 93bd 1515 c0bd 5639 203d 7d53 d4bc
000003f0: 49e2 513d e4e3 503d ce84 9fbc c953 7bbd
0.052597176 0.1878106 0.24666217 0.3208963 0.13089871 0.3029855 0.24882893 0.29116085
0.21389624 0.25845525 0.20600432 0.12194782 0.23065804 0.2398543 0.2766892 0.18715307
0.055781297 0.2898577 0.24607027 0.27291527 0.2065756 0.25300255 0.23672682 0.13705768
0.16429871 0.29432148 0.17999606 0.2675672 0.106586985 0.17997636 0.037182193 0.33800504
0.119160615 0.21229553 0.08257815 0.21175472 0.087241516 -0.024290996 0.2139198 0.096957386
0.18333757 0.21004215 0.098018914 0.16248992 0.2535115 0.22988126 0.24350736 0.10764139
0.09856207 0.20502774 0.21466783 0.17894208 0.23250683 0.21626392 0.24213478 0.12942608
-0.08150469 0.27670786 0.18977034 0.17633437 0.17603187 0.25889364 0.1701052 0.18350014
0.13480738 0.15109809 0.21387352 0.3158509 0.2596901 0.24580413 0.13729353 0.1982753
-0.22222002 -0.21344717 0.26879725 0.039142434 0.23929995 0.16644983 0.22677268 0.01973367
0.15156142 0.22353362 0.27953574 0.18051295 0.2545579 0.29950562 0.23922378 0.18946415
0.16888097 0.31773302 0.30250356 0.18066758 0.12786706 0.080855995 0.11366947 -0.5128625
0.20624602 0.077011995 0.19208829 0.28106683 0.2824962 0.29858717 0.1740587 0.09342795
0.13540445 0.27795967 0.29015028 0.24021244 0.20619127 0.2051782 0.17260422 0.22835566
0.04809312 0.08772918 0.3479498 0.19063401 0.20118009 -0.05099763 0.15246926 0.18769117
0.22123535 0.18802516 0.1870947 0.12861183 -0.41729224 0.108694255 0.22191761 0.20054835
-0.049204957 -0.08173989 0.06313912 -0.0056411014 -0.055089667 -0.092479706 -0.066742465 -0.08518327
-0.07608371 0.000467165 0.06787282 -0.06851546 0.013116837 -0.0052560237 -0.08758954 -0.09766154
-0.083161235 0.007818703 0.02301319 0.032712433 -0.06178814 -0.07990319 -0.046019416 -0.08030987
0.0644645 -0.09719267 -0.0094643105 -0.014815871 -0.009186434 -0.0020995867 0.021352049 -0.10162926
0.05583423 0.031223932 -0.008482606 0.031537227 -0.07083157 -0.0028201488 0.03311374 -0.046532307
-0.05160204 -0.044811897 0.0036748336 -0.04869746 -0.038401343 -0.0784198 0.005274672 0.041718293
0.013849923 0.04456735 -0.06681002 -0.021417366 -0.08788159 -0.095044754 0.06729724 0.047134068
-0.032220934 -0.09488736 0.06019408 0.06546373 -0.027774006 -0.029765876 0.04136282 -0.006146057
0.013920309 -0.032338515 -0.08774707 0.014461521 0.047036096 0.014608509 -0.07995295 0.06484876
-0.055841915 0.05551202 0.00256595 -0.04258053 -0.08730872 -0.026456947 -0.032039676 0.04208462
0.030693721 -0.08466701 0.028816694 -0.03217319 0.02258948 0.062188473 0.026642632 -0.05723283
-0.089648716 0.0016982593 0.061348166 0.06427929 0.068320446 0.04735171 -0.04679163 -0.02810546
0.07228261 -0.01913645 -0.097533636 0.055399016 -0.09561307 -0.00014536722 0.0024312476 0.030029383
0.043814015 0.06697723 0.062250506 0.020998443 -0.020400602 0.030887377 0.06682089 0.071223475
0.005570055 0.048013322 0.004443025 -0.0148051055 -0.06471172 -0.08904768 0.053231012 -0.035292644
-0.07183784 -0.09379021 0.03911718 -0.025918717 0.051241193 0.050998583 -0.019472506 -0.0613592

model.2.bias f4 [64]
00000000: 1cac 8d3e aaa2 dbbc 98d5 c43d 536c 9fbc
00000010: d569 7abd c59c 763e 8e95 953e 30ac 473e
00000020: 30ed 763e 4aad 9e3d 7bb0 f93b ae46 9a3e
00000030: b215 08be fed5 c73e 610c 2a3e f12a 2d3e
00000040: 9f2d 9c3e 62ff 723e edba 8f3e 523c 073e
00000050: cf45 943e 91cb 943e 4ef5 eabb df44 6d3e
00000060: 8f2a ad3e ab8d 753e 36a4 a83e fdea 6e3e
00000070: ef07 3c3e c7a6 843d e796 5a3e 9363 913e
00000080: 4f7a 243e 609d 67be 4cd9 8f3d 8f92 023e
00000090: bfee 6a3e 4639 ee3d f597 913e 4696 f53d
000000a0: da36 c3bd 73a5 443e 4b6e 9e3e a46b 263e
000000b0: e6a8 6e3e 5299 a33e cffc cabd ea7d 2d3d
000000c0: 43f5 3f3e 8d30 a23e 8113 63bd 589f 843e
000000d0: 5300 463e f0c5 753e 6333 63bd b0f9 3b3c
000000e0: 9208 a63e f107 8abd fc32 a93e 2262 9b3e
000000f0: 0754 aa3e efaa babc 3b66 5a3e 9c8c 64bd
0.27670372 -0.026810963 0.09611052 -0.019460833 -0.061136086 0.2408324 0.29215664 0.19499278
0.24113917 0.07747896 0.007619915 0.3013205 -0.13289526 0.3903045 0.16606285 0.16910912
0.30503556 0.23730233 0.280723 0.13206604 0.2895951 0.2906156 -0.007170356 0.23170803
0.33821532 0.23979823 0.32937783 0.23331828 0.18362401 0.06477123 0.21346627 0.28396282
0.16062282 -0.22618628 0.07023868 0.1275122 0.22942637 0.11632018 0.28436247 0.11991553
-0.095319465 0.19203739 0.30943522 0.16251999 0.23306617 0.31952912 -0.09911501 0.04235641
0.18745904 0.31677666 -0.055438522 0.2590282 0.19336061 0.24001288 -0.055468928 0.011473104
0.32428414 -0.06739796 0.3304671 0.30348307 0.33267233 -0.022786586 0.2132806 -0.055798158

model.4.weight f4 [1, 64]
00000000: 5328 b13e 36e6 30bc 644e 28bf 2b7b 97bd
00000010: cf79 5bbd 08e4 833e 2fc8 903e 0b90 a03e
00000020: ff40 873e 9048 0bbf e542 a6b8 8ce1 9a3e
00000030: a803 15bf 1a3e 3fbf 4e66 0abf c323 9f3e
00000040: d1d0 9d3e b20e 823e d731 bb3e 51bf 18bf
00000050: b571 9e3e fb0c ae3e 5936 c9bd c9f9 a73e
00000060: 8f99 963e cf9f ba3e 3625 9b3e 204d 813e
00000070: c7ac b83e a3da 08bf 5831 a03e 9ab5 af3e
00000080: 81ad a83e dbcc 08bf b91e 18bf e2a8 0bbf
00000090: b7b6 a93e c294 f9be fd83 923e f271 debe
000000a0: af41 52bd fed5 973e 9386 b03e ffb1 993e
000000b0: 04b3 833e 2238 a93e e8bd b7ba f83b cabd
000000c0: ff35 8a3e 4d53 923e 44f3 99bd 08af 833e
000000d0: 005e a43e 016d a63e 342a f5be cc83 1dbc
000000e0: bd46 8d3e 8837 59bd 2c6a 9b3e aef0 b93e
000000f0: d9de 863e 5db2 a3bb b719 8a3e 6090 90be
0.34601077 -0.010797074 -0.65744615 -0.07396539 -0.053582963 0.25759912 0.28277728 0.31359896
0.26416776 -0.54407597 -7.927957e-05 0.30250204 -0.58208704 -0.74704134 -0.54062355 0.31081972
0.30823377 0.25401837 0.36561462 -0.59666926 0.30946127 0.33994278 -0.09824819 0.32807758
0.2941403 0.3645005 0.30301827 0.25254154 0.3606932 -0.53458613 0.31287646 0.34318238
0.32944873 -0.53437585 -0.5942188 -0.5455457 0.33147213 -0.48746306 0.28616324 -0.43446308
-0.051332172 0.2965545 0.34477672 0.30018613 0.25722516 0.33050638 -0.0014018388 -0.098747194
0.2699432 0.28579178 -0.07517102 0.25719476 0.32102966 0.32505038 -0.4788376 -0.009613942
0.27593032 -0.053031474 0.3035444 0.36316437 0.26341894 -0.004995628 0.26972744 -0.2823515
