pk_adv_dl2_no_sex.pth (torch, 39565 bytes, 5 tensors)

model.0.weight f4 [128, 5]
-0.19843814 0.13725299 0.34909284 0.09090186 0.040510546 -0.39176485 0.5984641 0.05425098
-0.28052402 -0.09338645 0.32900786 -0.067726195 0.3228606 0.1540929 0.12402479 -0.038810123
0.44993484 0.6323029 0.074496664 -0.34292877 0.50290024 0.1361215 0.30240574 0.24399072
0.29578355 0.3811202 0.18849534 0.03855439 -0.025929224 0.046662644 0.18258154 -0.010070547
0.46722046 -0.21094483 0.1094393 0.16959596 0.06126324 0.3368176 -0.53846526 0.44778705
-0.27939168 0.5433073 0.6306891 0.05867765 -0.050492883 -0.24987046 0.49835694 0.037800167
-0.208904 -0.037157416 -0.36273688 0.38077378 0.12984593 -0.13481088 -0.2815581 -0.48102698
0.08362979 0.31301722 -0.25922543 -0.3380266 -0.3882051 0.5263669 0.35272834 0.016793273
-0.07350352 0.07401697 -0.0016697632 -0.0263071 0.23052238 -0.12236493 0.42778894 0.19607477
-0.0605273 0.102222994 7.9701e-05 0.28531915 -0.126751 0.29755625 -0.37291446 -0.24489355
0.09020466 0.05590076 0.66044265 0.08526985 0.21084514 0.116634354 0.03267153 -0.21253422
0.03800386 0.36192316 -0.28210312 0.3007517 0.71823144 -0.022705209 -0.08856314 0.3699465
0.64846945 0.6105807 0.46365485 0.3752987 0.5960134 -0.11467724 0.15247692 -0.5247403
-0.13024566 -0.17782566 0.5494087 0.16496488 0.018191265 -0.22790077 0.35085624 0.64925385
0.14109106 0.018096607 -0.026471175 -0.20399855 -0.084738545 0.7531158 -0.022677302 0.014588393
-0.5216499 0.48386267 -0.052154694 -8.4729894e-05 -0.0081012985 -0.4037793 0.19285263 0.32883522
-0.18881437 -0.36234635 -0.23274857 0.7426378 0.08132652 0.04595442 -0.09157443 0.63701
0.034862503 0.015617386 -0.037517983 0.39431512 -0.0012127067 -0.18122852 0.4288979 -0.29746342
0.1245892 -0.09484838 0.13701852 0.041904658 0.50226015 -0.63852674 0.30402717 0.30283806
0.02426158 -0.28657776 -0.40361315 0.13004711 0.6344092 0.04949867 -0.036733452 -0.3248441
0.110970765 0.13379267 0.5813052 -0.0026394469 0.08614018 0.19795808 -0.11448358 0.4309248
-0.22493611 -0.16342096 0.19588603 0.64186454 0.69852275 -0.19398694 -0.20248358 -0.07012931
0.34283346 0.62287766 0.24909723 -0.2407544 -0.017186327 0.47745702 0.5299753 0.05825845
0.105185285 -0.3519862 0.10907965 0.77845806 0.15053193 -0.14645423 0.07875825 0.6719209
0.5250308 0.121769816 -0.05215651 -0.28478363 -0.08898479 0.5676159 -0.24307628 0.23242463
-0.2905622 0.61941296 0.15829 -0.14900152 0.03161854 -0.5743208 0.63651806 0.07557085
-0.00069023774 0.029058328 0.16871053 0.031159112 -0.010380115 -0.37541765 0.046405815 0.2937058
0.44406617 0.64503175 -0.10249593 0.37815437 -0.1691783 0.6597374 0.34953383 -0.037837453
0.12470362 -0.3690046 0.3307783 -0.18138117 -0.35934463 -0.27012578 0.11312316 0.36460212
-0.28097862 -0.045552924 -0.012690539 -0.18236493 0.67347294 0.024565097 -0.07208821 0.01189625
0.05615778 0.6146012 0.6659986 -0.17716968 0.09987648 -0.24003845 0.67593664 0.47744188
0.16293404 0.09252464 -0.29463005 0.49429393 0.7410578 -0.028450442 -0.11284275 -0.6781276
00000000: 5e33 4bbe 0c8c 0c3e 4cbc b23e c12a ba3d
00000010: 63ee 253d 6795 c8be f134 193f 4736 5e3d
00000020: d8a0 8fbe 6541 bfbd b873 a83e 08b4 8abd
00000030: fc4d a53e 87ca 1d3e b600 fe3d 5df7 1ebd
00000040: dc5d e63e 9ade 213f b591 983d 5c94 afbe
00000050: 12be 003f 6f63 0b3e edd4 9a3e b4d8 793e
00000060: f170 973e 3022 c33e ec04 413e 35eb 1d3d
00000070: 8669 d4bc 5421 3f3d a8f6 3a3e f0fe 24bc
00000080: 8537 ef3e ec01 58be b621 e03d 90aa 2d3e
00000090: 2aef 7a3d 5b73 ac3e dcd8 09bf 5844 e53e
000000a0: 6d0c 8fbe 3016 0b3f d774 213f fa57 703d
000000b0: a0d1 4ebd 0bde 7fbe a428 ff3e 59d4 1a3d
000000c0: eeea 55be 6032 18bd a6b8 b9be c8f4 c23e
000000d0: 55f6 043e dd0b 0abe 6228 90be 2b49 f6be
000000e0: 1846 ab3d cb43 a03e 32b9 84be d311 adbe
000000f0: d2c2 c6be fbbf 063f cf98 b43e 0c92 893c
00000100: 0389 96bd 3696 973d f5db daba fd81 d7bc
00000110: 0f0e 6c3e 779a fabd 2707 db3e d3c7 483e
00000120: 79eb 77bd 4a5a d13d 2625 a738 5a15 923e
00000130: 04cb 01be 4b59 983e a5ee bebe 60c5 7abe
00000140: 39bd b83d 32f8 643d c512 293f f6a1 ae3d
00000150: cae7 573e fedd ee3d 95d2 053d 92a2 59be
00000160: efa9 1b3d fe4d b93e d26f 90be 20fc 993e
00000170: 04de 373f 4600 babc 9760 b5bd a169 bd3e
00000180: 1802 263f 044f 1c3f 2b64 ed3e 2727 c03e
00000190: 5694 183f e7db eabd e922 1c3e 6155 06bf
000001a0: 1e5f 05be ee17 36be 0ca6 0c3f 8eec 283e
000001b0: d905 953c d25e 69be 6ea3 b33e 8035 263f
000001c0: 2d7a 103e 563f 943c 14da d8bc ffe4 50be
000001d0: 678b adbd 32cc 403f c0c5 b9bc 2804 6f3c
000001e0: d98a 05bf d9bc f73e 29a0 55bd 04b1 b1b8
000001f0: 4fbb 04bc 29bc cebe 297b 453e 175d a83e
00000200: 8e58 41be 7685 b9be a455 6ebe 831d 3e3f
00000210: 858e a63d b43a 3c3d 608b bbbd 1613 233f
00000220: fccb 0e3d 11e0 7f3c 75ac 19bd ace3 c93e
00000230: aff3 9eba f893 39be 8198 db3e 204d 98be
00000240: 9f28 ff3d de3f c2bd 954e 0c3e 38a4 2b3d
00000250: 1f94 003f 7d76 23bf 73a9 9b3e 970d 9b3e
00000260: 39c0 c63c 52ba 92be 62a6 cebe 122b 053e
00000270: a468 223f 1ebf 4a3d d175 16bd f751 a6be
00000280: a444 e33d f200 093e 6bd0 143f 92fa 2cbb
00000290: 436a b03d 86b5 4a3e 5e76 eabd 2da2 dc3e
000002a0: a755 66be d357 27be 5996 483e 3c51 243f
000002b0: 63d2 323f 83a4 46be db57 4fbe f59f 8fbd
000002c0: de87 af3e e974 1f3f 5813 7f3e 5288 76be
000002d0: 57ca 8cbc 3f75 f43e 76ac 073f 6aa0 6e3d
000002e0: 626b d73d 8937 b4be 2765 df3d 0749 473f
000002f0: 0b25 1a3e 19f8 15be 014c a13d 0203 2c3f
00000300: 6b68 063f 7462 f93d 11a2 55bd 29cf 91be
00000310: a83d b6bd 474f 113f fde8 78be b900 6e3e
00000320: 92c4 94be d991 1e3f c616 223e db93 18be
00000330: 7182 013d b006 13bf d9f2 223f e4c4 9a3d
00000340: 12f1 34ba bb0b ee3c 74c2 2c3e 6541 ff3c
00000350: 5c11 2abc be36 c0be 0614 3e3d 9b60 963e
00000360: a45c e33e cd20 253f 63e9 d1bd 739d c13e
00000370: 143d 2dbe 8de4 283f 19f6 b23e 72fb 1abd
00000380: 9d64 ff3d 2cee bcbe c65b a93e fcbb 39be
00000390: 05fc b7be ed4d 8abe 1ead e73d 21ad ba3e
000003a0: 6edc 8fbe b495 3abd faeb 4fbc dfbd 3abe
000003b0: b968 2c3f be3c c93c fca2 93bd 7de8 423c
000003c0: b305 663d 8156 1d3f e27e 2a3f f86b 35be
000003d0: 0a8c cc3d a4cc 75be 2f0a 2d3f 4373 f43e
000003e0: 2ed8 263e 8f7d bd3d c0d9 96be 1814 fd3e
000003f0: f7b5 3d3f e710 e9bc 1a1a e7bd c599 2dbf

model.0.bias f4 [128]
0.62065977 -0.18719506 0.6100251 -0.0050078263 0.7751395 0.6765611 0.27192527 0.19075061
0.5162528 -0.087879166 0.44090375 0.48778445 0.22335435 0.6133894 0.6505368 0.55115396
0.2477189 0.5783061 0.3344653 0.04278219 0.17718528 0.075578906 0.9295202 0.22198789
-0.14782622 0.03951968 0.3411848 -0.00601903 0.65804493 0.08548961 0.1947985 0.08365857
0.59565055 0.20781036 0.513476 0.05258423 0.7047698 0.051523596 0.8147786 0.45779866
0.3798847 -0.0143347215 0.8574304 0.36994436 0.819623 0.265908 0.34748158 0.7182767
0.5475374 0.78928316 0.46234205 -0.1815849 0.25301865 0.036677178 0.76558197 0.6623157
0.23285618 0.69138116 -0.04704294 -0.088345386 0.2698914 0.74815947 0.056945454 0.56557524
0.7071981 0.6960959 0.28826025 0.24040847 -0.11606615 0.65756994 0.19660132 0.38181326
-0.048237883 0.6091113 0.73957765 -0.11942344 0.83725756 0.63290256 0.36495697 0.69251984
0.8322264 0.60072356 -0.18740681 -0.08273418 0.1539602 0.52403885 0.11838737 0.58987933
0.3838647 0.20940611 0.42019975 0.69293445 0.18359494 0.25674322 0.6021257 0.23125543
0.6287895 -0.08520829 -0.113055974 0.3367057 0.37314343 -0.410137 0.7630104 0.49400592
0.14031273 0.77616197 -0.16609897 0.519279 0.72276074 0.66483706 0.65024793 0.7671356
0.7803077 0.29858723 0.091606095 0.039233565 0.5647826 0.43017668 -0.018964322 0.76367176
0.71335185 -0.13676187 -0.01974563 0.7446006 0.41939703 0.22832957 0.27043104 0.6307865
00000000: 8fe3 1e3f 10b0 3fbe 9b2a 1c3f b118 a4bb
00000010: 8b6f 463f 1c33 2d3f ca39 8b3e 2154 433e
00000020: 2529 043f fef9 b3bd 23be e13e e2be f93e
00000030: 01b7 643e 1607 1d3f 9489 263f 6d18 0d3f
00000040: 06aa 7d3e de0b 143f 093f ab3e 613c 2f3d
00000050: 0f70 353e 1dc9 9a3d 09f5 6d3f cb50 633e
00000060: c25f 17be 63df 213d c6af ae3e 493b c5bb
00000070: a275 283f 2d15 af3d 4279 473e 2f55 ab3d
00000080: 8e7c 183f 3dcc 543e 2a73 033f 9062 573d
00000090: cb6b 343f 680a 533d 5595 503f 9664 ea3e
000000a0: 3f80 c23e 2edc 6abc 8f80 5b3f 5969 bd3e
000000b0: d0d2 513f 1825 883e 1be9 b13e fbe0 373f
000000c0: 692b 0c3f 760e 4a3f 19b8 ec3e 64f1 39be
000000d0: a98b 813e cf3a 163d 2efd 433f 868d 293f
000000e0: da71 6e3e 5bfe 303f 19b0 40bd 6dee b4bd
000000f0: 352f 8a3e 6187 3f3f a33f 693d 8ac9 103f
00000100: ef0a 353f 5733 323f d996 933e a32d 763e
00000110: 17b4 edbd 8156 283f db51 493e 077d c33e
00000120: 1695 45bd b8ee 1b3f f654 3d3f 4794 f4bd
00000130: 8356 563f e705 223f a4db ba3e fb48 313f
00000140: ca0c 553f 05c9 193f 92e7 3fbe 8a70 a9bd
00000150: bea7 1d3e 6927 063f 1475 f23d 5502 173f
00000160: ea89 c43e 8e6e 563e 6c24 d73e 2764 313f
00000170: 5000 3c3e d973 833e e924 1a3f 39ce 6c3e
00000180: 59f8 203f af81 aebd e489 e7bd b164 ac3e
00000190: a80c bf3e 7afd d1be a654 433f 58ee fc3e
000001a0: 24ae 0f3e 8db2 463f d915 2abe 78ef 043f
000001b0: d906 393f c332 2a3f a676 263f 0063 443f
000001c0: 3fc2 473f 6de0 983e fa9b bb3d 60b3 203d
000001d0: 9895 103f 1e40 dc3e 115b 9bbc fe7f 433f
000001e0: 3a9e 363f 4e0b 0cbe 96c1 a1bc 259e 3e3f
000001f0: 35bb d63e 3acf 693e f075 8a3e 397b 213f

model.2.weight f4 [64, 128]
-0.010243124 0.07211359 -0.0944587 0.059368707 -0.033803247 -0.019638186 0.055255093 -0.087808974
-0.016823255 -0.0055779996 0.016482847 -0.00222855 0.036383234 0.05581074 -0.10021883 -0.050986398
0.023165092 -0.020037312 -0.024430975 -0.075438954 -0.09872751 -0.0703207 0.046986055 0.06151993
-0.09455555 0.009068222 -0.019027561 -0.08444613 0.032785296 0.07109437 -0.052636802 -0.03044397
-0.097250715 0.026196657 -0.015568373 -0.07330915 0.038108252 -0.012508303 -0.09597585 0.039946046
-0.08040181 -0.07103009 0.010430449 -0.055401053 0.014797189 -0.02886296 -0.011857042 0.017590059
0.06676712 -0.075581945 0.066489294 -0.06335028 0.0049266326 -0.08736334 0.07183782 0.02158055
0.03930447 0.059375588 0.012543202 -0.06769205 -0.0037194209 -0.07892965 0.007366171 -0.021440536
-0.00084893673 -0.07413861 0.027995368 -0.10070222 -0.0791333 -0.05214997 0.007024381 0.062396932
0.05035642 0.02035773 -0.013586056 -0.003578704 -0.016448578 0.061005574 0.0724611 0.048317254
-0.0787662 -0.066762604 -0.08977472 0.017091906 0.014067691 -0.004705108 0.0591565 -0.09343336
0.06631196 -0.05310538 -0.051729333 -0.09537879 -0.011664157 -0.022150481 -0.031073265 0.020443562
-0.018435791 0.001000441 -0.027841225 -0.08530888 -0.09252866 -0.08732611 -0.08308129 -0.016960371
-0.08338805 0.031915817 0.06639152 -0.015202812 -0.07776957 0.051212274 -0.047149736 -0.09777477
0.037910193 0.036505062 -0.08914916 -0.07305525 0.024164557 -0.033926476 -0.07104891 0.021851176
-0.054149915 -0.07120029 0.03742997 0.03681515 -0.028400123 -0.074058875 0.07022732 -0.036762506
0.27662614 0.17553309 0.19949009 0.11293576 0.20188592 0.27986473 0.1821978 0.1745102
0.3404936 0.17784745 0.26122972 0.25736266 0.16163957 0.21129572 0.18302873 0.16419289
0.2644252 0.3086427 0.32503554 0.2449943 0.06904663 0.21547852 0.30577138 0.32769936
0.17244227 0.124096446 0.2524739 0.09086883 0.20695812 0.13152763 0.017690431 0.14833722
0.30881587 0.08606499 0.29955232 0.17158234 0.20212516 0.1571593 0.34795803 0.1593389
0.28765365 0.20046349 0.33989006 0.15095231 0.26594922 0.07171802 0.35137638 0.23653667
0.24329492 0.20927137 0.24241838 -0.4353739 0.18933532 0.08256463 0.24397652 0.24573931
0.23919286 0.32008043 -0.23072223 0.12156367 0.19454347 0.26025027 0.19498597 0.2142489
0.21327302 0.28665584 0.2906864 0.24336164 0.12929498 0.2805446 0.18734747 0.1808619
0.08229568 0.32130083 0.22027203 0.09558097 0.23935048 0.24870968 0.27679634 0.20542464
0.3639471 0.14436933 0.051014062 -0.37108433 0.06543131 0.126321 0.18373758 0.23479722
0.3282683 0.28438672 0.08558797 0.32110173 0.11230852 0.25342312 0.28554374 0.28596038
0.22217238 0.13390335 -0.030513197 0.11408908 0.08971792 0.07049995 0.24849679 0.3056243
-0.0013040185 0.2563456 0.27165315 0.22725992 0.22729358 0.21756032 0.38979194 0.22956228
0.36776134 0.26007178 0.17357719 0.09927523 0.2778448 0.25070602 0.16779065 0.36373836
0.38738793 -0.014376088 0.19617368 0.3202306 0.31693417 0.24561577 0.23422767 0.21444368
00000000: c7d2 27bc 4ab0 933d 9073 c1bd 9a2c 733d
00000010: 4675 0abd 43e0 a0bc 2a53 623d 31d5 b3bd
00000020: ecd0 89bc a7c7 b6bb 0907 873c dd0c 12bb
00000030: 9606 153d cd99 643d 883f cdbd 1dd7 50bd
00000040: b8c4 bd3c 4a25 a4bc 7823 c8bc bd7f 9abd
00000050: a631 cabd 4d04 90bd 7374 403d 52fc 7b3d
00000060: 57a6 c1bd e192 143c b0df 9bbc 18f2 acbd
00000070: e049 063d ed99 913d b099 57bd a265 f9bc
00000080: 622b c7bd 5f9a d63c 7d12 7fbc 1c23 96bd
00000090: 6617 1c3d a0ef 4cbc fd8e c4bd 779e 233d
000000a0: b4a9 a4bd 3978 91bd 79e4 2a3c 37ec 62bd
000000b0: e96f 723c 0472 ecbc 0a44 42bc 0719 903c
000000c0: 33bd 883d b5ca 9abd 8a2b 883d cbbd 81bd
000000d0: 976f a13b 8deb b2bd b51f 933d b2c9 b03c
000000e0: b9fd 203d d133 733d 0182 4d3c 21a2 8abd
000000f0: 87c1 73bb dea5 a1bd ec5f f13b 10a4 afbc
00000100: 2e8b 5eba fcd5 97bd 8b56 e53c f73c cebd
00000110: a410 a2bd 359b 55bd c72c e63b ed93 7f3d
00000120: 8942 4e3d 41c5 a63c 0d98 5ebc b188 6abb
00000130: 2bbf 86bc fbe0 793d 7c66 943d 50e8 453d
00000140: 2c50 a1bd d5ba 88bd cfdb b7bd 5304 8c3c
00000150: 2c7c 663c 4e2d 9abb 164e 723d fd59 bfbd
00000160: 91ce 873d 0785 59bd 23e2 53bd f455 c3bd
00000170: 051b 3fbc ed74 b5bc 5c8d febc 4279 a73c
00000180: a806 97bc 3b21 833a 4813 e4bc 6cb6 aebd
00000190: ab7f bdbd 08d8 b2bd 8626 aabd 7af0 8abc
000001a0: 5bc7 aabd 29ba 023d 47f8 873d 3715 79bc
000001b0: a745 9fbd f6c3 513d 1520 41bd 233e c8bd
000001c0: b847 1b3d 5586 153d d693 b6bd fe9d 95bd
000001d0: c0f4 c53c 7df6 0abd 1782 91bd 3d01 b33c
000001e0: 4dcc 5dbd 75d1 91bd 2b50 193d 7ccb 163d
000001f0: 60a7 e8bc 2eac 97bd 57d3 8f3d 4894 16bd
00000200: f1a1 8d3e f2be 333e 2147 4c3e dd4a e73d
00000210: 2fbb 4e3e 6e4a 8f3e 0f92 3a3e cdb2 323e
00000220: 2d55 ae3e a41d 363e e7bf 853e 0ac5 833e
00000230: d884 253e e85d 583e e26b 3b3e 2e22 283e
00000240: bd62 873e 6a06 9e3e 0f6b a63e c9df 7a3e
00000250: 5268 8d3d 67a6 5c3e 118e 9c3e 36c8 a73e
00000260: b594 303e 4726 fe3d 4244 813e 7019 ba3d
00000270: d4ec 533e 2eaf 063e 86eb 903c b6e5 173e
00000280: 1d1d 9e3e d742 b03d ec5e 993e 48b3 2f3e
00000290: e6f9 4e3e 5eee 203e 8e27 b23e bd29 233e
000002a0: 5747 933e 4d46 4d3e 1206 ae3e 3e93 1a3e
000002b0: 7f2a 883e e6e0 923d 9be7 b33e ab36 723e
000002c0: 4e22 793e 3c4b 563e 863c 783e 54e9 debe
000002d0: 1ee1 413e a517 a93d fbd4 793e 16a3 7b3e
000002e0: f9ee 743e 95e1 a33e 7342 6cbe 60f6 f83d
000002f0: 6736 473e 863f 853e 67aa 473e 1064 5b3e
00000300: 3e64 5a3e 8ec4 923e d9d4 943e cb33 793e
00000310: e765 043e 8ba3 8f3e 04d8 3f3e dd33 393e
00000320: a38a a83d 8b81 a43e fe8e 613e f5bf c33d
00000330: 4b18 753e c0ad 7e3e 40b8 8d3e d65a 523e
00000340: 4657 ba3e 8ed5 133e 1ff4 503d c4fe bdbe
00000350: da00 863d 4b5a 013e b425 3c3e af6e 703e
00000360: c812 a83e 239b 913e bf48 af3d 7267 a43e
00000370: 0202 e63d adc0 813e ca32 923e 6669 923e
00000380: 2881 633e f61d 093e d0f6 f9bc 89a7 e93d
00000390: 07be b73d 4762 903d f175 7e3e ca7a 9c3e
000003a0: 9aeb aaba bb3f 833e 1f16 8b3e d3b6 683e
000003b0: a6bf 683e 22c8 5e3e cf92 c73e 6012 6b3e
000003c0: 374b bc3e 2128 853e 38be 313e d050 cb3d
000003d0: ac41 8e3e 8a5c 803e 50d1 2b3e ea3b ba3e
000003e0: b657 c63e af89 6bbc c1e1 483e 44f5 a33e
000003f0: 3245 a23e b382 7b3e 61d9 6f3e 2097 5b3e

model.2.bias f4 [64]
0.06865286 0.32532713 0.30696845 0.36018008 -0.089069724 0.38133612 0.0035296662 -0.19655217
0.21697281 -0.019399019 0.21518932 0.29317373 0.2929055 0.2944774 -0.022275073 0.21409482
-0.010739412 0.261282 0.015341931 0.060346726 0.37886736 0.35048193 -0.017346036 -0.05037575
0.34020132 -0.084121324 0.2667009 0.033639636 0.25184488 0.25933024 -0.016115338 0.21047446
0.21703102 0.24950764 -0.031067878 0.0057157837 0.0020025 0.21982367 -0.10123248 0.2543502
-0.115611054 0.21532485 0.027180955 0.22300291 -0.29676473 0.26245275 0.27149075 0.2455942
0.03952428 -0.05933666 -0.05562771 0.20449471 0.3445271 0.309217 -0.09082815 -0.025456829
0.19006748 -0.07269262 0.2919847 -0.0033400236 0.0692444 0.21884464 0.29966214 0.20198654
00000000: df99 8c3d 4791 a63e f82a 9d3e 8669 b83e
00000010: 306a b6bd 7d3e c33e f951 673b f944 49be
00000020: 1f2e 5e3e b1ea 9ebc 975a 5c3e de1a 963e
00000030: b6f7 953e bec5 963e 377a b6bc ac3b 5b3e
00000040: 5cf4 2fbc c1c6 853e b95c 7b3c 212e 773d
00000050: e7fa c13e 5e72 b33e 4619 8ebc cd56 4ebd
00000060: de2e ae3e cd47 acbd 058d 883e b7c9 093d
00000070: d0f1 803e efc6 843e 5004 84bc 9e86 573e
00000080: 613d 5e3e ee7e 7f3e 1082 febc 784b bb3b
00000090: 603c 033b 7519 613e f952 cfbd 303a 823e
000000a0: 7dc5 ecbd 1e7e 5c3e 98aa de3c e05a 643e
000000b0: 8cf1 97be 3560 863e d600 8b3e 0c7d 7b3e
000000c0: 36e4 213d ff0a 73bd e2d9 63bd 1067 513e
000000d0: db65 b03e b151 9e3e 1c04 babd d78a d0bc
000000e0: 0da1 423e dedf 94bd 057f 953e 4ce4 5abb
000000f0: 02d0 8d3d cf18 603e 516d 993e 8fd5 4e3e

model.4.weight f4 [1, 64]
-0.040764358 0.2729484 0.2761734 0.25630358 -0.08103302 0.28159207 -0.07955327 -0.8136246
0.33083847 -0.039908633 0.27574718 0.3010769 0.28233582 0.35441086 -0.6587284 0.3026261
-0.013637899 0.33495358 -0.07388001 -0.07656724 0.25949842 0.33070898 -0.021519704 -0.0153502105
0.2774922 -0.101701155 0.3034415 -0.0607706 0.31278613 0.29772148 -0.009547357 0.32505924
0.32328704 0.33970818 -0.51641864 -0.07578389 -0.10633122 0.3339551 -0.055046577 0.3061568
-0.6616383 0.32278863 0.00026329263 0.29942465 -0.9134165 0.2766987 0.34381062 0.30667764
-0.06005603 -0.086262256 -0.014889823 -0.85076123 0.26606733 0.29466152 -0.10355129 -0.059687063
0.36569878 -0.027867286 0.2790864 -0.005683781 -0.07241657 0.3264058 0.3708875 0.32708985
00000000: 87f8 26bd e5bf 8b3e 9a66 8d3e 393a 833e
00000010: a4f4 a5bd d62c 903e d3ec a2bd b449 50bf
00000020: a963 a93e 3c77 23bd bc2e 8d3e c026 9a3e
00000030: 528e 903e 5775 b53e 6da2 28bf cff1 9a3e
00000040: 7f71 5fbc 097f ab3e 674e 97bd 49cf 9cbd
00000050: fadc 843e b052 a93e 174a b0bc 737f 7bbc
00000060: 7513 8e3e b248 d0bd af5c 9b3e 98ea 78bd
00000070: 8125 a03e f36e 983e 856c 1cbc 2a6e a63e
00000080: e185 a53e 3bee ad3e 0334 04bf 9634 9bbd
00000090: 2fc4 d9bd 2afc aa3e 8578 61bd 96c0 9c3e
000000a0: 2161 29bf 8d44 a53e 8a0a 8a39 304e 993e
000000b0: aad5 69bf 74ab 8d3e f207 b03e da04 9d3e
000000c0: 50fd 75bd 44aa b0bd 72f4 73bc 7dcb 59bf
000000d0: fa39 883e e0dd 963e b312 d4bd 6c7a 74bd
000000e0: df3c bb3e ef49 e4bc 6ae4 8e3e 033f babb
000000f0: 234f 94bd a91e a73e f7e4 bd3e 5278 a73e
