pk_adv_convex_no_sex.pth (torch, 39601 bytes, 5 tensors)

model.0.weight f4 [128, 5]
00000000: 6517 48be b4c2 0a3e 95e4 b03e 98f2 b03d
00000010: 05c3 1e3d e711 c3be cacf 193f 4429 523d
00000020: 6cb5 8bbe 7c5c c5bd 4a80 a83e 60e2 8ebd
00000030: dafc a13e de43 103e 7dc3 f43d 21d5 20bd
00000040: f8df e63e acf9 213f 5851 a23d e234 b2be
00000050: ecca 013f 3e93 0f3e 22e3 9b3e eeb1 6f3e
00000060: fd3a 9b3e 276c c13e a17c 3c3e 5f34 e73c
00000070: bd2d d7bc c653 583d b578 3b3e 09e1 35bc
00000080: c8a5 ef3e 1ca5 52be b613 e43d 791d 313e
00000090: aa72 663d 4d42 a93e 1367 0bbf 10c6 e63e
000000a0: f5ad 8ebe e039 0a3f 6745 223f 54ca 5f3d
000000b0: 68ab 50bd f78e 70be d4d2 ff3e 1fb7 223d
000000c0: 1550 57be 086f 2abd e132 b9be 6257 c03e
000000d0: 2bb7 003e 014a 01be eb8f 8dbe ba26 f5be
000000e0: 9775 a73d 370d 9d3e 8eec 84be 67a4 acbe
000000f0: 82c7 d1be a5e2 063f f6ef b23e a44e b23c
00000100: 8fa0 84bd 94ea 993d 94cd cdbb 2fe6 f9bc
00000110: 4e41 653e a327 07be cd73 dc3e c71f 463e
00000120: 4dff 8ebd fe0f bd3d 8aa0 4fbb 1e57 8f3e
00000130: 7254 01be f167 953e f0c9 bebe 20bd 7abe
00000140: c24f cf3d 57b8 6a3d 943a 293f 92dc bb3d
00000150: 89ce 5c3e 8196 d73d 2da8 1c3d 5b0d 5ebe
00000160: addd b73c ba77 bb3e 077a 97be f2e2 9b3e
00000170: 0075 393f f3cb 6cbc 1772 a9bd ad7d bf3e
00000180: f1e8 253f 0e6d 1c3f 90e5 ef3e 5e6b be3e
00000190: e398 1a3f 4409 f7bd 7a20 153e 2488 04bf
000001a0: 196a f9bd 368f 3bbe 5ce2 0c3f f0c5 2e3e
000001b0: b151 833c aa29 73be 1e68 b53e 64d0 243f
000001c0: cc9d 053e 17c2 ac3c b417 0bbd 1cc9 60be
000001d0: 9dc8 adbd 2db5 423f 2aa6 a0bc 1f2d 783c
000001e0: fc87 05bf 3e54 f83e b98d 68bd f178 9cba
000001f0: a2ee f6bb 4e5a d2be 0e66 463e 1cb7 aa3e
00000200: 54a2 3dbe af5b b9be db16 77be f3bd 3e3f
00000210: 7de8 c43d d9c4 283d 664d babd 74db 233f
00000220: bae6 0e3d 48ce b73c 6678 2abd 6d31 d23e
00000230: 9460 5e3b ac8f 3ebe 8a53 d83e 5b54 96be
00000240: e2b8 ff3d 32d5 a7bd aac3 fd3d bd70 073d
00000250: db94 df3e 721c 37bf b900 9b3e 3b95 9a3e
00000260: ad52 b03c 8e47 90be 2975 c8be 2c03 053e
00000270: a7b3 223f e3fb 5b3d d6c8 0abd f767 a3be
00000280: 15f3 d93d 5105 053e 61d5 143f e1d8 d2bb
00000290: db38 c03d 2b71 4b3e 2c00 e6bd 619c dc3e
000002a0: 4a3a 66be d5a0 1dbe 71e4 523e abdc 243f
000002b0: 8a24 343f 0238 46be f02f 53be 55f1 92bd
000002c0: 7dd1 af3e 3e78 203f 6221 693e acf4 7fbe
000002d0: 249a 94bc 8d0a f43e b91b 093f 7d72 743d
000002e0: 42e7 f53d 1b37 b7be 338d d43d 0ebc 483f
000002f0: cf6b 073e fc68 1bbe 4f53 b23d 9865 2c3f
00000300: 5941 063f b72b 043e 9091 89bd 95e6 92be
00000310: bb11 bdbd f87b 113f 54da 83be 4eb8 7e3e
00000320: 4b20 92be b879 203f 8144 2d3e 4dab 09be
00000330: cd85 173d c12c 12bf 07e1 223f d8e4 943d
00000340: deda 79bb 1b0d d13c 57e9 2f3e 80e7 f63c
00000350: 69af 69bc 8110 bfbe e877 3a3d dc5a 993e
00000360: ae6d e43e 6b16 263f 9d2d c7bd 4149 c73e
00000370: d5c9 2fbe fab4 253f 3b80 ad3e fb29 03bd
00000380: ef2c 053e f23f c0be aad2 a63e 0175 43be
00000390: d47a b3be bcd3 8bbe 9a32 e93d 691e bc3e
000003a0: 2df4 8ebe 60ad 32bd aca5 6bbc deb7 3abe
000003b0: a3a8 2a3f c910 9b3c 3c94 83bd f5a6 ca3c
000003c0: 072b 823d 4b11 1d3f 2716 2b3f 7b73 32be
000003d0: 76e8 ea3d 881a 71be 5ec4 2d3f 93a1 f73e
000003e0: 11d3 0c3e 62a6 da3d 3acb 98be b561 fd3e
000003f0: f5a9 3f3f 160d f1bc 03c5 e2bd 262f 2ebf
-0.19540174 0.13550836 0.34549394 0.08640021 0.038760204 -0.38099596 0.60082686 0.051308885
-0.2728685 -0.096367806 0.32910377 -0.06976771 0.31638223 0.1408839 0.11951349 -0.039265756
0.4509275 0.63271594 0.07925671 -0.3480597 0.5070026 0.14021012 0.30446726 0.23407719
0.30318442 0.37777826 0.18406917 0.028223215 -0.026266927 0.052814268 0.18307765 -0.011101016
0.4680617 -0.20570797 0.11136572 0.17296399 0.056261696 0.33058396 -0.54454154 0.45072985
-0.27867094 0.5399456 0.6338715 0.054636315 -0.050944716 -0.23492037 0.49965537 0.03972542
-0.21026643 -0.041609794 -0.3617163 0.37566668 0.12569873 -0.12625886 -0.27648863 -0.4788111
0.08176725 0.30674145 -0.25961727 -0.3371918 -0.40972525 0.5268958 0.349487 0.021766014
-0.064759366 0.07515445 -0.0062806103 -0.030505268 0.22388193 -0.13198714 0.430571 0.1934806
-0.069822885 0.09231566 -0.0031681382 0.27996153 -0.1262987 0.29180863 -0.3726344 -0.24486208
0.101226345 0.057304706 0.6610501 0.0917293 0.21563162 0.10526753 0.038246322 -0.21684782
0.02244457 0.36614782 -0.29585287 0.30446583 0.7244415 -0.014452922 -0.08273714 0.3740057
0.64808565 0.61103904 0.4685483 0.3719129 0.60389537 -0.12062314 0.1456317 -0.51770234
-0.1217844 -0.1831635 0.55032897 0.17067695 0.016030164 -0.23746362 0.35430998 0.6438048
0.13048476 0.021088643 -0.033958152 -0.21951717 -0.084855296 0.760577 -0.019610483 0.015147476
-0.5216062 0.48501772 -0.056775782 -0.0011937899 -0.0075357715 -0.41084522 0.19374868 0.33342826
-0.18518955 -0.36202762 -0.24129812 0.7450859 0.09614656 0.041203354 -0.09096794 0.64006734
0.034888007 0.02243723 -0.041618727 0.41053334 0.0033932077 -0.18609494 0.42251235 -0.29361233
0.124864355 -0.08194961 0.123908356 0.0330665 0.43668255 -0.7152778 0.3027399 0.3019198
0.021523798 -0.28179592 -0.39151886 0.12989491 0.6355538 0.053707015 -0.03388294 -0.31915256
0.10642067 0.1299031 0.5813809 -0.0064345454 0.09385844 0.19867389 -0.112305015 0.43088058
-0.22483173 -0.15393384 0.20594956 0.6439921 0.70368254 -0.19357303 -0.20623755 -0.07174937
0.34339514 0.62683475 0.22766641 -0.24995679 -0.018139906 0.476643 0.53557926 0.059679497
0.120069996 -0.3578423 0.10378494 0.7841195 0.1322472 -0.15176767 0.08707296 0.6734252
0.5244346 0.12907301 -0.06717217 -0.28691545 -0.092318974 0.56829786 -0.2575251 0.24874994
-0.28540263 0.6268573 0.16920663 -0.13444252 0.036992837 -0.5709954 0.63624614 0.07270211
-0.003812484 0.025518944 0.17178856 0.030139685 -0.014263012 -0.3731728 0.045524508 0.29952133
0.4461493 0.6487796 -0.09725497 0.38923076 -0.17166837 0.64729273 0.33886895 -0.032022458
0.13005422 -0.37548786 0.325826 -0.19087602 -0.35054648 -0.27309978 0.113866046 0.3674195
-0.27920666 -0.043622375 -0.014382761 -0.18234202 0.6666357 0.018928902 -0.06424758 0.024737814
0.06355863 0.6135451 0.66830677 -0.17426865 0.1147012 -0.23545277 0.6787776 0.4836546
0.1375239 0.10676266 -0.2984255 0.49488607 0.7486871 -0.029425185 -0.11072733 -0.6804069

model.0.bias f4 [128]
00000000: d690 1c3f 0307 3abe bd82 1b3f c2af 50bc
00000010: 2508 443f 9653 2b3f eb2c 8b3e 6adc 373e
00000020: ef4a 043f 31fd a1bd eca7 e23e d201 f83e
00000030: 9ba7 663e b162 1c3f 70ce 233f 92e7 0b3f
00000040: d211 743e 0ab2 0f3f af5b af3e e871 1f3d
00000050: 789d 343e def9 a83d 79a9 6d3f 95ff 5c3e
00000060: 3923 1dbe 8530 043d 3deb ac3e 4ca5 a5bc
00000070: ba5d 263f e9f0 c53d 2b8c 473e 86ef ad3d
00000080: 8ce9 183f 278f 543e 568c 023f dc53 553d
00000090: 2783 333f 4995 7b3d 6ab6 503f c058 df3e
000000a0: c233 bd3e 2ecb 14bc ec2b 593f 0cd6 b83e
000000b0: 5f1f 533f 50b1 893e a38b ae3e fbd0 353f
000000c0: 4a10 0b3f 5679 493f 3024 ed3e b4dc 46be
000000d0: c3b3 7c3e 8163 0f3d 3850 433f b9f5 293f
000000e0: dc3d 6e3e c654 2f3f cef2 3bbd 0406 c3bd
000000f0: 1fa9 883e 734c 3e3f e96a 803d 3163 0f3f
00000100: fe4b 333f 10ba 313f 7448 933e 899c 703e
00000110: c9f6 edbd 90fe 263f b226 493e 3b4b c33e
00000120: 15a3 38bd 674d 1a3f 3a3f 3c3f c2b4 f6bd
00000130: 11d5 533f ee3b 213f de40 b43e da10 303f
00000140: 60e9 523f cd19 173f a35e 4ebe 162c a8bd
00000150: 3878 123e 9cca 033f bd4c f53d 0418 153f
00000160: 8ec9 c93e 5fca 543e b084 d43e 4635 2f3f
00000170: 5c94 383e 0917 863e 394d 193f 58a4 6a3e
00000180: cd8a 1e3f d5b9 bfbd 3ea3 03be 562a ab3e
00000190: d497 bf3e 7afd d1be f2a7 413f d4e0 fb3e
000001a0: 4a81 0c3e 2a1b 453f 05eb 28be 1e98 023f
000001b0: 72a5 373f a448 293f 54b8 243f 09cd 423f
000001c0: fb5e 463f 8241 9a3e fa04 b93d dc3c 5a3d
000001d0: 9fec 0d3f 8901 da3e 0205 b1bc 1a01 433f
000001e0: ddfb 343f dbc3 0bbe af6e e8bc 2e1e 3e3f
000001f0: eb70 d63e af44 5a3e 1438 8a3e d0fa 1b3f
0.611585 -0.18166737 0.60746366 -0.012737216 0.7657493 0.66924417 0.27182707 0.17955175
0.5167684 -0.079096206 0.4426874 0.4843889 0.22524874 0.6108809 0.63986874 0.54650223
0.23834923 0.5613104 0.34249637 0.03892699 0.17638195 0.082507834 0.9283672 0.21581872
-0.15345468 0.032272834 0.33773223 -0.020220421 0.64986765 0.096650906 0.19487064 0.08492951
0.59731364 0.20757733 0.50995386 0.052081928 0.70122 0.061421666 0.8152834 0.43622398
0.3695355 -0.009081645 0.84832644 0.36100805 0.82469743 0.2689309 0.3409091 0.71022004
0.5432173 0.7870077 0.4631667 -0.19420129 0.24677949 0.035007004 0.7629428 0.6639057
0.23265785 0.6848873 -0.045885853 -0.09522632 0.2669153 0.743354 0.062703915 0.5601073
0.7003783 0.69424534 0.28766215 0.23497213 -0.11619336 0.6523218 0.19643667 0.38143334
-0.045077402 0.60274357 0.73533976 -0.120461956 0.8274699 0.6298207 0.3520574 0.68775713
0.8238735 0.59023744 -0.20153289 -0.08211534 0.14303672 0.5148103 0.11977527 0.5823977
0.39411587 0.20780323 0.41507483 0.68440664 0.18025345 0.2618945 0.5988346 0.22914255
0.61930543 -0.093616165 -0.1285524 0.33430737 0.37420523 -0.410137 0.7564689 0.49194968
0.13721195 0.76994574 -0.16495903 0.5101336 0.71736825 0.66126466 0.6434376 0.7609411
0.7748868 0.30128103 0.09034152 0.053280696 0.5543918 0.42579296 -0.021608833 0.76173556
0.7069681 -0.13648932 -0.02837309 0.742648 0.41883025 0.21315263 0.2699591 0.60929585

model.2.weight f4 [64, 128]
00000000: c7d2 27bc 4ab0 933d 9073 c1bd 9a2c 733d
00000010: 4675 0abd 43e0 a0bc 2a53 623d 31d5 b3bd
00000020: ecd0 89bc a7c7 b6bb 0907 873c dd0c 12bb
00000030: 9606 153d cd99 643d 883f cdbd 1dd7 50bd
00000040: b8c4 bd3c 4a25 a4bc 7823 c8bc bd7f 9abd
00000050: a631 cabd 4d04 90bd 7374 403d 52fc 7b3d
00000060: 57a6 c1bd e192 143c b0df 9bbc 18f2 acbd
00000070: e049 063d ed99 913d b099 57bd a265 f9bc
00000080: 622b c7bd 5f9a d63c 7d12 7fbc 1c23 96bd
00000090: 6617 1c3d a0ef 4cbc fd8e c4bd 779e 233d
000000a0: b4a9 a4bd 3978 91bd 79e4 2a3c 37ec 62bd
000000b0: e96f 723c 0472 ecbc 0a44 42bc 0719 903c
000000c0: 33bd 883d b5ca 9abd 8a2b 883d cbbd 81bd
000000d0: 976f a13b 8deb b2bd b51f 933d b2c9 b03c
000000e0: b9fd 203d d133 733d 0182 4d3c 21a2 8abd
000000f0: 87c1 73bb dea5 a1bd ec5f f13b 10a4 afbc
00000100: 2e8b 5eba fcd5 97bd 8b56 e53c f73c cebd
00000110: a410 a2bd 359b 55bd c72c e63b ed93 7f3d
00000120: 8942 4e3d 41c5 a63c 0d98 5ebc b188 6abb
00000130: 2bbf 86bc fbe0 793d 7c66 943d 50e8 453d
00000140: 2c50 a1bd d5ba 88bd cfdb b7bd 5304 8c3c
00000150: 2c7c 663c 4e2d 9abb 164e 723d fd59 bfbd
00000160: 91ce 873d 0785 59bd 23e2 53bd f455 c3bd
00000170: 051b 3fbc ed74 b5bc 5c8d febc 4279 a73c
00000180: a806 97bc 3b21 833a 4813 e4bc 6cb6 aebd
00000190: ab7f bdbd 08d8 b2bd 8626 aabd 7af0 8abc
000001a0: 5bc7 aabd 29ba 023d 47f8 873d 3715 79bc
000001b0: a745 9fbd f6c3 513d 1520 41bd 233e c8bd
000001c0: b847 1b3d 5586 153d d693 b6bd fe9d 95bd
000001d0: c0f4 c53c 7df6 0abd 1782 91bd 3d01 b33c
000001e0: 4dcc 5dbd 75d1 91bd 2b50 193d 7ccb 163d
000001f0: 60a7 e8bc 2eac 97bd 57d3 8f3d 4894 16bd
00000200: 420c 8e3e f2bd 2e3e bbe8 4d3e c3d2 e43d
00000210: 4046 4f3e 07d6 8f3e fe89 393e 92fb 2d3e
00000220: d595 af3e 0758 353e 16cf 863e 36ac 833e
00000230: f090 223e 258f 5c3e d255 3e3e 810a 2a3e
00000240: 2c3f 863e 6846 983e cd5d a73e 717c 773e
00000250: 0a34 953d a05c 5f3e 82ae 9d3e 659b a63e
00000260: f34b 313e 8897 ec3d ab8d 823e 53d8 b43d
00000270: 193d 533e bd5c f43d bfbd ad3c 789d 183e
00000280: 1cd7 9e3e 62af af3d 4319 993e de9c 303e
00000290: a572 503e 965c 203e 7160 b33e d211 203e
000002a0: f572 933e 543f 4c3e 9867 aa3e 982a 173e
000002b0: b548 873e ebaf 9e3d a4ab b33e 2e8f 713e
000002c0: 3915 793e 9532 563e 2980 783e 508d dfbe
000002d0: ae3d 3f3e b9a7 b03d c652 763e cad0 7d3e
000002e0: 6a54 713e b6dc a53e a171 65be f7fc e83d
000002f0: 19d3 453e e2a7 863e 8187 493e 0907 5b3e
00000300: 22e5 5c3e 21f5 933e b23b 943e 553b 743e
00000310: b8df 003e b6c7 913e 8d5d 3c3e 197b 3d3e
00000320: 32c5 9b3d 3491 a53e 5474 623e eeff cb3d
00000330: 3ade 773e d85d 813e 4f66 8c3e 7500 553e
00000340: d393 b93e 7999 113e 034e 213d be0c bdbe
00000350: 7c07 6f3d a78f 043e 43e7 393e 25e1 703e
00000360: 312e a93e c68f 903e 0145 b43d 8579 a43e
00000370: 7d50 ee3d b041 823e b3ad 913e 1c6e 923e
00000380: 23be 633e 4a64 073e d364 03bd 70b4 ee3d
00000390: 3004 b63d 4762 903d 14f8 7d3e 6602 9e3e
000003a0: 0b45 ab3b 2264 843e 7092 883e 680a 663e
000003b0: 17e4 6a3e c55e 5e3e d4c0 c63e a062 6b3e
000003c0: 21c5 bc3e f202 853e f5ec 2e3e 406a c33d
000003d0: 9a04 8f3e da1c 7f3e 337f 2f3e 0959 bb3e
000003e0: f500 c73e 81df aebc 7c9b 433e 2d4c a43e
000003f0: 776e a23e 2dc7 743e 05b1 6f3e 61eb 5b3e
-0.010243124 0.07211359 -0.0944587 0.059368707 -0.033803247 -0.019638186 0.055255093 -0.087808974
-0.016823255 -0.0055779996 0.016482847 -0.00222855 0.036383234 0.05581074 -0.10021883 -0.050986398
0.023165092 -0.020037312 -0.024430975 -0.075438954 -0.09872751 -0.0703207 0.046986055 0.06151993
-0.09455555 0.009068222 -0.019027561 -0.08444613 0.032785296 0.07109437 -0.052636802 -0.03044397
-0.097250715 0.026196657 -0.015568373 -0.07330915 0.038108252 -0.012508303 -0.09597585 0.039946046
-0.08040181 -0.07103009 0.010430449 -0.055401053 0.014797189 -0.02886296 -0.011857042 0.017590059
0.06676712 -0.075581945 0.066489294 -0.06335028 0.0049266326 -0.08736334 0.07183782 0.02158055
0.03930447 0.059375588 0.012543202 -0.06769205 -0.0037194209 -0.07892965 0.007366171 -0.021440536
-0.00084893673 -0.07413861 0.027995368 -0.10070222 -0.0791333 -0.05214997 0.007024381 0.062396932
0.05035642 0.02035773 -0.013586056 -0.003578704 -0.016448578 0.061005574 0.0724611 0.048317254
-0.0787662 -0.066762604 -0.08977472 0.017091906 0.014067691 -0.004705108 0.0591565 -0.09343336
0.06631196 -0.05310538 -0.051729333 -0.09537879 -0.011664157 -0.022150481 -0.031073265 0.020443562
-0.018435791 0.001000441 -0.027841225 -0.08530888 -0.09252866 -0.08732611 -0.08308129 -0.016960371
-0.08338805 0.031915817 0.06639152 -0.015202812 -0.07776957 0.051212274 -0.047149736 -0.09777477
0.037910193 0.036505062 -0.08914916 -0.07305525 0.024164557 -0.033926476 -0.07104891 0.021851176
-0.054149915 -0.07120029 0.03742997 0.03681515 -0.028400123 -0.074058875 0.07022732 -0.036762506
0.27743727 0.17064646 0.20108311 0.11173012 0.20241642 0.28092977 0.18119046 0.16990498
0.34294 0.17709361 0.2632987 0.25717324 0.15875602 0.2153898 0.18587425 0.1660557
0.2622007 0.29741216 0.32688752 0.24168564 0.07285316 0.21812677 0.307972 0.32540432
0.17314129 0.1155234 0.2549871 0.08830323 0.20628776 0.11931751 0.021208642 0.1490382
0.3102349 0.085783735 0.29902086 0.1724734 0.20356233 0.15660319 0.35034516 0.15631798
0.28798643 0.19946033 0.3328216 0.14762342 0.2642266 0.077483974 0.3509189 0.23589775
0.24324502 0.20917733 0.24267639 -0.436625 0.18675873 0.086257406 0.24055013 0.24786678
0.23567358 0.32394952 -0.22406627 0.11376374 0.19318809 0.2629996 0.19680597 0.21389402
0.21571782 0.28897956 0.28951794 0.23850758 0.12585342 0.2847268 0.18395062 0.1850399
0.076059714 0.32337344 0.22114688 0.09960924 0.24205866 0.2526691 0.27421805 0.20800956
0.36245593 0.14218701 0.03938104 -0.36923784 0.058356747 0.12945424 0.18154626 0.23523386
0.33043054 0.2823469 0.08802224 0.32123962 0.11636446 0.2544074 0.28452834 0.28599632
0.222405 0.13221851 -0.032078575 0.116555095 0.088875175 0.07049995 0.24801666 0.30861205
0.0052267364 0.25857645 0.26674223 0.22464907 0.22938572 0.21715839 0.3881899 0.22986841
0.36869147 0.2597881 0.1708258 0.0954175 0.27933198 0.2491335 0.17138366 0.36591366
0.38867918 -0.02134681 0.19102281 0.32089368 0.31724903 0.23904105 0.23407371 0.21476509

model.2.bias f4 [64]
00000000: df99 8c3d ffda a23e f474 993e 36b4 b43e
00000010: 306a b6bd fa88 bf3e f951 673b 952c 42be
00000020: 22c1 563e b1ea 9ebc 6ced 543e 0664 923e
00000030: c041 923e 800e 933e a200 cdbc f1cd 533e
00000040: 5cf4 2fbc 1d10 823e b95c 7b3c 212e 773d
00000050: 2f45 be3e d4bc af3e 4619 8ebc cd56 4ebd
00000060: fe77 aa3e cd47 acbd cad6 843e b7c9 093d
00000070: 2c76 7a3e e810 813e 5004 84bc 5d19 503e
00000080: d3cd 563e 9213 783e a8c1 38bd 784b bb3b
00000090: 603c 033b 60ad 593e f952 cfbd 3205 7d3e
000000a0: 5df3 dabd 4712 553e 98aa de3c d7ea 5c3e
000000b0: c86b 95be 1daa 823e 0c49 873e 4211 743e
000000c0: 36e4 213d ff0a 73bd e2d9 63bd 579a 513e
000000d0: 3bb0 ac3e 609b 9a3e 1c04 babd d78a d0bc
000000e0: 1a30 3b3e dedf 94bd 64c8 913e 4ce4 5abb
000000f0: 02d0 8d3d b8aa 583e 94b5 953e 9768 473e
0.06865286 0.31807706 0.2997204 0.3529374 -0.089069724 0.37409192 0.0035296662 -0.18962319
0.20972112 -0.019399019 0.20793694 0.28591937 0.28565788 0.28722 -0.025024716 0.20684029
-0.010739412 0.25402918 0.015341931 0.060346726 0.37162158 0.34323752 -0.017346036 -0.05037575
0.33294672 -0.084121324 0.2594512 0.033639636 0.24459141 0.2520821 -0.016115338 0.20322175
0.20976953 0.24226215 -0.04510656 0.0057157837 0.0020025 0.21257544 -0.10123248 0.24709013
-0.10690949 0.20807754 0.027180955 0.2157396 -0.29183793 0.2552041 0.26422918 0.23834708
0.03952428 -0.05933666 -0.05562771 0.20469032 0.33728203 0.30196667 -0.09082815 -0.025456829
0.18280068 -0.07269262 0.28473198 -0.0033400236 0.0692444 0.21158874 0.29240096 0.19473492

model.4.weight f4 [1, 64]
00000000: 87f8 26bd 0e5b 8c3e 2209 8e3e 05df 833e
00000010: a4f4 a5bd 3fd5 903e d3ec a2bd 9e0b 50bf
00000020: a810 aa3e 3c77 23bd 2dc4 8d3e a6bc 9a3e
00000030: 0d32 913e 2e14 b63e 1395 29bf 2e8c 9b3e
00000040: 7f71 5fbc 5d2b ac3e 674e 97bd 49cf 9cbd
00000050: 607c 853e dc0b aa3e 174a b0bc 737f 7bbc
00000060: 27a2 8e3e b248 d0bd ef01 9c3e 98ea 78bd
00000070: f7be a03e 4313 993e 856c 1cbc 6f17 a73e
00000080: 9f1f a63e a59e ae3e 8d85 01bf 9634 9bbd
00000090: 2fc4 d9bd bfa6 ab3e 8578 61bd 2349 9d3e
000000a0: 8e8c 2abf 88ee a53e 8a0a 8a39 35d2 993e
000000b0: f849 6abf 154f 8e3e ac9b b03e 12b5 9d3e
000000c0: 50fd 75bd 44aa b0bd 72f4 73bc 6d03 57bf
000000d0: 77e0 883e 7d7c 973e b312 d4bd 6c7a 74bd
000000e0: 1dbf bb3e ef49 e4bc 8c7a 8f3e 033f babb
000000f0: 234f 94bd 4fb8 a73e 877f be3e 6421 a83e
-0.040764358 0.2741322 0.27741343 0.25756088 -0.08103302 0.28287694 -0.07955327 -0.81267726
0.33215833 -0.039908633 0.27688733 0.30222052 0.28358498 0.3556227 -0.66243094 0.30380386
-0.013637899 0.33626834 -0.07388001 -0.07656724 0.26071453 0.33212173 -0.021519704 -0.0153502105
0.27858087 -0.101701155 0.30470225 -0.0607706 0.31395695 0.29897508 -0.009547357 0.32635066
0.32446 0.3410541 -0.5059441 -0.07578389 -0.10633122 0.33525655 -0.055046577 0.3071986
-0.6662072 0.32408547 0.00026329263 0.30043188 -0.9151912 0.2779471 0.34493768 0.30802208
-0.06005603 -0.086262256 -0.014889823 -0.839896 0.26733753 0.29587165 -0.10355129 -0.059687063
0.36669245 -0.027867286 0.28023183 -0.005683781 -0.07241657 0.32757804 0.3720667 0.32837975
