pk_adv.pth (torch, 39625 bytes, 5 tensors)

model.0.weight f4 [128, 6]
000000 3b 54 6a 3e c8 2d 96 3c 9f 39 b3 3e 9c 52 41 bb
       0.22883694 0.018332377 0.350049 -0.0029498702
000010 59 de de bc 5e 52 3d 3c c8 ca 03 3f 91 93 4d 3b
       -0.027205633 0.011555282 0.51481295 0.0031368474
000020 08 0b 96 3e b8 a0 2e be 4a 1c 8d be 0f ff 42 be
       0.2930529 -0.17053497 -0.27560645 -0.1904261
000030 b4 e4 e1 bd 9d 10 97 3e 74 3f 82 3e 88 2b 8c be
       -0.1102995 0.29504862 0.25439036 -0.27376962
000040 3c 01 85 bd 90 da 91 3d b3 f1 cd bd 77 35 31 3e
       -0.06494376 0.071217656 -0.10055866 0.17305551
000050 b2 d6 2f 3f a5 9b 32 3e 42 77 53 bb 75 19 ae be
       0.68686974 0.17442186 -0.0032267128 -0.34003797
000060 9c 29 a7 be a1 ab 82 3e 01 67 30 3d 98 3f b2 be
       -0.32648933 0.25521567 0.043066982 -0.34814143
000070 de 29 6e 3e 3d dd 2f bf e9 c8 04 3e 13 32 3b bd
       0.23258159 -0.6869696 0.12967266 -0.04570205
000080 8a c0 97 3e a9 0f 82 be 25 96 be be 31 86 4e be
       0.29639083 -0.25402573 -0.37223926 -0.20168377
000090 16 b6 cd 3e 0d 45 08 3d 28 b2 d1 3e e0 57 4f bd
       0.40177983 0.033268977 0.40956235 -0.050620914
0000a0 40 9c 56 be 11 df bf be f8 69 c7 3d 64 84 06 3f
       -0.20958042 -0.37474874 0.09737009 0.5254576
0000b0 20 be 8b 3e 79 bf af 3c 80 07 02 3e de a9 b8 3d
       0.2729349 0.021453606 0.12698174 0.090167746
0000c0 e1 de 2b 3e ce fd 0c 3f 10 12 0c bd 1c ce 51 3c
       0.1678424 0.55074775 -0.034196913 0.012805488
0000d0 2b 81 92 3b b2 23 3f 3f 9c 57 c6 be af 7f 3a 3e
       0.0044709644 0.7466384 -0.38738716 0.1821277
0000e0 1f 22 9e 3e 24 29 c5 be f1 b3 fb 3d a0 b7 07 bf
       0.30885407 -0.3850795 0.122901805 -0.53014565
0000f0 de 9b ae 3e cc 4f 16 3f 1c 55 cb 3e 1d 98 4a be
       0.34103292 0.5871551 0.3971337 -0.19784589
000100 15 49 91 be f4 9e 13 3e 7c 52 78 be 77 16 9f 3e
       -0.2837607 0.14416105 -0.24250215 0.31071827
000110 0d 35 b2 3e b8 43 b8 3c 75 7d 64 3d a0 28 57 3e
       0.348061 0.022493228 0.055783708 0.21011591
000120 20 e3 9b 3e 2f 6f cd 3b 41 41 ce 3b 55 6c ec be
       0.3044672 0.0062693576 0.0062944 -0.461764
000130 00 7b 06 3e c7 63 84 be ed 9a ac 3d 22 13 cb 3d
       0.13132858 -0.25857374 0.08427987 0.09915759
000140 81 11 47 bd 6e 3a f0 3e 8e 3a a5 be 06 6f 4f bf
       -0.048600677 0.46919578 -0.32271236 -0.81028783
000150 8f 93 02 3e eb 13 d2 3e 74 02 a8 3d f3 03 94 3e
       0.12751602 0.4103082 0.08203593 0.28909263
000160 ce 12 bf 3d 80 95 0c bf ff c7 f1 3c 57 af 95 3e
       0.093297586 -0.5491562 0.02951431 0.29235336
000170 4e 12 b6 3e 64 46 cb bc 64 cb ff 3d 95 00 15 bd
       0.3556084 -0.024813838 0.124899656 -0.03637751
000180 cd 97 8e be fd 67 0a 3e 12 d2 c8 3e ef e0 62 3e
       -0.2785019 0.13516231 0.3922277 0.22156118
000190 a0 01 b7 3d 2f af 9b 3e 6e 6f c6 3d fc 8b 39 3e
       0.08935857 0.30407092 0.09689222 0.18119806
0001a0 5a 01 63 bd c3 9e 54 be 8c 95 98 3e 92 4e 13 bf
       -0.05542121 -0.20763688 0.29801595 -0.57541764
0001b0 e9 0d 8e bd 5a ba 79 3e 9e 2f 20 3f 91 76 20 be
       -0.06936247 0.24387494 0.6257266 -0.1567023
0001c0 a9 6f 0b 3e 03 6b 90 be 1a 9d c3 be 00 db d9 3e
       0.13616814 -0.28206643 -0.38205796 0.42549896
0001d0 be d0 04 3e b9 fc f3 bd 60 dd c1 3e 81 8e 01 bf
       0.12970254 -0.119134374 0.37864208 -0.5060807
0001e0 2c 35 87 3e 2d 48 3e 3e 37 3f f6 3d 83 04 5b bd
       0.26407754 0.1858222 0.12023776 -0.0534711
0001f0 17 3f bd 3e 7d 29 b1 be 0f a4 e2 be 41 99 2b 3e
       0.36962196 -0.34601966 -0.44265792 0.1675768
000200 98 d4 e1 3e be 56 b9 3e cc a4 7e 3c ec 99 d5 3e
       0.4410751 0.36198992 0.01554222 0.41718996
000210 a3 12 49 3e d6 97 a1 3e 7f 93 a5 bd a4 37 83 3d
       0.19636016 0.31561154 -0.08084773 0.06407097
000220 da c0 b7 3e 51 1f 4c 3f 40 7e db be fe 41 40 3e
       0.35889322 0.79735285 -0.4286976 0.18775174
000230 a2 54 36 3d e6 79 d4 be 05 6f 9d be 78 20 02 3f
       0.044514306 -0.4149925 -0.30748764 0.50830793
000240 9b a8 ee be 68 0f 8d be a5 e5 12 3e 23 05 98 3e
       -0.4661301 -0.27550817 0.14345415 0.2969142
000250 b7 28 89 3e 91 0b 27 bf fc 49 ea bd ea 5c f1 3d
       0.26788875 -0.65252024 -0.11439893 0.117853
000260 ad 0f 03 bd b9 c8 98 be 67 c8 49 be a3 d1 22 3f
       -0.03199737 -0.2984064 -0.19705354 0.6360113
000270 22 31 e0 3e bd 07 d6 3b b2 3f 30 3e 4c 68 b7 3e
       0.43787485 0.006531684 0.17211798 0.3582176
000280 48 95 7f 3e 87 d1 38 3f a2 20 a7 be ab 47 3a 3e
       0.2495929 0.72194713 -0.32642084 0.18191402
000290 fb c7 07 3f 70 dc 2f 3e 61 1f 10 3e d9 ac 01 bf
       0.5303952 0.17173934 0.1407447 -0.5065437
0002a0 13 de 03 be 67 0a 6e 3e 22 40 30 3f 52 8f c8 be
       -0.12877683 0.23246156 0.6884786 -0.39171845
0002b0 1b d6 5c be 4b 98 60 be 0c a0 23 be 27 a1 56 3e
       -0.2156605 -0.21933095 -0.15979022 0.20959912
0002c0 bf f9 36 3f 4d 3d dc 3d 3a 5f c7 3d 74 14 fb b9
       0.7147483 0.1075388 0.0973496 -0.0004788969
0002d0 e5 0a 47 3c d7 b7 c7 bd e3 04 27 3f e4 5e 8b 3e
       0.012148594 -0.097518615 0.6524183 0.27220833
0002e0 60 db 6c 3e 10 01 c8 3e 75 98 48 3e b9 5e a8 3e
       0.2313056 0.3906331 0.19589408 0.32884768
0002f0 73 f0 e4 bc dd 9b 87 3e ba 8d 5a bd 0a 89 b2 3e
       -0.027946686 0.26486102 -0.053357817 0.34870178
000300 1e 27 cf bd 89 f0 aa 3e 83 d8 96 3e 5e 0c 90 bc
       -0.10114883 0.3338664 0.2946206 -0.017584022
000310 d7 1d 5b 3e 07 8e 56 be 05 6d 53 3e aa eb 4c 3e
       0.21398102 -0.20952617 0.20647056 0.20011774
000320 07 b9 9f bd ea ea b6 3e 32 85 89 3e f5 ea 99 3e
       -0.07798963 0.357261 0.26859432 0.3006207
000330 08 9f a5 3e 8d 2e 37 be 3f 5b 2e 3f fc 2d ce be
       0.32347894 -0.17888851 0.6810798 -0.40269458
000340 1c 37 f4 3d 2f 88 0c 3f 70 23 94 3e 29 68 14 3f
       0.11924574 0.548953 0.28933287 0.57971436
000350 d4 8a 40 3e 3c 03 00 be 71 f4 b3 bb 5a 7b 25 3f
       0.18802959 -0.12501234 -0.005491786 0.64641345
000360 a0 3f fe 3c 3c 89 17 3f 18 82 d7 bd b2 4e 4e be
       0.031036198 0.5919378 -0.1052286 -0.20147207
000370 67 f2 d1 bd ad 23 9f 3e 3e 06 be 3d 27 43 19 3f
       -0.10251313 0.31081906 0.09278534 0.5986809
000380 09 2b 6e 3c 85 cc c8 3d 9a 3e 6f be 2c 46 92 3e
       0.014536628 0.09804634 -0.23363724 0.28569162
000390 75 9b e5 3c 00 a0 c4 3e d0 40 de 3e f9 96 c8 3d
       0.02802823 0.3840332 0.43408823 0.09794421
0003a0 6e 46 31 3e 2c 87 cc be 44 18 9c 3e d3 c6 73 3e
       0.17312023 -0.39946878 0.30487263 0.23806314
0003b0 12 e0 c1 3e 75 b7 96 bd 0e 06 d8 3e d4 93 82 3e
       0.37866265 -0.073592104 0.4219212 0.2550341
0003c0 d1 2e 0b 3f ea ee db 3e 43 d4 18 be 26 0d 05 bf
       0.5436831 0.42955714 -0.14924721 -0.5197319
0003d0 1f 9b f6 3e c8 11 85 be ed 8c 53 3c 0d 9e de 3e
       0.48165223 -0.2599013 0.012912017 0.43479958
0003e0 58 ad b0 3e 14 8a 4e be 97 f8 e3 bc d4 2f b1 3e
       0.3450725 -0.2016986 -0.027828498 0.34606802
0003f0 cd 87 90 be 49 f6 b0 3e df f7 80 3c 98 5c 82 bd
       -0.28228608 0.345629 0.015743194 -0.06365317

model.0.bias f4 [128]
000000 88 00 24 3f 77 0f 61 3e 31 fd 48 3f b6 0c 7f 3e
       0.6406331 0.21978556 0.7851134 0.24907193
000010 b0 c7 a2 3d 28 ea 51 3f cc 67 39 3f b8 cb 3c 3f
       0.079482436 0.8199792 0.72424006 0.7374835
000020 55 28 b5 3d 0e d7 4f 3e 25 75 de 3e d0 89 39 3f
       0.08845583 0.2029688 0.4344875 0.7247591
000030 9a 2e 13 be 92 08 0a 3e 1c a5 b8 3e 85 75 b4 3e
       -0.14373246 0.13479832 0.36063468 0.3524591
000040 13 ad 7a bb 1a 17 de 3e 6f cb dd 3d 5e 54 b2 3d
       -0.0038250133 0.43377 0.108298175 0.08707498
000050 15 46 94 3e 82 89 76 3c e7 ef a7 bd fe c0 0b 3f
       0.28959718 0.015047433 -0.082000546 0.5459136
000060 d2 85 04 3f 5d 2a 09 3f 70 5d 32 bd 63 ad 5a 3e
       0.51766694 0.53580266 -0.04354614 0.21355204
000070 15 ea 7c 3c f2 14 8f 3e bd 83 45 3f a4 7e 22 3f
       0.015436669 0.27945668 0.7715414 0.6347449
000080 90 2e 2c 3f 4d 0a 16 3f 77 0c ec 3e 09 d7 54 3e
       0.6725855 0.5860947 0.4610326 0.20785154
000090 66 fb dc 3e 21 f2 eb 3e bb e1 f5 3d 9b d4 7e 3e
       0.43160552 0.46083167 0.12005945 0.2488579
0000a0 dd d6 c8 bc 92 87 40 3e 59 e5 03 3f 65 76 98 bd
       -0.024516517 0.18801716 0.5152183 -0.07444457
0000b0 4a d4 94 3e 0b 26 a8 3d 8c c9 11 3f cc 54 2f bd
       0.29068214 0.08210381 0.5694816 -0.042805478
0000c0 90 75 04 3f 44 81 c8 3d bf 6a d0 3d 45 59 de 3e
       0.51741886 0.097902805 0.1017661 0.43427482
0000d0 31 6b c1 3e 76 24 38 3d dc 95 db 3d 0c ab cd 3e
       0.37777093 0.044956647 0.10721943 0.4016956
0000e0 12 2d 89 3e 93 a9 15 3f fe 0d 04 3f c5 d3 c4 3e
       0.26792198 0.58461875 0.5158385 0.38442817
0000f0 74 9e d8 3e 0a f8 07 3f 4c eb c3 3e c6 76 c2 3e
       0.4230839 0.5311285 0.38265455 0.37981242
000100 dc e0 bc 3e 9e 95 40 3e 4a 57 01 3f 44 47 23 3f
       0.36890304 0.18807074 0.5052382 0.6378062
000110 b7 df 05 bd d5 e6 e9 3e a6 4a 11 3e cf 71 ac 3d
       -0.032684054 0.45683923 0.14188632 0.08420145
000120 30 bb 16 3e 2c a9 6a 3d 20 40 20 3e ad ab 3c 3e
       0.14719844 0.05729024 0.15649462 0.18424864
000130 27 64 34 3c 81 74 02 be cc 0b 5b 3e c5 09 cf 3e
       0.011010206 -0.12739755 0.21391219 0.4043714
000140 31 9b 06 3f b4 58 e4 3e 07 c9 0f 3f c3 a6 2a 3e
       0.52580553 0.44598925 0.5616612 0.16665177
000150 62 c7 ff 3d b4 15 dd 3e 8b cf 2b 3e ff 8e 27 be
       0.12489201 0.4318062 0.1677839 -0.16363142
000160 3c ce ad 3e d6 4e 1f 3f 66 1a 0a 3f 41 06 41 3d
       0.33946407 0.6222967 0.5394653 0.047125105
000170 cc fc 0c 3f a3 2d 06 3f 57 07 e1 3d d2 38 85 3e
       0.5507324 0.52413386 0.10987728 0.26019913
000180 c9 56 fd 3e 8a 05 1a 3f a6 60 d9 3e 92 f5 fb 3e
       0.49480274 0.601647 0.4245655 0.49210793
000190 aa ba 33 3f 6c fb 5b 3e 3f 81 92 3d 32 cb 3d 3f
       0.702067 0.21482629 0.07153558 0.74138176
0001a0 23 4d d5 3e b5 b1 28 3f d5 ec 46 3f 69 3e a5 3e
       0.41660413 0.6589616 0.77705127 0.32274178
0001b0 05 46 1c 3f f1 19 3f 3f db e3 cf 3e 89 11 9b 3e
       0.6104434 0.7464896 0.40603527 0.30286816
0001c0 f0 55 2a 3f 1f 50 e2 3d a7 03 33 3e f5 b0 c6 3d
       0.6653738 0.11050438 0.17481862 0.097017206
0001d0 ce a9 2d 3f 8f 9c 09 3e e7 bb 90 bc ba 12 06 3f
       0.67837226 0.13438629 -0.017667724 0.52372324
0001e0 23 91 b5 3e ea c6 e9 3e 2e bf 3e 3a 33 02 3c 3f
       0.35462293 0.45659572 0.0007276413 0.73440856
0001f0 b2 ca 3c 3d 0b 92 b3 3e b7 40 8b 3e 5f 28 72 3d
       0.046091743 0.3507236 0.2719781 0.059120532

model.2.weight f4 [64, 128]
000000 21 f7 98 bd 73 c0 d1 bb 90 37 ee 3c 14 a8 0e bd
       -0.07469011 -0.0064011156 0.029079229 -0.03482826
000010 86 49 18 bb 63 17 02 3c 66 71 b9 bd be fa 02 3d
       -0.0023237183 0.007940146 -0.09054832 0.031977408
000020 01 73 13 bd 8d f5 59 3d 16 d2 ad bd 79 1c 86 bd
       -0.03599835 0.05321269 -0.08487336 -0.065483995
000030 6c f9 02 3d 7d e4 5a 3d 42 e8 83 3d d8 cd a9 bd
       0.03197615 0.05344056 0.06440784 -0.08291215
000040 9d 82 3b bd c7 56 97 bd 07 ab 25 3c ed c0 8c 3d
       -0.04577886 -0.07389598 0.010111577 0.06872735
000050 dc a8 a4 3d 78 f7 32 3d 3f 13 f4 bc 1a a7 8c 3d
       0.0804002 0.043693036 -0.029794334 0.068678096
000060 bf 42 20 3c b1 a7 24 3b 4e c3 c0 bd c5 72 eb 3c
       0.0097815385 0.0025124366 -0.094122514 0.02874125
000070 5c 8b 71 bd 80 db 93 3c f8 55 a9 bd c1 42 29 bc
       -0.058970794 0.018049002 -0.0826835 -0.010330857
000080 b2 17 82 bd 7b 78 34 3d 9c eb 09 bd bf 16 44 bb
       -0.06352176 0.04406021 -0.03367196 -0.0029920784
000090 c5 d3 96 3b 39 1e ae bc f5 d9 18 3d b4 f2 c2 bc
       0.0046028816 -0.021254646 0.037317235 -0.02379737
0000a0 61 cf fd 3c 97 77 b9 bc ff 72 67 3d ac d4 9e 3c
       0.030982675 -0.022640033 0.056506153 0.01938852
0000b0 41 1e ba bd d2 e8 8e bc ae c7 b4 bd b2 39 a1 3d
       -0.09087802 -0.017445002 -0.088271484 0.07872333
0000c0 af bd 85 bd 8f d1 9c bd 8c 1a a8 3d c4 40 38 bd
       -0.0653032 -0.07657158 0.082081884 -0.04498364
0000d0 0e 65 81 bd d9 aa 97 bd b3 db a2 bd 36 04 1f bd
       -0.06318103 -0.074056335 -0.079520606 -0.038822375
0000e0 c5 9f 34 3d 50 d4 d6 bb ab da 95 3d 98 e2 0f bd
       0.04409768 -0.0065560713 0.07317098 -0.035128206
0000f0 b8 ff 6e bd 6b 1b 96 bd cd 8e 18 bd 4b 97 84 bc
       -0.05834934 -0.07329448 -0.03724556 -0.016185423
000100 c6 b3 bf bc 29 c3 71 bd fe d9 b7 bd f0 73 cf bc
       -0.023401152 -0.05902401 -0.089771256 -0.025323838
000110 77 0f 84 3d dd 6b 9f bd 49 31 91 bd 1f d1 94 bd
       0.06448262 -0.07784245 -0.070894785 -0.07266449
000120 7e 2c ee bc 26 ea 9b bd 52 d9 5b bd 01 99 70 bd
       -0.02907395 -0.0761302 -0.05367405 -0.058739666
000130 cb 03 bc bd 4d 2d 82 bc 9f de 47 3d ec 9a 5a 3d
       -0.09180411 -0.015890742 0.048796292 0.0533704
000140 2c fb c0 bd 01 2b 4f 3d 9f 9d 86 bb 20 97 52 bd
       -0.09422907 0.05057812 -0.0041081454 -0.051413655
000150 24 f4 ee bc 6f fd 21 bd 05 d8 a8 bd f2 ef 2f 3d
       -0.02916915 -0.039548334 -0.082443275 0.04295344
000160 16 72 af bd ee 21 25 3d 68 72 21 bd f1 a8 a1 bc
       -0.08566682 0.04031556 -0.039415747 -0.019733878
000170 63 5f 09 bd aa 54 97 bd 0d 2d aa bc 3a a3 45 3d
       -0.033538233 -0.07389195 -0.020773435 0.048251368
000180 94 5e 06 3c a2 09 05 bd ed fa 88 3d 0f 36 95 bd
       0.00820126 -0.03247989 0.06688485 -0.072857015
000190 77 24 a6 bb 2c 9c c8 3c 16 ae 23 bb 91 cd 38 3d
       -0.005070265 0.024488531 -0.002497559 0.04511792
0001a0 df a8 30 3d d0 09 52 bd f0 b6 ca 3c 8f c7 58 bc
       0.043129798 -0.05127889 0.024745435 -0.013231172
0001b0 2a 4b 85 3d 4f 08 97 3d 91 19 a9 bd dc 69 9a 3d
       0.06508477 0.073746316 -0.082568295 0.07539722
0001c0 36 59 18 3c b7 f9 25 bb 7d 2a 41 bd cc c3 45 3d
       0.009298613 -0.0025325844 -0.04715966 0.04828243
0001d0 9a 1e 9f bb b6 04 3b 3d 49 76 32 3d 0b 47 ab bd
       -0.004855943 0.04565879 0.043569837 -0.0836316
0001e0 91 79 9e 3c c1 c9 9f 3d 8d 74 b5 bd 50 91 6a 3d
       0.019345077 0.078021534 -0.08860121 0.057267487
0001f0 6b 00 46 bc 8f 72 ae 3d 5e 7d e1 3a a5 ed 8f bd
       -0.012085061 0.08517944 0.00172035 -0.07027749
000200 20 55 8a 3e d2 64 27 3e 60 f4 9c 3e 9f b2 9c 3e
       0.2701807 0.16347054 0.30655193 0.30605027
000210 95 c3 85 3e 3d a0 8d 3e 31 94 b4 3e 46 bc a8 3e
       0.2612578 0.27661315 0.3526931 0.3295614
000220 f5 18 dd 3d 26 c7 25 3e 4f 4f 5e 3e 73 a3 91 3e
       0.10795776 0.1618925 0.21709941 0.28445014
000230 4c 4d 64 3d 39 ac 06 3e d5 b7 94 3e 3c ee 4c 3e
       0.05573778 0.13151635 0.29046503 0.20012754
000240 95 fd 36 3e 6e 19 57 3e f2 f7 8c 3e 98 19 7e 3e
       0.17870171 0.21005794 0.27532917 0.2481445
000250 ff 0c 73 3e cd e4 4a 3e 86 f8 8f 3e b6 01 4f 3e
       0.23735426 0.19813843 0.28119296 0.20215496
000260 47 13 b3 3d a1 2d 92 3e f2 1c 31 3e 27 e7 4f 3e
       0.08743911 0.28550437 0.17296198 0.20303021
000270 3f a3 91 3e 53 8b 3f 3e c6 74 7f 3e d7 af 44 3e
       0.2844486 0.18705492 0.2494689 0.19207703
000280 48 9b 62 3e 5c e2 5b 3e af 99 9f 3e c8 0f d3 3d
       0.22129548 0.21473068 0.3117194 0.103057444
000290 9c 2f 88 3e e1 97 30 3e ca 51 8e 3e 3f f2 60 3e
       0.26598823 0.17245437 0.27796775 0.2196741
0002a0 f6 d9 fc 3c ec 7a 99 3e b4 27 23 3e d0 b8 52 3e
       0.03086565 0.29976594 0.15933114 0.20578313
0002b0 7e 6c 46 3e a4 40 0d 3e d6 0a 63 3e f8 56 50 3e
       0.19377324 0.1379419 0.22172102 0.20345676
0002c0 36 9d 58 3e 55 3a 19 be d3 70 a9 3d 75 22 5c 3e
       0.21153721 -0.14963658 0.08273473 0.2149752
0002d0 a2 7d 8f 3e 15 e2 24 3e ac 95 3b 3d 04 a4 43 3e
       0.28025538 0.16101868 0.045797035 0.19105536
0002e0 34 e6 16 3e c6 4d 88 3e fb d9 5e 3e f7 af 73 3e
       0.14736253 0.26621836 0.2176284 0.23797594
0002f0 56 61 98 3e 53 b7 5d 3e 6a 53 75 3e ea fd 67 3e
       0.2976176 0.21651964 0.23957601 0.22655454
000300 37 e9 8d 3e 78 28 73 3e 18 1f ac 3e ce e7 48 3e
       0.2771699 0.23745906 0.33617473 0.19619676
000310 8c 9e 8b 3e 2e b6 63 3e 81 c4 22 3e 1e c0 81 3e
       0.272694 0.22237465 0.15895273 0.25341886
000320 b8 84 30 3e 54 09 25 3e 70 13 89 3e 63 3a 89 3e
       0.17238128 0.1611684 0.26772642 0.26802358
000330 f5 60 82 3d b9 fe db 3d 85 2d 1f 3e 09 41 65 3e
       0.06366149 0.10741944 0.15544708 0.2238809
000340 43 3b 65 3e f0 e3 95 3e 2a 76 9c 3e 36 b1 22 3e
       0.22385888 0.29275465 0.30558902 0.15887913
000350 22 70 00 be 1a 98 4f 3e 8f f1 45 3e f2 86 82 3d
       -0.12542775 0.20272866 0.19330429 0.06373395
000360 67 29 52 3e e6 27 4d 3e 72 fb 64 3e 5b c5 47 3e
       0.20523606 0.20034751 0.22361544 0.19508879
000370 c7 dc 75 3e 3d dc 74 3e 75 0e 17 3e 20 9b 8d 3e
       0.24010001 0.23912139 0.14751609 0.27657413
000380 0d 08 89 3e a6 c8 6b 3e 60 a2 6b 3e 6e 77 8d 3e
       0.26763955 0.2302576 0.2301116 0.2763018
000390 75 fa 74 3e 08 06 f1 3d c4 d5 73 3e dd a6 ab 3e
       0.23923667 0.117687285 0.23812014 0.33525744
0003a0 37 94 7d 3e b3 2f a3 3e 7c 80 89 3e 33 60 37 3e
       0.2476357 0.3187233 0.26855838 0.17907791
0003b0 cf 74 46 3e 68 76 8e 3e 6e 5d 8c 3e 06 24 3d 3e
       0.19380496 0.27824712 0.2741503 0.18470773
0003c0 a6 94 b5 3e 6a bb d4 bd a6 0e ae 3d cd a7 41 3e
       0.35464972 -0.10387309 0.08498888 0.18911667
0003d0 b7 be 62 3e 99 44 c2 3d 91 c3 5b 3e 91 e0 6c 3e
       0.22143064 0.0948574 0.21461321 0.2313254
0003e0 a1 aa 81 3e 40 d7 38 3e 37 f8 95 3e c6 92 88 3e
       0.25325492 0.18050861 0.29290935 0.2667448
0003f0 99 f6 c7 3d e1 5b a0 3e 1f 0b 57 3e c2 34 55 be
       0.09763832 0.31320098 0.21000336 -0.20820907

model.2.bias f4 [64]
000000 d4 d8 11 bd 64 d4 70 3e 75 ea d3 3e a4 91 61 3e
       -0.035607174 0.2351852 0.41389814 0.22028214
000010 28 ce aa 3e df e7 f3 bd b1 41 b8 3e 03 da 49 3e
       0.3336041 -0.1190946 0.3598762 0.19712071
000020 fc bc 9d 3e cf e0 6a 3a b3 90 b5 3e cb 9d a4 3e
       0.30808246 0.00089598907 0.3546196 0.32151636
000030 62 18 a4 3d a8 96 36 3e ef ab 89 bd 11 4e be bd
       0.08012463 0.17830908 -0.06722247 -0.09292234
000040 26 c6 3a 3e 32 d2 99 3e b3 35 04 3e a7 49 82 bd
       0.1823965 0.3004318 0.1291111 -0.06361704
000050 1f 0e 5a 3e fe 06 20 3d 2a e3 88 3e a1 45 ac 3e
       0.2129445 0.03906917 0.26735812 0.33646873
000060 62 0d 87 3e 6f a1 65 3c d7 80 7b 3e f5 b2 40 3e
       0.26377398 0.01401554 0.24560867 0.18818267
000070 0a 98 bb 3e 2a c7 98 3e f2 e8 65 3e d1 22 b3 bd
       0.36639434 0.2983945 0.22452143 -0.08746875
000080 89 01 e9 3c d3 8a 89 bd 21 a9 a0 3e ac 82 a9 3e
       0.028443115 -0.06715932 0.31379035 0.33107507
000090 c5 8f 8d 3e 07 56 e2 3e 57 02 72 3e cb 3a b4 3c
       0.2764875 0.4420626 0.23633705 0.02200069
0000a0 28 ed 1e b9 97 29 8f 3e e3 07 e8 3c bf 83 0c 3e
       -0.00015156402 0.27961418 0.028324073 0.13722132
0000b0 03 3b e6 3e 19 c3 4f 3e 7f 87 75 3e 54 67 4e 3e
       0.44966897 0.20289268 0.23977469 0.20156604
0000c0 c1 8e 87 3e 99 57 63 3e e5 1a b2 3e 3b b5 93 3e
       0.264761 0.22201385 0.34786144 0.28849205
0000d0 5b 5b 83 3e 43 4f 8e 3e cf bf 57 bd d4 d0 a5 3e
       0.25655636 0.27794847 -0.052673157 0.32385886
0000e0 90 1e 00 3e a9 8c 92 3e 38 74 a1 3e c8 30 2a bd
       0.12511659 0.2862294 0.3153398 -0.041550428
0000f0 ce a2 a5 3e 7b 11 a5 bd 8f 47 63 3e 44 e1 61 bd
       0.32350773 -0.08059975 0.22195266 -0.05514647

model.4.weight f4 [1, 64]
000000 b0 63 88 bd 94 7e b2 3e 1d 94 0e bf 54 5b ad 3e
       -0.06659639 0.34862196 -0.5569475 0.3385874
000010 d1 d7 c8 3e df 5a f9 be 94 b7 a0 3e ee e8 a3 3e
       0.39227155 -0.48702142 0.3139006 0.3201365
000020 7f b4 2c bf 5c 50 3d bd 4c b7 90 3e 02 04 b8 3e
       -0.67462915 -0.046219215 0.28264844 0.35940558
000030 05 c8 ff be 3a e0 4d bf 9c a9 9f bd 8c b1 2d ba
       -0.4995729 -0.8042027 -0.07796022 -0.0006625883
000040 a3 ac ac 3e ef 39 a7 3e c2 48 12 bf d6 0f 89 bd
       0.3372546 0.32661387 -0.5714227 -0.066924736
000050 69 6b b2 3e fb 82 f7 be 94 a7 c6 3e c8 08 c5 3e
       0.34847572 -0.48342118 0.38799727 0.38483262
000060 6e ee bf 3e d8 e3 fd bc 3f 02 46 bf 86 00 74 3e
       0.37486595 -0.030992433 -0.7734718 0.23828325
000070 12 9e 26 bf 03 b9 c4 3e 9d 61 1b bf a7 f2 e0 bb
       -0.65084946 0.38422403 -0.6069582 -0.006864864
000080 48 25 95 bd 40 54 ad bd fb 59 9b 3e f2 1d a6 3e
       -0.072825015 -0.08463335 0.30342087 0.3244472
000090 49 ea c1 3e 30 06 42 bf 13 75 c1 3e 33 33 70 bd
       0.37874058 -0.7579069 0.37784633 -0.058642577
0000a0 90 c1 81 bd 39 66 9b 3e 74 cd d5 bd 84 00 db be
       -0.06335747 0.30351427 -0.10439578 -0.4277383
0000b0 c0 49 3e bf 0f f0 38 bf 65 c5 a2 3e f9 99 af 3e
       -0.74331284 -0.722413 0.31791225 0.3429716
0000c0 c9 7b a8 3e 7e a9 15 bf bb 11 af 3e f8 73 a5 3e
       0.3290694 -0.5846175 0.34193215 0.3231504
0000d0 ef 0e c3 3e cc 41 37 bf 01 ff 9d bd 1b c6 89 3e
       0.3809733 -0.71584773 -0.07714654 0.26908955
0000e0 09 c4 d7 be c9 90 c2 3e 65 42 90 3e 0f 80 a3 bc
       -0.4214175 0.38001087 0.28175655 -0.019958524
0000f0 cc cf a9 3e d3 02 a7 bd 6c 53 97 3e f5 c6 ce bd
       0.3316635 -0.081548356 0.29555833 -0.10096542
