pk_adv.pth (torch, 39625 bytes, 5 tensors)

model.0.weight f4 [128, 6]
000000 55 c1 bc 3e ff e5 93 3e 23 28 6f bd c2 be f7 3d
       0.3686625 0.2888641 -0.058387887 0.12096931
000010 90 7b 02 3f 54 79 fe be 23 cc 8e be ff 22 e8 3e
       0.5096979 -0.4970194 -0.2789012 0.453392
000020 c3 26 0b 3f ea 1b 43 be c9 86 ab 3a c6 48 e9 3e
       0.5435602 -0.19053617 0.0013086434 0.45563334
000030 30 bb 50 3e 6c d0 1f 3e ef 32 ba 3d 05 7e b4 bc
       0.20383906 0.1560685 0.09091746 -0.022032747
000040 17 44 4b be fe 42 f0 be 9c c3 b6 bd 4d 14 11 3f
       -0.19850193 -0.4692611 -0.08924028 0.566716
000050 4b 09 37 3e 96 88 f1 bd a5 c0 13 3c 48 f3 44 3e
       0.17874639 -0.1179363 0.009018098 0.1923343
000060 ae 12 9a be 84 0b 9d 3e 55 7f 9b 3e 8f dc 75 bc
       -0.30092376 0.30672848 0.30370584 -0.015006199
000070 56 0c 3a 3e 05 cb bb be 24 6e 69 be 41 71 46 3e
       0.18168768 -0.3667833 -0.22795922 0.1937914
000080 48 f7 23 3e c5 ca ae 3d 13 48 73 be 79 f0 30 bd
       0.16012299 0.08534769 -0.23757963 -0.043198083
000090 f2 cd ae 3d 2f bb e7 3c e4 cf f1 3d 24 c3 ea bd
       0.08535375 0.028287498 0.1180723 -0.11463001
0000a0 0b ec ad be 04 b0 c7 be 7d 3a 2b be e5 e7 8f 3e
       -0.3396915 -0.39001477 -0.1672153 0.2810661
0000b0 3d bf 42 3f c0 87 47 3b 36 58 98 3c 09 a3 6c 3d
       0.76073056 0.0030445904 0.01859675 0.05777267
0000c0 2a c6 1a 3f 62 88 bb 3e a6 d3 3b be 0e b4 61 3e
       0.60458624 0.3662749 -0.18342456 0.22041342
0000d0 18 f4 a4 3e 67 0e ff 3e ca 76 5b be 5c fb f9 3e
       0.3221748 0.49815676 -0.21432033 0.48824584
0000e0 18 69 46 3e be 8e db bd e7 77 98 3d d3 11 a6 3e
       0.19376028 -0.10720585 0.074447446 0.32435474
0000f0 0b c7 2d 3e 1b 91 da 3e 91 f4 d2 3e 48 a2 d8 bd
       0.1697046 0.42688832 0.41202214 -0.10577828
000100 77 d8 e9 bd 21 8e 96 3e ba 7c 5a be 5a ae 05 3e
       -0.114182405 0.2940531 -0.21336642 0.13054791
000110 27 91 c5 3d 51 7b 75 3e 73 71 e1 be 62 9e ac 3e
       0.09646826 0.23972823 -0.44031867 0.33714586
000120 71 3f a6 3e 42 68 1b 3f f1 f6 99 bd 8d 4f 74 be
       0.32470277 0.6070596 -0.075178035 -0.23858471
000130 03 44 b4 3e a4 b2 9e 3d af f5 29 3e ef 3d 13 bd
       0.3520814 0.07748917 0.16597627 -0.035947736
000140 1b 1f db 3e 6b 5a c3 bd 38 eb 24 3e 21 90 d7 3e
       0.4279717 -0.0953873 0.16105354 0.4210215
000150 80 a4 49 3e bf d8 e2 3e 73 f2 cc 3d 5d 6a b4 bc
       0.19691658 0.4430599 0.10007181 -0.022023374
000160 7c 6d 2a 3e c0 a1 14 be 2d 1e 34 3d 93 3a 7e 3e
       0.16643327 -0.14514828 0.04397409 0.24827032
000170 02 ad da 3c b1 f4 b3 3d bc ac a9 3e dd 1c 07 bf
       0.026693825 0.087869056 0.33139598 -0.52778417
000180 c7 0a ba be c3 fb e9 3e 42 d1 5b bd d1 72 05 bf
       -0.36336347 0.4569989 -0.05366636 -0.5212832
000190 88 b0 0b 3f 32 c8 a4 3e 3e da 55 be 8f 23 59 3e
       0.5456624 0.32183987 -0.20884034 0.21204971
0001a0 ee 97 88 3e c5 f1 7b bd a7 15 a2 be d0 31 e0 be
       0.26678413 -0.061509866 -0.31657144 -0.43788004
0001b0 98 82 1f 3e 89 b2 8c 3e 90 71 41 3e e7 7b e6 3d
       0.15577161 0.27479962 0.18890977 0.11254101
0001c0 ad 24 a6 3d 9c 7d bb 3c 82 ed 38 bd 1d 31 1b 3f
       0.08112464 0.022887044 -0.04514838 0.60621816
0001d0 da e1 2b 3f 71 a7 85 bd 34 b5 da 3d b8 37 20 be
       0.671415 -0.065260775 0.10679093 -0.15646255
0001e0 4a df 01 be 87 a4 8b 3e 65 d3 0a 3f f6 25 38 be
       -0.12682834 0.27273962 0.5422881 -0.17983231
0001f0 f8 05 5b 3d 43 d5 ab be b0 8b fe be f1 3a 03 3f
       0.05347249 -0.33561143 -0.49715948 0.5126181
000200 6d b2 55 3e 4d 39 51 be 01 d4 82 be 25 3f 13 bd
       0.20868845 -0.20432015 -0.2555237 -0.03594889
000210 b4 98 d0 be d5 62 bc 3d 05 fb 15 3f 7c 90 a8 3e
       -0.40741503 0.09198538 0.5858615 0.32922733
000220 85 e6 bc bc a3 7c 0e bf ab 74 30 3e 8d c8 2c 3e
       -0.023059139 -0.5565893 0.17232005 0.16873379
000230 28 c3 84 3e f6 3d 88 3e 44 52 95 be cc 60 f4 3e
       0.25930142 0.26609772 -0.29164326 0.477301
000240 76 0a ee bd 02 7c 71 bd ed 1a 73 3e 75 ca 0c 3e
       -0.11623089 -0.058956154 0.2374074 0.13749106
000250 96 c5 f5 3e 6f 9f 7e 3e 8e 12 48 be b9 15 b2 3e
       0.4800231 0.24865507 -0.19538328 0.34782198
000260 b1 98 62 3e d0 8e 0f be 05 64 22 bd 28 e4 14 3b
       0.2212856 -0.14019322 -0.039646167 0.0022719
000270 7e 6c c9 3c b8 7d ac 3e 9a 96 2d 3f 3f 91 12 bd
       0.024587866 0.33689666 0.67807925 -0.03578305
000280 d1 50 c4 3d 64 6f 90 be 24 92 0b be af 17 e7 bc
       0.09585727 -0.28209984 -0.13629967 -0.028209535
000290 ff 2b 0b 3f 74 9c ae bd 80 4f e8 3d 98 9c 73 3e
       0.5436401 -0.08525935 0.113432884 0.23790205
0002a0 65 82 12 3e 25 c9 74 bc ad 10 bc 3d 8e 35 cc be
       0.14307554 -0.014940535 0.09182868 -0.3988461
0002b0 10 dc 50 be 7a de 08 3e 75 3c 4b 3e ec 76 d3 3e
       -0.20396447 0.13366118 0.19847281 0.41301668
0002c0 0d 14 b3 3e 8a 5d d5 bc 97 ef 37 3d f1 25 8d be
       0.34976235 -0.02604558 0.044906225 -0.2756801
0002d0 48 0c fe 3e 8f 3f 82 bd 0e 64 4a 3e c7 be 74 3e
       0.49618745 -0.06359779 0.1976473 0.23900901
0002e0 ad f6 18 be a3 75 06 bf 8a 41 1c be a5 b0 1d 3e
       -0.1493785 -0.5252325 -0.15259376 0.15399416
0002f0 5e 0f 41 3f 42 2b 5f 3c 9d b2 12 be 02 a7 b9 3c
       0.75414073 0.013621153 -0.14325948 0.022662643
000300 87 70 96 3e 75 5b 79 bc 85 b1 de 3d ff 34 1e bf
       0.29382727 -0.015219559 0.10873703 -0.61799616
000310 3f fb f4 be cf 3d d9 be 53 82 60 be 34 0f e4 3e
       -0.47847936 -0.4242997 -0.21924715 0.4454285
000320 34 c6 29 3f d6 59 cf 3d aa 83 e5 3c ba 58 7b bd
       0.6631806 0.10124557 0.028016884 -0.061363913
000330 a6 46 cd 3e 78 80 e9 3e d8 ee c8 bd 10 cb 8c be
       0.40092963 0.45605826 -0.09811181 -0.27498674
000340 ff 1d 34 3d 31 b3 12 bf 5f a3 76 bd 1a 28 0c 3f
       0.04397392 -0.57304674 -0.060214397 0.5474869
000350 1d 5c f6 3e f3 c1 25 3c ca 7a 25 bb ca ce b6 3d
       0.48117152 0.010117042 -0.002525019 0.08926161
000360 22 e8 cd 3e eb 9c 05 3e 37 c6 23 3e 21 d3 99 be
       0.40216166 0.1304814 0.15993582 -0.3004389
000370 9a 86 98 be 90 3b 0d bf fc f3 e4 3d 64 ed a4 be
       -0.29790193 -0.5516901 0.11179349 -0.32212365
000380 29 1f 27 3d 68 42 0e bf 1a ed 41 3e 99 11 b8 3e
       0.0408012 -0.5557008 0.18938103 0.35950926
000390 56 b1 f8 be 1f fd f3 3e 6f 6b 15 3f 3d 0c 95 3d
       -0.48572797 0.47654054 0.58367056 0.07277725
0003a0 61 89 42 ba 65 b1 2c bd b6 40 9f 3e 8d 90 05 3f
       -0.0007420984 -0.042161364 0.31104058 0.5217369
0003b0 02 f9 cd 3e 3c 46 16 be 61 fc 74 3e 82 f8 cd bd
       0.4022904 -0.1467523 0.239244 -0.10057165
0003c0 b4 e6 95 bd 49 bc d3 bd 56 2c 20 3f 34 a7 81 be
       -0.07319394 -0.10338647 0.6256765 -0.25322878
0003d0 43 74 73 3e 2c dc a8 be c7 76 2a bd b9 2e 2c 3e
       0.23774819 -0.32980478 -0.04161718 0.16814698
0003e0 9a 0e 0f 3f 18 c1 54 3e 9c 32 d0 3b a2 59 8c 3e
       0.55881655 0.20776784 0.0063536894 0.27412134
0003f0 b8 91 4c 3d c9 40 4c 3d 0d e9 0c 3e 19 34 15 be
       0.049943656 0.04986647 0.13760777 -0.14570655

model.0.bias f4 [128]
000000 e1 66 81 3b 51 8d 55 3e e5 71 91 3e 0d fd 18 3f
       0.0039490317 0.20854689 0.28407207 0.59761125
000010 e7 a0 ef 3e 7e 17 2a 3f f7 ec f7 3e ed a7 09 3f
       0.46802446 0.66442096 0.48422977 0.5377186
000020 c5 f0 91 3e 8c f0 12 3f 2d ea be 3e 50 15 01 3f
       0.28504005 0.57398295 0.37288037 0.50423145
000030 0b 44 ba 3e 32 4f 04 3f 11 cc 2c 3f 87 3f 63 3e
       0.36380038 0.5168334 0.6749888 0.22192203
000040 9a b2 87 3d 61 b1 10 3f 4e a3 36 3f ed 59 48 3f
       0.066258624 0.5652066 0.71342933 0.78262216
000050 f9 98 02 3f 0f 52 ac bc 36 64 9e 3e 90 d4 a6 3b
       0.5101467 -0.021035222 0.3093583 0.0050912574
000060 e0 24 dd 3e c9 ef 2b 3f 4a bb c1 3d 64 48 15 3f
       0.43192196 0.6716276 0.09459551 0.58313584
000070 72 c8 37 3f d1 f4 6f 3e d8 23 4e 3d ee c6 84 3e
       0.7179023 0.23433234 0.050327152 0.2593302
000080 b8 e7 01 be 2a 91 c9 3e 9e f7 5e 3e 03 97 39 3f
       -0.1268605 0.39368564 0.21774146 0.7249605
000090 fe e5 28 3e 9c 3c ee bc fc 2b 5a 3e 02 09 c8 3e
       0.16493985 -0.029081635 0.21305841 0.39069372
0000a0 38 09 0a 3f 9d fe ee 3e 6e ab 82 3e a7 b6 ff 3e
       0.53920317 0.4667863 0.25521415 0.4994404
0000b0 3a ab a6 3e 5d 77 33 3f 9b fe fb 3e e9 6c 13 bd
       0.3255251 0.7010401 0.49217686 -0.035992537
0000c0 04 c4 53 3d 1e bd cb 3e 5a 2b 38 3f 91 ef b3 3e
       0.051700607 0.39792722 0.7194115 0.35143712
0000d0 01 6b 9c bc 80 a3 cb 3e 25 07 c4 3e 85 c6 a7 bd
       -0.019093992 0.39773178 0.382867 -0.081921615
0000e0 22 04 01 be b9 04 95 3e a1 a9 09 3f 73 4c aa bd
       -0.12599233 0.29105166 0.5377446 -0.08315363
0000f0 88 99 13 3f 99 d7 c7 3e 81 be 57 bc 21 54 15 3f
       0.57656145 0.39031675 -0.013167978 0.58331496
000100 b3 8d 0a 3f 3a 77 9c 3e 64 ee b9 3d ad 63 28 3f
       0.54122466 0.30559713 0.090786725 0.65777093
000110 15 42 03 3f 75 2c 5f 3e d2 90 40 3e 9b a8 29 3f
       0.5127271 0.21794303 0.18805245 0.66272897
000120 0a f9 98 be 02 2a e3 3e 2a 01 01 3f 45 48 11 bd
       -0.29877502 0.44367987 0.503924 -0.035469312
000130 45 bb 41 3e c6 d6 00 3f f6 e9 16 3f 6b f6 81 be
       0.18919094 0.5032772 0.58950746 -0.25383314
000140 49 a7 b0 3e 0f b4 3c 3f 6b 09 28 3f fc fb 80 3e
       0.34502628 0.7371225 0.6563937 0.2519225
000150 61 6d 4e 3e 92 a0 e7 3e d3 e4 b2 3d 6c 78 9e 3e
       0.20158912 0.45239693 0.08735051 0.3095125
000160 79 c5 f5 3e 84 3f 89 3e 41 4c b5 3e ad 7d af 3e
       0.48002222 0.2680627 0.3540974 0.3427557
000170 ef ad b4 3d 45 27 94 bb c0 ba 8f 3e 00 57 52 3d
       0.08822238 -0.004521283 0.28072166 0.0513525
000180 ba 48 ad 3e f9 ef 57 3e cb 7d 12 3f 9f 4f d4 3e
       0.33844548 0.21087636 0.57223195 0.41466996
000190 57 f9 ec 3e b0 b3 df bd 14 8e 79 3e 18 96 3c 3e
       0.4628398 -0.109229445 0.24370605 0.18416631
0001a0 f0 5b bf 3e 43 0c e6 3e e5 2b 2d 3f 97 37 3e 3f
       0.3737483 0.4493123 0.676451 0.74303573
0001b0 b4 6a 0e 3f 88 ba 13 3f 1f e2 fb 3e 37 01 01 3f
       0.55631566 0.577065 0.49195954 0.5039248
0001c0 f0 76 83 3d 31 d7 42 bd 90 d5 9e 3e e6 eb 11 3f
       0.0641917 -0.047568504 0.3102231 0.5700058
0001d0 35 16 17 3f f2 66 25 3e 65 d9 fc 3d a0 4b 65 3d
       0.5901826 0.16152552 0.12346152 0.055980325
0001e0 c5 aa bf 3e 81 b6 13 3e c1 81 24 3e 37 dc 0b bd
       0.37434974 0.14425088 0.16065122 -0.03414556
0001f0 a0 73 a6 3b 7f d9 2a bc 31 46 04 3f b8 ec 3d 3f
       0.0050797015 -0.010427832 0.51669604 0.7418933

model.2.weight f4 [64, 128]
000000 74 79 69 3d 93 18 43 3e 0b 6a 7b 3e f5 2d a4 3e
       0.057000592 0.19052343 0.24552171 0.32066312
000010 a3 c8 06 3e 71 c7 9b 3e a2 61 7c 3e df 33 95 3e
       0.13162474 0.304256 0.24646619 0.29141137
000020 da aa 5a 3e af 05 84 3e c2 81 53 3e d9 02 00 3e
       0.21354237 0.25785586 0.20654967 0.12501086
000030 be 6e 6f 3e 22 ed 78 3e 96 74 8d 3e a3 48 42 3e
       0.23382089 0.24309209 0.2762801 0.18973021
000040 80 ec 82 3d a1 9d 92 3e 37 95 7d 3e 2a fb 8a 3e
       0.06392765 0.28635886 0.24763952 0.27144748
000050 40 c1 52 3e 39 7e 84 3e 22 ab 73 3e ff 76 08 3e
       0.20581532 0.2587755 0.2379575 0.13326643
000060 c2 02 27 3e 38 ac 94 3e 4a 15 39 3e ca c8 88 3e
       0.16309646 0.29037642 0.18074527 0.2671569
000070 93 54 cb 3d 9d f0 38 3e 46 de 15 3d 74 91 ac 3e
       0.099282406 0.18060537 0.03658893 0.33704722
000080 9f ff fc 3d 30 48 59 3e bf ac b3 3d a8 8e 58 3e
       0.12353443 0.21218944 0.08773183 0.21148169
000090 ed d1 b3 3d 06 50 cb bc b3 e1 5b 3e 78 c0 c8 3d
       0.087802745 -0.024818432 0.21472816 0.098023355
0000a0 3b 75 35 3e cd a1 5b 3e d7 79 cc 3d 19 d8 27 3e
       0.17720501 0.21448441 0.099841766 0.16391028
0000b0 5d 26 81 3e 14 6f 71 3e 87 dd 79 3e 75 1a cc 3d
       0.2522458 0.23577529 0.24400912 0.09965984
0000c0 26 d2 bf 3d 94 75 54 3e 46 cd 5b 3e 6c 3b 37 3e
       0.093662545 0.20747977 0.21465024 0.17893761
0000d0 5d 2d 73 3e 01 96 5e 3e 37 a4 79 3e 30 88 fc 3d
       0.23747773 0.2173691 0.24379049 0.12330663
0000e0 22 50 c5 bd 7a 88 8d 3e a7 b8 43 3e e6 ea 37 3e
       -0.09634425 0.27643186 0.19113408 0.179607
0000f0 05 0b 34 3e 1d a6 84 3e 7c c4 33 3e be e1 3c 3e
       0.17582329 0.25907984 0.17555422 0.18445489
000100 86 7b 0a 3e 49 c5 21 3e c6 ae 5d 3e bc e0 a3 3e
       0.13523683 0.15797915 0.21648702 0.32007396
000110 d5 8d 85 3e 18 e2 7b 3e c2 f9 12 3e 8d 2e 4d 3e
       0.26084772 0.24597967 0.14353088 0.20037289
000120 9d c1 66 be 63 49 55 be f3 c4 88 3e 51 e1 39 3d
       -0.22534795 -0.20828776 0.2671276 0.045380894
000130 79 74 78 3e 33 0f 2e 3e 26 85 68 3e 58 d3 00 3d
       0.24263181 0.16997986 0.22707042 0.031451553
000140 7f e2 1c 3e 25 96 68 3e be 85 90 3e b0 16 39 3e
       0.15320776 0.22713526 0.28227037 0.18075061
000150 2a 99 82 3e 61 aa 99 3e 19 21 7b 3e a4 4f 44 3e
       0.2550748 0.300128 0.24524345 0.19171005
000160 30 3e 2d 3e 5b bc a2 3e a8 b3 9a 3e 69 dd 39 3e
       0.16918254 0.3178433 0.30215192 0.18150868
000170 e0 67 01 3e 30 62 a7 3d 16 7c ee 3d 84 a2 05 bf
       0.12637281 0.08173025 0.11644761 -0.52201104
000180 b4 8d 53 3e 00 6e a0 3d b3 83 45 3e 84 b5 8d 3e
       0.20659524 0.07833481 0.1928852 0.27677548
000190 26 be 90 3e 0e cc 99 3e 8d e6 30 3e d0 73 b4 3d
       0.28270072 0.30038494 0.17275448 0.08811152
0001a0 6c 11 0b 3e 24 83 8d 3e 07 53 94 3e ff 6a 74 3e
       0.13580865 0.27639115 0.28969595 0.23868941
0001b0 02 4e 54 3e 5c a2 53 3e 11 55 35 3e 6d 8c 69 3e
       0.20732883 0.20667404 0.17708232 0.22807474
0001c0 bd de 52 3d cc 6a b4 3d 6e 59 b3 3e cf 51 43 3e
       0.05148195 0.088094324 0.35029167 0.19074176
0001d0 48 56 4c 3e 5d b1 37 bd 3d 11 1a 3e 4f e3 40 3e
       0.19954789 -0.04484688 0.15045638 0.18836711
0001e0 14 6d 63 3e 3f 1a 40 3e 26 06 3d 3e c0 40 0c 3e
       0.22209579 0.18760012 0.18459377 0.13696575
0001f0 5b 97 d7 be 80 57 f3 3d db c0 61 3e 2d 58 4e 3e
       -0.42107663 0.11881924 0.22046225 0.20150824
000200 23 8b 49 bd 3e 67 a7 bd 15 4f 81 3d fd d8 b8 bb
       -0.049204957 -0.08173989 0.06313912 -0.0056411014
000210 b4 a5 61 bd 00 66 bd bd 46 b0 88 bd 91 74 ae bd
       -0.055089667 -0.092479706 -0.066742465 -0.08518327
000220 c7 d1 9b bd d3 ed f4 39 e8 00 8b 3d d5 51 8c bd
       -0.07608371 0.000467165 0.06787282 -0.06851546
000230 00 e8 56 3c b9 3a ac bb 25 62 b3 bd c6 02 c8 bd
       0.013116837 -0.0052560237 -0.08758954 -0.09766154
000240 70 50 aa bd 04 1a 00 3c 28 86 bc 3c 79 fd 05 3d
       -0.083161235 0.007818703 0.02301319 0.032712433
000250 90 15 7d bd 49 a4 a3 bd db 7e 3c bd 80 79 a4 bd
       -0.06178814 -0.07990319 -0.046019416 -0.08030987
000260 f7 05 84 3d f3 0c c7 bd 32 10 1b bc 44 be 72 bc
       0.0644645 -0.09719267 -0.0094643105 -0.014815871
000270 b2 82 16 bc 38 99 09 bb 7e ea ae 3c 00 23 d0 bd
       -0.009186434 -0.0020995867 0.021352049 -0.10162926
000280 6f b2 64 3d 55 c9 ff 3c a1 fa 0a bc 2e 2d 01 3d
       0.05583423 0.031223932 -0.008482606 0.031537227
000290 24 10 91 bd 3f d2 38 bb 46 a2 07 3d a9 98 3e bd
       -0.07083157 -0.0028201488 0.03311374 -0.046532307
0002a0 a9 5c 53 bd ae 8c 37 bd 7a d5 70 3b fd 76 47 bd
       -0.05160204 -0.044811897 0.0036748336 -0.04869746
0002b0 ba 4a 1d bd 8f 9a a0 bd 28 d7 ac 3b cd e0 2a 3d
       -0.038401343 -0.0784198 0.005274672 0.041718293
0002c0 ca ea 62 3c 41 8c 36 3d b1 d3 88 bd 79 73 af bc
       0.013849923 0.04456735 -0.06681002 -0.021417366
0002d0 43 fb b3 bd d3 a6 c2 bd 23 d3 89 3d a7 0f 41 3d
       -0.08788159 -0.095044754 0.06729724 0.047134068
0002e0 19 fa 03 bd 4e 54 c2 bd 11 8e 76 3d d9 11 86 3d
       -0.032220934 -0.09488736 0.06019408 0.06546373
0002f0 50 86 e3 bc 91 d7 f3 bc 0f 6c 29 3d dd 64 c9 bb
       -0.027774006 -0.029765876 0.04136282 -0.006146057
000300 02 12 64 3c 64 75 04 bd bc b4 b3 bd 04 f0 6c 3c
       0.013920309 -0.032338515 -0.08774707 0.014461521
000310 ec a8 40 3d 87 58 6f 3c 5f be a3 bd 6d cf 84 3d
       0.047036096 0.014608509 -0.07995295 0.06484876
000320 7e ba 64 bd 92 60 63 3d 7f 29 28 3b ec 68 2e bd
       -0.055841915 0.05551202 0.00256595 -0.04258053
000330 ea ce b2 bd 3d bc d8 bc 09 3c 03 bd ec 60 2c 3d
       -0.08730872 -0.026456947 -0.032039676 0.04208462
000340 66 71 fb 3c e6 65 ad bd fd 10 ec 3c 09 c8 03 bd
       0.030693721 -0.08466701 0.028816694 -0.03217319
000350 93 0d b9 3c 57 b9 7e 3d a6 41 da 3c f9 6c 6a bd
       0.02258948 0.062188473 0.026642632 -0.05723283
000360 bf 99 b7 bd 20 98 de 3a 37 48 7b 3d dc a4 83 3d
       -0.089648716 0.0016982593 0.061348166 0.06427929
000370 97 eb 8b 3d de f3 41 3d 95 a8 3f bd 6c 3d e6 bc
       0.068320446 0.04735171 -0.04679163 -0.02810546
000380 e8 08 94 3d 0b c4 9c bc b7 bf c7 bd 14 ea 62 3d
       0.07228261 -0.01913645 -0.097533636 0.055399016
000390 c9 d0 c3 bd b7 6d 18 b9 91 55 1f 3b 2e 00 f6 3c
       -0.09561307 -0.00014536722 0.0024312476 0.030029383
0003a0 53 76 33 3d 5c 2b 89 3d 63 fa 7e 3d ed 04 ac 3c
       0.043814015 0.06697723 0.062250506 0.020998443
0003b0 2a 1f a7 bc 86 07 fd 3c 64 d9 88 3d 9d dd 91 3d
       -0.020400602 0.030887377 0.06682089 0.071223475
0003c0 02 85 b6 3b 9e a9 44 3d cc 96 91 3b 1d 91 72 bc
       0.005570055 0.048013322 0.004443025 -0.0148051055
0003d0 94 87 84 bd a1 5e b6 bd c3 08 5a 3d 05 8f 10 bd
       -0.06471172 -0.08904768 0.053231012 -0.035292644
0003e0 b8 1f 93 bd 15 15 c0 bd 56 39 20 3d 7d 53 d4 bc
       -0.07183784 -0.09379021 0.03911718 -0.025918717
0003f0 49 e2 51 3d e4 e3 50 3d ce 84 9f bc c9 53 7b bd
       0.051241193 0.050998583 -0.019472506 -0.0613592

model.2.bias f4 [64]
000000 e8 7a 8a 3e aa a2 db bc 3f 36 c3 3d 53 6c 9f bc
       0.27046895 -0.026810963 0.09531831 -0.019460833
000010 d5 69 7a bd 60 3c 70 3e a5 66 92 3e 56 4a 41 3e
       -0.061136086 0.23460531 0.28593937 0.18876013
000020 dc 8f 70 3e 4a 29 a1 3d 7b b0 f9 3b 69 16 97 3e
       0.23492378 0.078692034 0.007619915 0.29509285
000030 6c 24 02 be 7b 96 c9 3e d0 56 30 3e 10 c9 26 3e
       -0.12709206 0.3937262 0.17220616 0.16287637
000040 68 fd 98 3e de a0 6c 3e bc 88 8c 3e 11 42 07 3e
       0.29880834 0.23108241 0.2744807 0.13208796
000050 16 14 91 3e d6 99 91 3e 4e f5 ea bb 62 e1 66 3e
       0.28335637 0.2843768 -0.007170356 0.22546914
000060 ed f9 a9 3e 92 2d 6f 3e 04 74 a5 3e 38 8c 68 3e
       0.3319849 0.23357227 0.32315075 0.22709739
000070 8a a4 35 3e 4f 60 94 3d 90 35 54 3e 9c 33 8e 3e
       0.17738548 0.07244932 0.20723557 0.2777375
000080 6a 16 1e 3e 67 c6 61 be 1b 54 91 3d f9 ff 01 3e
       0.15438238 -0.2204834 0.0709612 0.12695302
000090 cc 8c 64 3e e7 94 fd 3d e1 69 8e 3e c7 44 01 3e
       0.22319335 0.123819165 0.27815154 0.12623893
0000a0 da 36 c3 bd fc 43 3e 3e 22 3d 9b 3e be 08 20 3e
       -0.095319465 0.18580621 0.30320078 0.15628335
0000b0 99 4c 68 3e c1 68 a0 3e cf fc ca bd ea 7d 2d 3d
       0.2268547 0.3132992 -0.09911501 0.04235641
0000c0 25 98 39 3e ff 00 9f 3e 81 13 63 bd 89 70 81 3e
       0.18124445 0.31055447 -0.055438522 0.2528117
0000d0 45 9c 3f 3e 2f 63 6f 3e f2 25 49 bd b0 f9 3b 3c
       0.18711956 0.2337768 -0.049108453 0.011473104
0000e0 a4 d8 a2 3e f1 07 8a bd 1a 03 a6 3e ad 30 98 3e
       0.3180591 -0.06739796 0.3242424 0.29724637
0000f0 69 24 a7 3e ef aa ba bc 0d 07 54 3e f6 da 41 bd
       0.32644966 -0.022786586 0.20705815 -0.047327958

model.4.weight f4 [1, 64]
000000 5e 61 b1 3e 36 e6 30 bc 65 9f 25 bf 2b 7b 97 bd
       0.34644598 -0.010797074 -0.6469634 -0.07396539
000010 cf 79 5b bd 87 24 84 3e 44 f7 90 3e 1e c2 a0 3e
       -0.053582963 0.25809118 0.2831365 0.313981
000020 9a 75 87 3e 0e 6f 09 bf e5 42 a6 b8 f7 14 9b 3e
       0.2645691 -0.5368508 -7.927957e-05 0.30289432
000030 c2 19 12 bf af 2f 3f bf 68 86 07 bf 49 5b 9f 3e
       -0.57070553 -0.74682134 -0.5293946 0.31124333
000040 34 0e 9e 3e 18 45 82 3e 54 6d bb 3e da 86 16 bf
       0.3087021 0.2544334 0.36606848 -0.5879952
000050 e2 a5 9e 3e ea 49 ae 3e 59 36 c9 bd 18 31 a8 3e
       0.30985934 0.34040767 -0.09824819 0.32849956
000060 d7 d8 96 3e a1 d3 ba 3e 38 58 9b 3e 48 83 81 3e
       0.2946231 0.36489585 0.30340743 0.25295472
000070 4b e1 b8 3e b9 04 06 bf 1f 69 a0 3e 71 e3 af 3e
       0.36109385 -0.52350956 0.313302 0.34353212
000080 73 e8 a8 3e 93 83 06 bf a0 38 18 bf c9 c6 0b bf
       0.32989845 -0.52544516 -0.594614 -0.546002
000090 38 fd a9 3e 66 0a f5 be f2 bc 92 3e 6a f5 d9 be
       0.33201003 -0.47859496 0.2865978 -0.4257005
0000a0 af 41 52 bd aa 19 98 3e a2 ba b0 3e 4b f1 99 3e
       -0.051332172 0.2970708 0.3451739 0.30066904
0000b0 28 e2 83 3e 04 65 a9 3e e8 bd b7 ba f8 3b ca bd
       0.2575848 0.3308488 -0.0014018388 -0.098747194
0000c0 1b 67 8a 3e e0 8d 92 3e 44 f3 99 bd f6 e2 83 3e
       0.27031788 0.28623867 -0.07517102 0.25759095
0000d0 ad 97 a4 3e c5 a5 a6 3e 1c 84 f0 be cc 83 1d bc
       0.3214697 0.32548347 -0.4697579 -0.009613942
0000e0 db 78 8d 3e 88 37 59 bd 90 a7 9b 3e 1f 29 ba 3e
       0.27631268 -0.053031474 0.30401278 0.36359498
0000f0 26 1a 87 3e 5d b2 a3 bb 78 5d 8a 3e 74 23 9b be
       0.26387137 -0.004995628 0.27024436 -0.30300486
