pk_adv.pth (torch, 39625 bytes, 5 tensors)

model.0.weight f4 [128, 6]
0.37339145 0.29512694 -0.04721765 0.13013081 0.51183397 -0.49642175 -0.28567573 0.45136136
0.5448544 -0.19286974 0.012808905 0.46018073 0.20615305 0.16206923 0.09624193 -0.023240428
-0.19058724 -0.46888033 -0.08905923 0.5646259 0.17952195 -0.121691145 0.012471917 0.19691443
-0.3104966 0.30463096 0.30126086 -0.018721301 0.18484731 -0.36963934 -0.23199463 0.19418453
0.1603817 0.085095845 -0.23778732 -0.04201406 0.08487774 0.029569477 0.11731791 -0.11035635
-0.34000373 -0.39046252 -0.1639188 0.29068455 0.7654568 0.005628735 0.015563797 0.047432065
0.59951395 0.36271396 -0.17760633 0.21723936 0.31908435 0.48477146 -0.21635596 0.48679528
0.19385645 -0.11117476 0.0766809 0.3322902 0.17103283 0.4207881 0.40904638 -0.10331772
-0.11576934 0.3004202 -0.21812455 0.12242299 0.097600974 0.23525715 -0.4430245 0.34147963
0.3282268 0.60109705 -0.07500512 -0.24155146 0.3490822 0.07949233 0.16697495 -0.04063997
0.4283552 -0.101894885 0.16009283 0.4273287 0.19438328 0.44382533 0.09918531 -0.021926787
0.1805161 -0.14615226 0.034346897 0.2507661 0.034529824 0.0850933 0.34066215 -0.5230598
-0.36283457 0.47139853 -0.051375438 -0.5235291 0.52314496 0.30657664 -0.20727754 0.21887697
0.26773998 -0.058104217 -0.3160006 -0.43422773 0.15474483 0.27758873 0.18891951 0.11403199
0.08159118 0.027296046 -0.047473688 0.60455036 0.6689393 -0.05514704 0.112460434 -0.15550688
-0.12861127 0.27305806 0.5413764 -0.17647612 0.054329064 -0.33319092 -0.49425706 0.51384455
0.21256752 -0.18368994 -0.22270228 -0.051871177 -0.41532984 0.095848806 0.5850194 0.32748348
-0.016962005 -0.55355287 0.17077254 0.16281477 0.2607174 0.2658444 -0.29908523 0.46273074
-0.12512498 -0.06343491 0.23693462 0.12410058 0.47910517 0.24888001 -0.19614223 0.3502654
0.22025181 -0.1413136 -0.03912348 0.003414146 0.021822618 0.33515397 0.67447346 -0.048632
0.09725421 -0.28575066 -0.13548651 -0.029100917 0.54391825 -0.08666601 0.11164011 0.24066667
0.13487895 -0.018365478 0.09067947 -0.3921757 -0.20142591 0.1386582 0.20125571 0.41332394
0.3472804 -0.02608948 0.041383814 -0.27858427 0.49694425 -0.058040604 0.19601046 0.22893682
-0.14948122 -0.5210815 -0.15073077 0.15485793 0.75224555 0.009945331 -0.13976869 0.018076561
0.28984663 -0.0026671884 0.10517647 -0.60954654 -0.47084522 -0.4234871 -0.22506803 0.44589663
0.66016114 0.10143294 0.029357854 -0.06253375 0.39801708 0.46027583 -0.08716186 -0.2745656
0.04593381 -0.56718934 -0.06367477 0.54655033 0.4792744 0.011909097 -0.00091541675 0.09407878
0.40465403 0.124512404 0.15243147 -0.3004462 -0.29809937 -0.55068445 0.119798385 -0.32735023
0.038402792 -0.5632044 0.1851004 0.36802328 -0.4804065 0.47606668 0.5835551 0.06590186
0.0026798844 -0.039957095 0.3121222 0.52033466 0.402586 -0.14371985 0.23504123 -0.10463062
-0.081829526 -0.099220715 0.6252006 -0.2570978 0.24506083 -0.32693592 -0.046498485 0.16722389
0.5587352 0.21471296 0.012969366 0.2746812 0.050666574 0.049162053 0.13194099 -0.15398718
00000000: 2a2d bf3e e11a 973e 4b67 41bd 0341 053e
00000010: 8d07 033f fe2a febe 1744 92be d618 e73e
00000020: 947b 0b3f a57f 45be 71dc 513c cf9c eb3e
00000030: c919 533e 7af5 253e 7d1a c53d b662 bebc
00000040: 4d29 43be 1511 f0be b064 b6bd 538b 103f
00000050: 9ad4 373e 3539 f9bd 0357 4c3c f0a3 493e
00000060: 69f9 9ebe 97f8 9b3e dd3e 9a3e 6a5d 99bc
00000070: 9d48 3d3e 5e41 bdbe 0090 6dbe 4fd8 463e
00000080: 1a3b 243e bb46 ae3d 857e 73be ef16 2cbd
00000090: 61d4 ad3d b03b f23c 5f44 f03d 8302 e2bd
000000a0: f814 aebe b4ea c7be 54da 27be 9bd4 943e
000000b0: faf4 433f 4071 b83b 4cff 7e3c 2048 423d
000000c0: bf79 193f a5b5 b93e 6fde 35be ff73 5e3e
000000d0: 065f a33e f733 f83e 6b8c 5dbe 3b3d f93e
000000e0: 4e82 463e 98af e3bd e00a 9d3d f121 aa3e
000000f0: 3b23 2f3e 8a71 d73e 876e d13e 3e98 d3bd
00000100: 7a18 edbd add0 993e 0b5c 5fbe e8b8 fa3d
00000110: 05e3 c73d 40e7 703e 1bd4 e2be 6bd6 ae3e
00000120: 580d a83e 7fe1 193f 499c 99bd 4459 77be
00000130: e7ba b23e e0cc a23d 7bfb 2a3e 1976 26bd
00000140: 5f51 db3e 44ae d0bd 60ef 233e d4ca da3e
00000150: 690c 473e 133d e33e ab21 cb3d ce9f b3bc
00000160: 36d9 383e f0a8 15be 55af 0c3d 6a64 803e
00000170: 256f 0d3d 6545 ae3d 456b ae3e 3fe7 05bf
00000180: 74c5 b9be 265b f13e 0d6f 52bd 0106 06bf
00000190: d4ec 053f 9df7 9c3e 9040 54be 4921 603e
000001a0: 3715 893e b0fe 6dbd d5ca a1be 1953 debe
000001b0: 6e75 1e3e 1c20 8e3e 1e74 413e 9b89 e93d
000001c0: 4719 a73d f59b df3c c573 42bd d0c3 1a3f
000001d0: 9b3f 2b3f dde1 61bd a851 e63d 323d 1fbe
000001e0: acb2 03be 44ce 8b3e a597 0a3f 28b6 34be
000001f0: 2788 5e3d 0098 aabe 430f fdbe 518b 033f
00000200: 4dab 593e 3719 3cbe 110c 64be df76 54bd
00000210: 1da6 d4be 614c c43d d5c3 153f eaab a73e
00000220: e7f3 8abc a4b5 0dbf ffde 2e3e eab8 263e
00000230: c07c 853e c21c 883e b321 99be 0beb ec3e
00000240: c320 00be 29ea 81bd fd9e 723e 7228 fe3d
00000250: 464d f53e 67da 7e3e 82d9 48be fd55 b33e
00000260: b189 613e 83b4 10be f13f 20bd ddbf 5f3b
00000270: 59c5 b23c 4d99 ab3e 4baa 2c3f 5932 47bd
00000280: 372d c73d e94d 92be fabc 0abe 0c65 eebc
00000290: 3a3e 0b3f f37d b1bd 92a3 e43d 5371 763e
000002a0: b51d 0a3e 3373 96bc 28b6 b93d 41cb c8be
000002b0: 9842 4ebe 6afc 0d3e fa15 4e3e 329f d33e
000002c0: bdce b13e 9bb9 d5bc 1382 293d 99a2 8ebe
000002d0: 7a6f fe3e fcbb 6dbd f7b6 483e 6a6e 6a3e
000002e0: 9b11 19be 9965 05bf 2b59 1abe 1493 1e3e
000002f0: 2a93 403f bef1 223c 861f 0fbe 4c15 943c
00000300: c766 943e ffcb 2ebb c366 d73d 3e0b 1cbf
00000310: a012 f1be 4dd3 d8be 3c78 66be 904c e43e
00000320: 5200 293f 13bc cf3d e27f f03c b211 80bd
00000330: e5c8 cb3e 46a9 eb3e eb81 b2bd dd93 8cbe
00000340: 1725 3c3d 5233 11bf eb67 82bd b9ea 0b3f
00000350: 7463 f53e 601e 433c 94f8 6fba 60ac c03d
00000360: d02e cf3e 5c00 ff3d ff16 1c3e 16d4 99be
00000370: 7ba0 98be a8f9 0cbf db58 f53d 739a a7be
00000380: 3f4c 1d3d 2a2e 10bf f68a 3d3e 8c6d bc3e
00000390: d7f7 f5be 03bf f33e de63 153f 8ef7 863d
000003a0: 00a1 2f3b 0daa 23bd 7bce 9f3e a734 053f
000003b0: c11f ce3e 4c2b 13be a6ae 703e 9448 d6bd
000003c0: 3d96 a7bd 3b34 cbbd 260d 203f 53a2 83be
000003d0: 3af1 7a3e 2564 a7be 3275 3ebd bd3c 2b3e
000003e0: 4509 0f3f b7dd 5b3e 777d 543c 04a3 8c3e
000003f0: c187 4f3d 265e 493d 8a1b 073e d1ae 1dbe

model.0.bias f4 [128]
0.011187262 0.19699968 0.28529236 0.6020006 0.46779463 0.6670229 0.48330298 0.52613187
0.29412383 0.5725197 0.3821413 0.5078873 0.37328142 0.5196587 0.6784962 0.22210148
0.044565957 0.5658692 0.71593714 0.7858925 0.51087445 -0.03444833 0.3089158 -0.0052764285
0.43523115 0.6737684 0.10300071 0.5861737 0.7188341 0.2405438 0.056845736 0.26088324
-0.13787633 0.39569032 0.21779542 0.7321641 0.1694008 -0.023070501 0.2242852 0.3937382
0.53174347 0.46558207 0.2587075 0.50239736 0.3249822 0.698905 0.49030113 -0.036274087
0.044903286 0.39862671 0.7201776 0.34590334 -0.010674757 0.39733565 0.3797238 -0.07878666
-0.12681793 0.2984968 0.54098475 -0.08411612 0.5844093 0.38729793 -0.012515154 0.5928639
0.5390237 0.30851975 0.08841356 0.6603761 0.5136046 0.22829218 0.17965373 0.6655495
-0.29029757 0.43762934 0.51046705 -0.020341435 0.1896924 0.49908543 0.59036756 -0.28109053
0.3407384 0.7340141 0.6627685 0.2484991 0.2088483 0.45018712 0.08802984 0.30404866
0.48342657 0.27050877 0.35486215 0.3475747 0.09153645 0.002074194 0.27711943 0.051592145
0.33660057 0.20961136 0.5733405 0.4204252 0.46143368 -0.11516577 0.22099343 0.19118208
0.3746394 0.44982722 0.6837228 0.7467374 0.56054956 0.5781757 0.49589312 0.50359386
0.05747047 -0.040167104 0.3088313 0.5757333 0.59063035 0.15556271 0.118616365 0.05281071
0.3575522 0.13484046 0.1644438 -0.02872711 0.003398516 -0.0059450427 0.5248635 0.7446415
00000000: c74a 373c 49ba 493e d711 923e b61c 1a3f
00000010: c782 ef3e 03c2 2a3f 7d73 f73e 94b0 063f
00000020: 6697 963e a790 123f 06a8 c33e e704 023f
00000030: be1e bf3e 5a08 053f edb1 2d3f 926e 633e
00000040: cb8a 363d cedc 103f a847 373f 4030 493f
00000050: abc8 023f b119 0dbd 362a 9e3e e4e5 acbb
00000060: 9ed6 de3e 167c 2c3f 09f2 d23d 7b0f 163f
00000070: 8305 383f 1d51 763e 13d7 683d 7d92 853e
00000080: 742f 0dbe ec97 ca3e c305 5f3e 1b6f 3b3f
00000090: 6777 2d3e 59fe bcbc 05ab 653e 0e98 c93e
000000a0: 5720 083f c660 ee3e 4f75 843e 1d9d 003f
000000b0: 1164 a63e 70eb 323f c008 fb3e 2394 14bd
000000c0: 82ec 373d cd18 cc3e 8f5d 383f 3e1a b13e
000000d0: 2de5 2ebc 946f cb3e 286b c23e e75a a1bd
000000e0: 8fdc 01be 93d4 983e fa7d 0a3f 1345 acbd
000000f0: d99b 153f ea4b c63e 5c0c 4dbc eec5 173f
00000100: 75fd 093f 4df6 9d3e 2b12 b53d 680e 293f
00000110: 977b 033f 6dc5 693e 26f7 373e 7461 2a3f
00000120: e2a1 94be f410 e03e f8ad 023f 15a3 a6bc
00000130: b93e 423e 2088 ff3e 5422 173f 19eb 8fbe
00000140: 4375 ae3e 59e8 3b3f 32ab 293f 8c76 7e3e
00000150: 54dc 553e ed7e e63e fd48 b43d 44ac 9b3e
00000160: b083 f73e 2080 8a3e 7eb0 b53e 50f5 b13e
00000170: 7677 bb3d 33ef 073b 99e2 8d3e 4952 533d
00000180: e956 ac3e 5ca4 563e 71c6 123f f941 d73e
00000190: 0941 ec3e 08dc ebbd 1a4c 623e 3cc5 433e
000001a0: bcd0 bf3e c14f e63e 7508 2f3f 2f2a 3f3f
000001b0: 2d80 0f3f 5303 143f b4e5 fd3e 87eb 003f
000001c0: 2866 6b3d 4386 24bd 231f 9e3e 4263 133f
000001d0: 8d33 173f d54b 1f3e 23ed f23d 0b50 583d
000001e0: 1511 b73e 9e13 0a3e f563 283e 1e55 ebbc
000001f0: a3b9 5e3b a2ce c2bb 745d 063f d3a0 3e3f

model.2.weight f4 [64, 128]
0.05390655 0.18925756 0.24442327 0.32045203 0.13298717 0.3029227 0.24676485 0.29090926
0.21276239 0.2567682 0.20552577 0.12119089 0.228183 0.23607801 0.2781658 0.18878354
0.05631283 0.2891816 0.24818267 0.27459076 0.20555183 0.25644395 0.23698586 0.1363109
0.16482659 0.29481137 0.18065272 0.2645869 0.10206769 0.181116 0.038340464 0.33714074
0.12109496 0.21339628 0.08444362 0.21117726 0.08862775 -0.02639172 0.2179902 0.097664535
0.18082 0.210456 0.09862516 0.161293 0.25406954 0.22895642 0.24482338 0.10291482
0.09584068 0.20224051 0.21705757 0.17827977 0.23465568 0.21744955 0.24274167 0.12408425
-0.08561171 0.2768716 0.19059232 0.18185492 0.17504989 0.25864068 0.17157497 0.18480335
0.13004336 0.1520936 0.21756361 0.31574562 0.25980866 0.24392912 0.13717207 0.19991465
-0.22414306 -0.20960352 0.2677849 0.040156424 0.24089777 0.16474959 0.22704135 0.018554023
0.15289244 0.22216822 0.279459 0.18271154 0.25670817 0.30020604 0.24418876 0.18779771
0.1683791 0.31776136 0.3025091 0.17668144 0.13098001 0.082572244 0.11530035 -0.52101743
0.20675898 0.0765558 0.19081911 0.27609372 0.28191787 0.30100948 0.17087425 0.0936636
0.13427065 0.27312052 0.2956594 0.24126367 0.20605391 0.20773937 0.17119141 0.22855923
0.049151808 0.08974202 0.34695208 0.19111915 0.20101038 -0.044498373 0.15121749 0.19013837
0.2222573 0.1889821 0.18649487 0.1294726 -0.42183805 0.110861555 0.22033238 0.20141408
-0.049204957 -0.08173989 0.06313912 -0.0056411014 -0.055089667 -0.092479706 -0.066742465 -0.08518327
-0.07608371 0.000467165 0.06787282 -0.06851546 0.013116837 -0.0052560237 -0.08758954 -0.09766154
-0.083161235 0.007818703 0.02301319 0.032712433 -0.06178814 -0.07990319 -0.046019416 -0.08030987
0.0644645 -0.09719267 -0.0094643105 -0.014815871 -0.009186434 -0.0020995867 0.021352049 -0.10162926
0.05583423 0.031223932 -0.008482606 0.031537227 -0.07083157 -0.0028201488 0.03311374 -0.046532307
-0.05160204 -0.044811897 0.0036748336 -0.04869746 -0.038401343 -0.0784198 0.005274672 0.041718293
0.013849923 0.04456735 -0.06681002 -0.021417366 -0.08788159 -0.095044754 0.06729724 0.047134068
-0.032220934 -0.09488736 0.06019408 0.06546373 -0.027774006 -0.029765876 0.04136282 -0.006146057
0.013920309 -0.032338515 -0.08774707 0.014461521 0.047036096 0.014608509 -0.07995295 0.06484876
-0.055841915 0.05551202 0.00256595 -0.04258053 -0.08730872 -0.026456947 -0.032039676 0.04208462
0.030693721 -0.08466701 0.028816694 -0.03217319 0.02258948 0.062188473 0.026642632 -0.05723283
-0.089648716 0.0016982593 0.061348166 0.06427929 0.068320446 0.04735171 -0.04679163 -0.02810546
0.07228261 -0.01913645 -0.097533636 0.055399016 -0.09561307 -0.00014536722 0.0024312476 0.030029383
0.043814015 0.06697723 0.062250506 0.020998443 -0.020400602 0.030887377 0.06682089 0.071223475
0.005570055 0.048013322 0.004443025 -0.0148051055 -0.06471172 -0.08904768 0.053231012 -0.035292644
-0.07183784 -0.09379021 0.03911718 -0.025918717 0.051241193 0.050998583 -0.019472506 -0.0613592
00000000: 1dcd 5c3d bccc 413e 184a 7a3e 4a12 a43e
00000010: ca2d 083e af18 9b3e edaf 7c3e 0ff2 943e
00000020: 62de 593e 1f77 833e 5975 523e ee32 f83d
00000030: cea8 693e 6fbe 713e bf6b 8e3e 7950 413e
00000040: 48a8 663d 9c0f 943e 9923 7e3e 2997 8c3e
00000050: 2e7c 523e 9f4c 833e 6cac 723e 1695 0b3e
00000060: 4dc8 283e 84f1 963e 07fd 383e ef77 873e
00000070: dd08 d13d 7976 393e e40a 1d3d b69d ac3e
00000080: a200 f83d 8e84 5a3e c7f0 ac3d da3e 583e
00000090: 7782 b53d 7333 d8bc d338 5f3e 5804 c83d
000000a0: e128 393e c781 573e fdfb c93d fe29 253e
000000b0: 6715 823e 8d73 6a3e fbb2 7a3e 01c5 d23d
000000c0: 1e48 c43d 2318 4f3e 5744 5e3e f98e 363e
000000d0: 9449 703e 18ab 5e3e 4691 783e e21f fe3d
000000e0: 3155 afbd 1dc2 8d3e a22a 433e 2d38 3a3e
000000f0: 4740 333e 8d6c 843e 59b1 2f3e 173d 3d3e
00000100: 162a 053e 6dbe 1b3e ffc8 5e3e 69a9 a13e
00000110: a405 853e 8ec8 793e d676 0c3e 6db6 4c3e
00000120: c285 65be 4ea2 56be 1a1b 893e 107b 243d
00000130: e8ad 763e 1eb4 283e 877d 683e 9bfe 973c
00000140: d68f 1c3e 1180 633e 4015 8f3e bc18 3b3e
00000150: 416f 833e 9bb4 993e 9e0c 7a3e 0b4e 403e
00000160: 926b 2c3e 9eb1 a23e 79e2 9a3e fbeb 343e
00000170: a01f 063e a31b a93d 9722 ec3d 6661 05bf
00000180: a0b8 533e 4ac9 9c3d 1666 433e 285c 8d3e
00000190: 8a57 903e ea1d 9a3e a9f9 2e3e b4d2 bf3d
000001a0: 3f7e 093e 74d6 8b3e ab60 973e d30d 773e
000001b0: ccff 523e a1b9 543e cd4c 2f3e 6e0b 6a3e
000001c0: 6853 493d aaca b73d b4a3 b13e bdb4 433e
000001d0: aad5 4d3e ed43 36bd c2d8 1a3e a2b3 423e
000001e0: 6b97 633e 8684 413e 83f8 3e3e 7794 043e
000001f0: 28fb d7be 620b e33d d09e 613e 7e3f 4e3e
00000200: 238b 49bd 3e67 a7bd 154f 813d fdd8 b8bb
00000210: b4a5 61bd 0066 bdbd 46b0 88bd 9174 aebd
00000220: c7d1 9bbd d3ed f439 e800 8b3d d551 8cbd
00000230: 00e8 563c b93a acbb 2562 b3bd c602 c8bd
00000240: 7050 aabd 041a 003c 2886 bc3c 79fd 053d
00000250: 9015 7dbd 49a4 a3bd db7e 3cbd 8079 a4bd
00000260: f705 843d f30c c7bd 3210 1bbc 44be 72bc
00000270: b282 16bc 3899 09bb 7eea ae3c 0023 d0bd
00000280: 6fb2 643d 55c9 ff3c a1fa 0abc 2e2d 013d
00000290: 2410 91bd 3fd2 38bb 46a2 073d a998 3ebd
000002a0: a95c 53bd ae8c 37bd 7ad5 703b fd76 47bd
000002b0: ba4a 1dbd 8f9a a0bd 28d7 ac3b cde0 2a3d
000002c0: caea 623c 418c 363d b1d3 88bd 7973 afbc
000002d0: 43fb b3bd d3a6 c2bd 23d3 893d a70f 413d
000002e0: 19fa 03bd 4e54 c2bd 118e 763d d911 863d
000002f0: 5086 e3bc 91d7 f3bc 0f6c 293d dd64 c9bb
00000300: 0212 643c 6475 04bd bcb4 b3bd 04f0 6c3c
00000310: eca8 403d 8758 6f3c 5fbe a3bd 6dcf 843d
00000320: 7eba 64bd 9260 633d 7f29 283b ec68 2ebd
00000330: eace b2bd 3dbc d8bc 093c 03bd ec60 2c3d
00000340: 6671 fb3c e665 adbd fd10 ec3c 09c8 03bd
00000350: 930d b93c 57b9 7e3d a641 da3c f96c 6abd
00000360: bf99 b7bd 2098 de3a 3748 7b3d dca4 833d
00000370: 97eb 8b3d def3 413d 95a8 3fbd 6c3d e6bc
00000380: e808 943d 0bc4 9cbc b7bf c7bd 14ea 623d
00000390: c9d0 c3bd b76d 18b9 9155 1f3b 2e00 f63c
000003a0: 5376 333d 5c2b 893d 63fa 7e3d ed04 ac3c
000003b0: 2a1f a7bc 8607 fd3c 64d9 883d 9ddd 913d
000003c0: 0285 b63b 9ea9 443d cc96 913b 1d91 72bc
000003d0: 9487 84bd a15e b6bd c308 5a3d 058f 10bd
000003e0: b81f 93bd 1515 c0bd 5639 203d 7d53 d4bc
000003f0: 49e2 513d e4e3 503d ce84 9fbc c953 7bbd

model.2.bias f4 [64]
0.2739261 -0.026810963 0.093875736 -0.019460833 -0.061136086 0.2380494 0.28937703 0.19221558
0.23836295 0.078420654 0.007619915 0.29854068 -0.13058715 0.39334083 0.17002532 0.16632958
0.30225793 0.23452039 0.27794528 0.13175148 0.28681466 0.28783515 -0.007170356 0.22893079
0.33543092 0.2370251 0.32659918 0.23053664 0.18084346 0.069480784 0.21068883 0.28118935
0.15784581 -0.22487798 0.07737575 0.13216819 0.22664507 0.11929797 0.28158557 0.1225157
-0.095319465 0.1892562 0.30665508 0.15973827 0.23028974 0.3167516 -0.09911501 0.04235641
0.18468611 0.31400064 -0.055438522 0.2562498 0.19058053 0.23723091 -0.052705854 0.011473104
0.32150385 -0.06739796 0.32768983 0.3007018 0.32988986 -0.022786586 0.21049815 -0.072916105
00000000: 0b40 8c3e aaa2 dbbc ec41 c03d 536c 9fbc
00000010: d569 7abd 39c3 733e 3a29 943e 29d4 443e
00000020: 6b15 743e 029b a03d 7bb0 f93b 53da 983e
00000030: a3b8 05be f863 c93e 1e1b 2e3e 4d52 2a3e
00000040: 8dc1 9a3e 1d26 703e d84e 8e3e dce9 063e
00000050: 5fd9 923e 215f 933e 4ef5 eabb d56c 6a3e
00000060: 9abd ab3e b5b6 723e 0238 a73e cc11 6c3e
00000070: 072f 393e f14b 8e3d d0be 573e 0df8 8f3e
00000080: 55a2 213e 6a46 66be 2d77 9e3d 1957 073e
00000090: a515 683e 7e52 f43d fc2b 903e 83e9 fa3d
000000a0: da36 c3bd 61cc 413e e501 9d3e 6e92 233e
000000b0: 13d1 6b3e 442d a23e cffc cabd ea7d 2d3d
000000c0: 5b1e 3d3e b1c4 a03e 8113 63bd 2c33 833e
000000d0: 8b27 433e a9ec 723e 18e2 57bd b0f9 3b3c
000000e0: 279c a43e f107 8abd f6c6 a73e 96f5 993e
000000f0: 53e7 a83e efaa babc d48c 573e 0a55 95bd

model.4.weight f4 [1, 64]
0.3448663 -0.010797074 -0.66228783 -0.07396539 -0.053582963 0.2565152 0.28159633 0.31249624
0.26305053 -0.54889876 -7.927957e-05 0.30138576 -0.5829039 -0.7518458 -0.54284227 0.30968347
0.3071083 0.2528875 0.36452043 -0.60105354 0.3083779 0.33880702 -0.09824819 0.3269955
0.29300112 0.3632825 0.3018277 0.25144348 0.35953155 -0.5360264 0.3117503 0.34203798
0.32832733 -0.5351061 -0.59728223 -0.5483564 0.33036008 -0.48649246 0.28505787 -0.43388784
-0.051332172 0.29546022 0.34363702 0.29909784 0.2561101 0.32936633 -0.0014018388 -0.098747194
0.26886022 0.28471714 -0.07517102 0.25606257 0.3199141 0.323907 -0.48056605 -0.009613942
0.27482563 -0.053031474 0.30241483 0.36194906 0.2622959 -0.004995628 0.26861298 -0.21174565
00000000: 5192 b03e 36e6 30bc b28b 29bf 2b7b 97bd
00000010: cf79 5bbd f655 833e 652d 903e 82ff 9f3e
00000020: 8fae 863e a184 0cbf e542 a6b8 3c4f 9a3e
00000030: 3139 15bf f778 40bf b6f7 0abf d58e 9e3e
00000040: 4d3d 9d3e 787a 813e 6ca2 ba3e a5de 19bf
00000050: b5e3 9d3e 1d78 ad3e 5936 c9bd f46b a73e
00000060: 3e04 963e 2a00 ba3e 2989 9a3e 33bd 803e
00000070: 8514 b83e 0739 09bf bc9d 9f3e 9a1f af3e
00000080: 851a a83e b7fc 08bf 7de7 18bf 1661 0cbf
00000090: f524 a93e 8a15 f9be 1bf3 913e 8c26 debe
000000a0: af41 52bd 9046 973e 31f1 af3e 5a23 993e
000000b0: dd20 833e b4a2 a83e e8bd b7ba f83b cabd
000000c0: 0ca8 893e 72c6 913e 44f3 99bd a21a 833e
000000d0: c8cb a33e 23d7 a53e c10c f6be cc83 1dbc
000000e0: f2b5 8c3e 8837 59bd 1ed6 9a3e 6351 b93e
000000f0: a64b 863e 5db2 a3bb a487 893e dad3 58be
