pk_adv_dl2_convex_no_sex.onnx (onnx, 46229 bytes, 5 tensors)

model.0.weight f4 [128, 5]
000000 8b eb 50 be f0 bf 0d 3e 45 d0 b1 3e 97 ef b9 3d
       -0.20402353 0.1384275 0.3472921 0.09078901
000010 79 24 05 3d 15 24 c5 be bd ff 19 3f 02 f0 5f 3d
       0.032505486 -0.3850409 0.6015585 0.05467225
000020 1b 29 8f be cd 7a c8 bd d7 7f a7 3e cb 72 8f bd
       -0.27961048 -0.097890474 0.32714722 -0.07004317
000030 ee d3 a1 3e 25 91 17 3e 6c 28 f9 3d 7b 66 0f bd
       0.31607002 0.14801462 0.12165913 -0.035009842
000040 70 be e7 3e fc f2 21 3f 0f ed 88 3d 7c fd ad be
       0.4526248 0.6326139 0.0668584 -0.33982456
000050 99 b5 01 3f 52 9c 10 3e 32 88 9b 3e 86 c5 79 3e
       0.5066772 0.14122131 0.30377346 0.24391755
000060 68 28 9b 3e 2f 12 c1 3e f1 9f 42 3e 79 f1 07 3d
       0.30304265 0.37709185 0.19006325 0.03318927
000070 04 b4 e9 bc 66 53 31 3d cb 5e 3d 3e 4d 88 42 bc
       -0.028528221 0.043292426 0.18493192 -0.011873317
000080 62 6a f0 3e 2e aa 5a be 3f 78 da 3d 58 f3 2e 3e
       0.46956164 -0.21353981 0.10667466 0.17085016
000090 1f 83 80 3d de fa a9 3e 85 6f 0b bf 1e 53 e6 3e
       0.06275009 0.3319921 -0.5446704 0.44985288
0000a0 21 64 8f be f4 35 0a 3f 44 c4 21 3f 9d 4d 6c 3d
       -0.2800608 0.53988576 0.631901 0.057691205
0000b0 8f 87 4a bd f1 4a 77 be de 99 fd 3e 60 d0 19 3d
       -0.049445685 -0.24149682 0.49531454 0.037552238
0000c0 7d f1 60 be 1e c0 44 bd 2f 11 ba be 0c e8 c2 3e
       -0.2196712 -0.04803478 -0.36341235 0.38067663
0000d0 a9 41 02 3e 57 86 02 be 69 6b 8f be 58 72 f0 be
       0.1272036 -0.12746559 -0.28011635 -0.46962237
0000e0 aa 67 b3 3d 33 75 9f 3e 8d dc 83 be 36 7a ae be
       0.08760007 0.31144103 -0.25754204 -0.34077615
0000f0 f3 ce cb be 20 39 05 3f 04 de af 3e a8 05 56 3c
       -0.39806327 0.5204029 0.34349072 0.013062872
000100 30 c9 93 bd 6b 19 92 3d 0b a1 e5 ba f7 15 e3 bc
       -0.07216108 0.07133754 -0.0017519308 -0.027720435
000110 a0 39 67 3e 05 a1 02 be b0 dd da 3e b8 f4 4a 3e
       0.22580576 -0.12756737 0.4274726 0.19819915
000120 3f c8 89 bd be ec c3 3d e4 70 98 bb f9 07 8e 3e
       -0.06727647 0.09566639 -0.0046521295 0.27740458
000130 12 e8 01 be 28 56 95 3e 55 f9 bf be ed 0d 77 be
       -0.12686184 0.29167295 -0.37494913 -0.24126406
000140 e9 ae bd 3d 6a 6f 68 3d 44 e2 28 3f b3 c7 a0 3d
       0.09261877 0.056746878 0.65970254 0.078505896
000150 73 a0 57 3e 39 2f cf 3d ed 4a f0 3c 31 dd 5a be
       0.210573 0.10116429 0.029332602 -0.2137344
000160 65 05 11 3d cb fa b7 3e 5a 4e 92 be 44 46 99 3e
       0.035405535 0.35933527 -0.28575402 0.2993642
000170 97 fc 37 3f 44 3d c8 bc ef f3 b8 bd cc 69 bf 3e
       0.71869797 -0.024443276 -0.09030902 0.37385404
000180 78 5c 26 3f 37 93 1c 3f 85 87 ee 3e 4b b3 bd 3e
       0.64984846 0.6116213 0.46587768 0.37050852
000190 c9 d9 19 3f 78 e2 eb bd f2 ac 0c 3e f8 a4 05 bf
       0.6009794 -0.11517805 0.13737848 -0.5220485
0001a0 68 ee f1 bd ac fa 3f be a4 2e 0c 3f 40 9b 28 3e
       -0.118130505 -0.18747967 0.5475867 0.16465473
0001b0 9c 0a 8d 3c 19 fd 74 be 65 f5 b3 3e 1b 2e 26 3f
       0.017216973 -0.23924674 0.3514816 0.649141
0001c0 93 01 09 3e 56 09 99 3c 34 90 fb bc 2e 84 53 be
       0.13379507 0.01868121 -0.03070841 -0.20655891
0001d0 c2 d7 b4 bd a4 b4 40 3f c3 7b b9 bc 2a 88 c0 3c
       -0.08830215 0.75275636 -0.022642022 0.023502428
0001e0 f6 04 05 bf ef 38 f8 3e 13 6f 63 bd 66 02 9d 3a
       -0.51960695 0.48480937 -0.05552585 0.0011978864
0001f0 60 f7 09 bc 86 d8 d6 be 4d 7e 44 3e 13 3f aa 3e
       -0.008420795 -0.4196207 0.19188805 0.33251247
000200 b0 21 3f be 2b 34 bd be 43 d6 6e be 92 38 3e 3f
       -0.18665195 -0.36953864 -0.23323922 0.7430507
000210 c2 1f ae 3d 28 2b 1b 3d b0 48 a6 bd 43 9a 22 3f
       0.08502151 0.037882954 -0.08119333 0.63516635
000220 e5 a9 00 3d 45 8f b6 3c 40 5d 31 bd 3e fc cc 3e
       0.031412024 0.022285113 -0.04330182 0.40036196
000230 90 29 3e bb 52 4b 37 be 4c a3 d9 3e c3 48 9b be
       -0.0029016472 -0.17899826 0.42507398 -0.3032895
000240 66 27 f0 3d a6 41 bf bd ae ae f3 3d 1c 25 e5 3c
       0.11726265 -0.09338693 0.11898552 0.027971797
000250 17 06 e6 3e e8 71 32 bf a7 1c 99 3e be ad 9a 3e
       0.4492652 -0.6970506 0.29904673 0.3021068
000260 91 4d c1 3c 40 35 90 be f8 1c c8 be 70 b7 06 3e
       0.023596557 -0.28165627 -0.390846 0.13155913
000270 71 f3 21 3f 8e 3a 52 3d aa ae 23 bd fc 1f a0 be
       0.6326209 0.051325373 -0.039961495 -0.31274402
000280 0c fe e0 3d 70 25 0c 3e e3 8d 15 3f 1a b5 01 bb
       0.109859556 0.13686156 0.58419627 -0.0019791783
000290 be d4 b7 3d 28 02 4c 3e 11 b8 df bd 5f ff dd 3e
       0.08976124 0.19922698 -0.1092378 0.43358895
0002a0 bb ec 60 be 5e ca 1c be 5a cf 4d 3e 3e 79 24 3f
       -0.21965306 -0.15311572 0.2009863 0.642475
0002b0 24 74 33 3f 23 8b 47 be 2d ea 51 be 55 4e 88 bd
       0.7009909 -0.1948667 -0.20499487 -0.06655566
0002c0 f6 a0 b0 3e a2 90 20 3f da a2 72 3e dd 1a 69 be
       0.34497803 0.6272069 0.23694935 -0.22764154
0002d0 f9 10 9f bc 2c c1 f5 3e 2e 05 09 3f 3d 87 7e 3d
       -0.019417273 0.4799894 0.5352353 0.062140692
0002e0 31 9d e8 3d 2d 55 b5 be 58 89 d7 3d 33 05 48 3f
       0.11358107 -0.35416546 0.10524243 0.78132933
0002f0 8c 61 0d 3e e6 c4 11 be 05 10 aa 3d 48 91 2c 3f
       0.13806742 -0.14235267 0.08303837 0.6740918
000300 84 60 06 3f 9e ca fb 3d 21 58 71 bd 06 09 86 be
       0.5249102 0.122945055 -0.058921937 -0.2617876
000310 06 5d ab bd 19 af 12 3f 4a ee 6f be bc c0 71 3e
       -0.08367352 0.5729843 -0.23430744 0.23608679
000320 97 57 8c be 6d 90 1f 3f c1 27 27 3e 51 bc 11 be
       -0.27410576 0.6232975 0.16323759 -0.14231993
000330 82 9d 20 3d b8 11 13 bf 6a 91 23 3f af a4 98 3d
       0.03921271 -0.5744891 0.6389376 0.07453286
000340 15 bc 8d 3b c1 9d ad 3c dd 8e 29 3e ec 75 10 3d
       0.0043253996 0.021193387 0.16558404 0.03526871
000350 8c a0 39 bc 6b 92 c1 be 5b 3a 2d 3d 84 4b 97 3e
       -0.011329781 -0.3780702 0.04229198 0.295498
000360 d0 8d e4 3e a2 c7 25 3f a6 7c f2 bd fd 86 be 3e
       0.44639444 0.6475774 -0.11840181 0.37212363
000370 b7 f1 2e be fc d7 27 3f e9 2e b0 3e 79 ea 11 bd
       -0.17084394 0.6556394 0.3441079 -0.035624
000380 8e 80 fd 3d d6 bf be be c8 1f af 3e 63 ba 31 be
       0.123780355 -0.37255734 0.34203935 -0.17356257
000390 e7 b7 bc be c4 31 8b be ed 22 d8 3d 4a 01 bd 3e
       -0.36859056 -0.27186406 0.105535366 0.36915046
0003a0 b0 c2 8f be 70 f6 39 bd 10 40 71 bc 1b d6 3d be
       -0.28078222 -0.045401037 -0.014724746 -0.18538706
0003b0 0d 09 2d 3f e8 be b3 3c 7a fe 95 bd 19 a5 44 3c
       0.67591935 0.021941617 -0.07323928 0.012002253
0003c0 a8 ba 6d 3d 0b e4 1d 3f 61 4b 2b 3f ef 6a 38 be
       0.058039337 0.6167609 0.66911894 -0.18009542
0003d0 2f a7 c5 3d 83 01 7b be d5 d4 2c 3f 3e 0a f4 3e
       0.09651028 -0.24512295 0.67512256 0.47664064
0003e0 ff 25 25 3e a1 9a c5 3d 48 e0 95 be ee 4e fb 3e
       0.16127776 0.09648634 -0.29272676 0.49083656
0003f0 0d d7 3e 3f 82 05 08 bd 07 6a e6 bd bd ce 2d bf
       0.7454689 -0.033208378 -0.11250692 -0.6789358

model.0.bias f4 [128]
000000 d7 62 1e 3f 7d ac 42 be 69 3f 1d 3f 53 7c 2f bc
       0.6186957 -0.19011112 0.6142488 -0.010710794
000010 f3 62 45 3f 9e 7b 2b 3f c1 65 88 3e f1 19 3b 3e
       0.7710411 0.669855 0.26640132 0.18271615
000020 1e d7 04 3f 69 14 c0 bd b4 31 e1 3e 95 5b fb 3e
       0.5189074 -0.09378893 0.43983233 0.4909331
000030 a9 dd 50 3e 3e b4 1d 3f 6f 83 25 3f bc ba 0c 3f
       0.20397057 0.6160315 0.64653677 0.54972434
000040 1d 9b 77 3e 99 a6 0f 3f f7 50 a7 3e 7d c9 17 3d
       0.24180265 0.5611358 0.3267896 0.03705739
000050 63 7d 3b 3e c8 56 9c 3d 70 90 6d 3f 52 4e 61 3e
       0.1830955 0.0763374 0.9279852 0.22002533
000060 f4 41 1c be c9 a3 b7 3c 01 eb ae 3e 48 88 34 bc
       -0.15259534 0.022416966 0.3416367 -0.01101882
000070 9f 11 27 3f 05 cd bc 3d ea c9 4c 3e 3f 6c b3 3d
       0.6526126 0.09218792 0.19998899 0.08760881
000080 0a 8a 18 3f a8 b4 57 3e bf 67 03 3f 3f ad 6d 3d
       0.5958563 0.21065009 0.5133018 0.05802655
000090 95 91 33 3f 31 7c 62 3d 17 cc 51 3f 27 1f e9 3e
       0.70144016 0.05529422 0.8195204 0.4553158
0000a0 b7 95 be 3e fe 98 0d bc 0b cf 59 3f f0 23 ba 3e
       0.37223598 -0.008642433 0.8508155 0.36355543
0000b0 99 f3 51 3f 73 14 88 3e cb fc b1 3e fa 27 36 3f
       0.82012326 0.26578102 0.34763178 0.7115475
0000c0 02 37 0b 3f 1f be 4b 3f 41 e3 ea 3e e1 af 42 be
       0.5438081 0.79586977 0.45876506 -0.19012405
0000d0 38 c0 70 3e 68 86 1b 3d f0 ec 42 3f 8b 3d 2b 3f
       0.23510826 0.037969977 0.7614279 0.6689078
0000e0 24 98 6a 3e 72 56 30 3f cf 9a 33 bd 8d 09 be bd
       0.229096 0.68881905 -0.04384881 -0.092791654
0000f0 e3 e5 86 3e 41 b7 3e 3f 2c 10 39 3d 5b 44 13 3f
       0.26347265 0.74498373 0.04518144 0.5752618
000100 6d 49 35 3f d8 e2 34 3f 19 5d 91 3e 56 5f 71 3e
       0.70815164 0.70658636 0.2839134 0.23571524
000110 38 58 f3 bd 00 93 27 3f cf a9 49 3e e8 2d c6 3e
       -0.11882061 0.6545868 0.19693683 0.387069
000120 52 62 7a bd 7e 6a 1c 3f 61 23 3d 3f 0c 7f 04 be
       -0.06112892 0.61099994 0.7388211 -0.1293909
000130 0a 2a 55 3f 20 08 22 3f 71 ec b6 3e 27 a7 32 3f
       0.8326727 0.6329365 0.35727265 0.69786304
000140 bd 7f 53 3f 4d 77 18 3f eb 96 43 be ea 85 af bd
       0.8261679 0.5955704 -0.1910054 -0.08570464
000150 b2 7d 17 3e c0 3a 05 3f 46 57 f4 3d cc 7d 14 3f
       0.14794043 0.5204277 0.119307086 0.5800445
000160 2e 3f c5 3e df 57 55 3e 76 06 d6 3e aa a8 2f 3f
       0.38524765 0.20834301 0.41801804 0.68616736
000170 3c 07 3d 3e fb d0 81 3e bd 2c 18 3f 2d 6f 6e 3e
       0.18459791 0.25354752 0.59443265 0.23284598
000180 53 99 1f 3f 41 38 c4 bd c1 0e 01 be a4 18 aa 3e
       0.6234333 -0.09581042 -0.12603284 0.33221924
000190 d7 8c c1 3e 7a fd d1 be 52 e7 42 3f 0f 5b f9 3e
       0.37802765 -0.410137 0.76134217 0.48702285
0001a0 22 29 13 3e a2 a0 47 3f 5b a0 2c be 61 70 04 3f
       0.1437116 0.7797948 -0.16858046 0.51733977
0001b0 2c bd 38 3f b5 01 2a 3f c7 d1 25 3f 08 23 43 3f
       0.72163653 0.66408855 0.6477322 0.7622533
0001c0 d4 05 47 3f 02 c0 98 3e 16 4b c7 3d fd ec 54 3d
       0.7774327 0.2983399 0.097311184 0.051983822
0001d0 c6 c0 10 3f e6 8c da 3e ef 31 a9 bc 2b ef 42 3f
       0.5654415 0.42685622 -0.020653693 0.7614619
0001e0 ea 3c 36 3f 98 22 f4 bd 32 2e f9 bc 96 d8 3c 3f
       0.711867 -0.11920661 -0.030417535 0.73767984
0001f0 1b d0 d7 3e 94 67 65 3e 64 7c 89 3e c1 d0 1d 3f
       0.4215096 0.22402793 0.26852715 0.6164666

model.2.weight f4 [64, 128]
000000 c7 d2 27 bc 4a b0 93 3d 90 73 c1 bd 9a 2c 73 3d
       -0.010243124 0.07211359 -0.0944587 0.059368707
000010 46 75 0a bd 43 e0 a0 bc 2a 53 62 3d 31 d5 b3 bd
       -0.033803247 -0.019638186 0.055255093 -0.087808974
000020 ec d0 89 bc a7 c7 b6 bb 09 07 87 3c dd 0c 12 bb
       -0.016823255 -0.0055779996 0.016482847 -0.00222855
000030 96 06 15 3d cd 99 64 3d 88 3f cd bd 1d d7 50 bd
       0.036383234 0.05581074 -0.10021883 -0.050986398
000040 b8 c4 bd 3c 4a 25 a4 bc 78 23 c8 bc bd 7f 9a bd
       0.023165092 -0.020037312 -0.024430975 -0.075438954
000050 a6 31 ca bd 4d 04 90 bd 73 74 40 3d 52 fc 7b 3d
       -0.09872751 -0.0703207 0.046986055 0.06151993
000060 57 a6 c1 bd e1 92 14 3c b0 df 9b bc 18 f2 ac bd
       -0.09455555 0.009068222 -0.019027561 -0.08444613
000070 e0 49 06 3d ed 99 91 3d b0 99 57 bd a2 65 f9 bc
       0.032785296 0.07109437 -0.052636802 -0.03044397
000080 62 2b c7 bd 5f 9a d6 3c 7d 12 7f bc 1c 23 96 bd
       -0.097250715 0.026196657 -0.015568373 -0.07330915
000090 66 17 1c 3d a0 ef 4c bc fd 8e c4 bd 77 9e 23 3d
       0.038108252 -0.012508303 -0.09597585 0.039946046
0000a0 b4 a9 a4 bd 39 78 91 bd 79 e4 2a 3c 37 ec 62 bd
       -0.08040181 -0.07103009 0.010430449 -0.055401053
0000b0 e9 6f 72 3c 04 72 ec bc 0a 44 42 bc 07 19 90 3c
       0.014797189 -0.02886296 -0.011857042 0.017590059
0000c0 33 bd 88 3d b5 ca 9a bd 8a 2b 88 3d cb bd 81 bd
       0.06676712 -0.075581945 0.066489294 -0.06335028
0000d0 97 6f a1 3b 8d eb b2 bd b5 1f 93 3d b2 c9 b0 3c
       0.0049266326 -0.08736334 0.07183782 0.02158055
0000e0 b9 fd 20 3d d1 33 73 3d 01 82 4d 3c 21 a2 8a bd
       0.03930447 0.059375588 0.012543202 -0.06769205
0000f0 87 c1 73 bb de a5 a1 bd ec 5f f1 3b 10 a4 af bc
       -0.0037194209 -0.07892965 0.007366171 -0.021440536
000100 2e 8b 5e ba fc d5 97 bd 8b 56 e5 3c f7 3c ce bd
       -0.00084893673 -0.07413861 0.027995368 -0.10070222
000110 a4 10 a2 bd 35 9b 55 bd c7 2c e6 3b ed 93 7f 3d
       -0.0791333 -0.05214997 0.007024381 0.062396932
000120 89 42 4e 3d 41 c5 a6 3c 0d 98 5e bc b1 88 6a bb
       0.05035642 0.02035773 -0.013586056 -0.003578704
000130 2b bf 86 bc fb e0 79 3d 7c 66 94 3d 50 e8 45 3d
       -0.016448578 0.061005574 0.0724611 0.048317254
000140 2c 50 a1 bd d5 ba 88 bd cf db b7 bd 53 04 8c 3c
       -0.0787662 -0.066762604 -0.08977472 0.017091906
000150 2c 7c 66 3c 4e 2d 9a bb 16 4e 72 3d fd 59 bf bd
       0.014067691 -0.004705108 0.0591565 -0.09343336
000160 91 ce 87 3d 07 85 59 bd 23 e2 53 bd f4 55 c3 bd
       0.06631196 -0.05310538 -0.051729333 -0.09537879
000170 05 1b 3f bc ed 74 b5 bc 5c 8d fe bc 42 79 a7 3c
       -0.011664157 -0.022150481 -0.031073265 0.020443562
000180 a8 06 97 bc 3b 21 83 3a 48 13 e4 bc 6c b6 ae bd
       -0.018435791 0.001000441 -0.027841225 -0.08530888
000190 ab 7f bd bd 08 d8 b2 bd 86 26 aa bd 7a f0 8a bc
       -0.09252866 -0.08732611 -0.08308129 -0.016960371
0001a0 5b c7 aa bd 29 ba 02 3d 47 f8 87 3d 37 15 79 bc
       -0.08338805 0.031915817 0.06639152 -0.015202812
0001b0 a7 45 9f bd f6 c3 51 3d 15 20 41 bd 23 3e c8 bd
       -0.07776957 0.051212274 -0.047149736 -0.09777477
0001c0 b8 47 1b 3d 55 86 15 3d d6 93 b6 bd fe 9d 95 bd
       0.037910193 0.036505062 -0.08914916 -0.07305525
0001d0 c0 f4 c5 3c 7d f6 0a bd 17 82 91 bd 3d 01 b3 3c
       0.024164557 -0.033926476 -0.07104891 0.021851176
0001e0 4d cc 5d bd 75 d1 91 bd 2b 50 19 3d 7c cb 16 3d
       -0.054149915 -0.07120029 0.03742997 0.03681515
0001f0 60 a7 e8 bc 2e ac 97 bd 57 d3 8f 3d 48 94 16 bd
       -0.028400123 -0.074058875 0.07022732 -0.036762506
000200 ca 1b 8e 3e 2d 8c 2f 3e b0 b0 4a 3e c8 8d e7 3d
       0.27755576 0.17143317 0.19793963 0.113063395
000210 da c5 4c 3e 80 3d 8f 3e ca 98 36 3e 57 63 2f 3e
       0.1999735 0.27976608 0.17831722 0.17127739
000220 a7 3f ae 3e b9 ff 35 3e 95 22 88 3e ad a4 84 3e
       0.34032938 0.17773332 0.26588884 0.25906888
000230 d5 88 24 3e 6e 75 5a 3e 3f fe 3c 3e b9 cf 27 3e
       0.16067822 0.21333858 0.18456362 0.16387834
000240 53 20 86 3e 61 11 9d 3e ad 2e a7 3e aa 7c 79 3e
       0.26196536 0.30677322 0.32652798 0.24363962
000250 8c cb 8d 3d af 5f 5e 3e f2 0a 9d 3e 52 3d a7 3e
       0.06923589 0.21716188 0.30672413 0.3266397
000260 24 ba 2f 3e bf 44 e5 3d 44 e7 82 3e ff 02 bd 3d
       0.17160851 0.11194753 0.25567067 0.09229087
000270 31 db 53 3e 73 7b f7 3d 2b d1 ac 3c 43 bf 1b 3e
       0.20689084 0.12084093 0.021095833 0.1520968
000280 25 08 9e 3e f1 15 ae 3d 24 9d 99 3e d3 b3 32 3e
       0.3086559 0.08500279 0.300027 0.1745141
000290 74 59 4f 3e 1a 53 22 3e db ee b2 3e b2 5a 26 3e
       0.20248967 0.15852013 0.34947857 0.16245535
0002a0 d0 17 94 3e aa 11 4c 3e 12 69 ab 3e 98 d1 17 3e
       0.28924417 0.19928613 0.334786 0.14826047
0002b0 29 f7 86 3e 1a 99 8e 3d 27 c8 b2 3e f4 30 71 3e
       0.26360443 0.069627956 0.3491833 0.2355383
0002c0 5e 32 79 3e 74 b7 54 3e db da 77 3e ff 08 de be
       0.2433562 0.20773107 0.2420458 -0.43366238
0002d0 f1 3f 3f 3e aa 6d b0 3d 5f d2 76 3e d4 cc 7d 3e
       0.18676735 0.08614667 0.24103688 0.24785167
0002e0 df 46 71 3e 01 47 a6 3e 90 02 6e be 1b 10 f0 3d
       0.23562191 0.32476047 -0.23243165 0.11721822
0002f0 36 65 46 3e cc dc 85 3e 17 e7 46 3e ee f6 5b 3e
       0.19374546 0.26145017 0.19424091 0.21480915
000300 f5 06 5d 3e 64 b2 92 3e dc 71 94 3e 41 71 76 3e
       0.21584685 0.28651726 0.28993118 0.2406664
000310 3e 8b 00 3e 7f 6b 92 3e 3d a9 40 3e e2 a2 3e 3e
       0.12553117 0.28597638 0.1881456 0.18616822
000320 80 02 b0 3d 8e 36 a4 3e 8e a6 60 3e 1b c1 b6 3d
       0.08594227 0.32072872 0.21938536 0.08923551
000330 7e 89 76 3e 4e 90 80 3e a0 aa 8c 3e 93 98 53 3e
       0.24075887 0.25110096 0.27473927 0.20663671
000340 47 8b b9 3e 85 41 12 3e 45 d6 2f 3d d7 98 bf be
       0.36239073 0.14282806 0.042928953 -0.37421295
000350 d4 49 83 3d a1 fe 02 3e 4b 63 37 3e 31 be 70 3e
       0.06410566 0.12792446 0.17908971 0.23510052
000360 97 a0 a8 3e 7f d4 90 3e 36 c4 b6 3d af 2f a5 3e
       0.3293502 0.28287122 0.08924143 0.32262942
000370 2e 09 ec 3d 4c 45 81 3e a5 e4 91 3e 3b 6f 92 3e
       0.115251884 0.25248182 0.28494754 0.28600487
000380 94 34 64 3e 98 10 0a 3e 18 df 34 bd 0c 12 e7 3d
       0.22285682 0.13482893 -0.04415807 0.11282739
000390 71 29 bd 3d 47 62 90 3d de d0 7c 3e 68 2e 9f 3e
       0.0923642 0.07049995 0.24689052 0.31090093
0003a0 c4 c7 92 ba 2f 3a 83 3e 4c c2 8a 3e b3 25 66 3e
       -0.0011198451 0.25630328 0.27101362 0.22475319
0003b0 33 29 6b 3e 17 fb 5b 3e 02 13 c7 3e 17 ca 6c 3e
       0.22964935 0.21482502 0.3888169 0.23123966
0003c0 27 a3 bc 3e 7a 36 86 3e 2b ed 31 3e 14 9b bf 3d
       0.36843225 0.26213437 0.17375629 0.09355751
0003d0 e6 e6 8e 3e b0 f7 7f 3e 0e b4 31 3e af ac ba 3e
       0.27910537 0.24996829 0.17353842 0.36459872
0003e0 7d 19 c6 3e 55 34 88 bc a6 c1 46 3e 50 75 a3 3e
       0.3869132 -0.016626516 0.19409809 0.3192544
0003f0 93 be a2 3e ec e5 7a 3e d6 a9 6f 3e 33 14 5f 3e
       0.31786022 0.2450177 0.23404631 0.21785049

model.2.bias f4 [64]
000000 df 99 8c 3d c7 de a5 3e 38 78 9c 3e ee b6 b7 3e
       0.06865286 0.32396528 0.3056047 0.35881752
000010 30 6a b6 bd 7f 8c c2 3e f9 51 67 3b bc fe 43 be
       -0.089069724 0.37997815 0.0035296662 -0.19140142
000020 90 c8 5c 3e b1 ea 9e bc 4c f7 5a 3e eb 6a 95 3e
       0.21560884 -0.019399019 0.21383399 0.29183134
000030 45 45 95 3e 3d 13 96 3e 2e 82 00 bd cb d9 59 3e
       0.2915441 0.29311553 -0.03137415 0.21274488
000040 5c f4 2f bc 3b 13 85 3e b9 5c 7b 3c 21 2e 77 3d
       -0.010739412 0.25991234 0.015341931 0.060346726
000050 2f 48 c1 3e 96 bf b2 3e 46 19 8e bc cd 56 4e bd
       0.37750384 0.34911793 -0.017346036 -0.05037575
000060 9e 7d ad 3e cd 47 ac bd 69 db 87 3e b7 c9 09 3d
       0.338849 -0.084121324 0.26534584 0.033639636
000070 7d 40 80 3e d4 15 84 3e 50 04 84 bc 2e 21 56 3e
       0.250492 0.25797904 -0.016115338 0.20911095
000080 18 d8 5c 3e 5a 1c 7e 3e ec 5c 24 bd 78 4b bb 3b
       0.21566808 0.24815503 -0.04012768 0.0057157837
000090 60 3c 03 3b 89 b6 5f 3e f9 52 cf bd 9e 88 81 3e
       0.0020025 0.21846975 -0.10123248 0.25299543
0000a0 f6 b1 da bd 4f 1b 5b 3e 98 aa de 3c 4d f9 62 3e
       -0.106784746 0.21397136 0.027180955 0.22165413
0000b0 6c ee 95 be 81 ad 85 3e ff 4e 8a 3e 83 17 7a 3e
       -0.29283464 0.26108935 0.27013394 0.24423032
0000c0 36 e4 21 3d ff 0a 73 bd e2 d9 63 bd 26 69 4a 3e
       0.03952428 -0.05933666 -0.05562771 0.19766673
0000d0 ea b2 af 3e 11 a0 9d 3e 1c 04 ba bd d7 8a d0 bc
       0.34316188 0.30786183 -0.09082815 -0.025456829
0000e0 62 40 41 3e de df 94 bd 9d ce 94 3e 4c e4 5a bb
       0.18872216 -0.07269262 0.29063883 -0.0033400236
0000f0 02 d0 8d 3d 32 b5 5e 3e dd bb 98 3e f4 6e 4d 3e
       0.0692444 0.21748808 0.29830828 0.20061857

model.4.weight f4 [1, 64]
000000 87 f8 26 bd 36 2a 8c 3e 23 d2 8d 3e 09 b5 83 3e
       -0.040764358 0.27375954 0.27699384 0.25724056
000010 a4 f4 a5 bd fa a7 90 3e d3 ec a2 bd 8d 57 4f bf
       -0.08103302 0.28253156 -0.07955327 -0.80992967
000020 90 e0 a9 3e 3c 77 23 bd cf 9d 8d 3e 3e 95 9a 3e
       0.3317914 -0.039908633 0.2765946 0.30191988
000030 24 09 91 3e ca df b5 3e 17 20 28 bf 19 73 9b 3e
       0.28327286 0.355223 -0.65673965 0.3036125
000040 7f 71 5f bc f8 f3 ab 3e 67 4e 97 bd 49 cf 9c bd
       -0.013637899 0.3358457 -0.07388001 -0.07656724
000050 1f 53 85 3e 7b da a9 3e 17 4a b0 bc 73 7f 7b bc
       0.2603998 0.331745 -0.021519704 -0.0153502105
000060 7d 79 8e 3e b2 48 d0 bd 56 d3 9b 3e 98 ea 78 bd
       0.27827063 -0.101701155 0.30434674 -0.0607706
000070 65 9e a0 3e aa e3 98 3e 85 6c 1c bc 80 e5 a6 3e
       0.31370845 0.29861194 -0.009547357 0.3259697
000080 d8 f9 a5 3e c4 78 ae 3e a5 79 fe be 96 34 9b bd
       0.32417178 0.34076512 -0.49702182 -0.07578389
000090 2f c4 d9 bd a0 84 ab 3e 85 78 61 bd a7 24 9d 3e
       -0.10633122 0.33499622 -0.055046577 0.30692026
0000a0 6e 5c 2b bf a2 c0 a5 3e 8a 0a 8a 39 ff ac 99 3e
       -0.6693791 0.3237353 0.00026329263 0.30014798
0000b0 35 78 69 bf a4 1d 8e 3e b4 6e b0 3e cf 83 9d 3e
       -0.91199046 0.2775699 0.3445946 0.30764624
0000c0 50 fd 75 bd 44 aa b0 bd 72 f4 73 bc cc d3 56 bf
       -0.06005603 -0.086262256 -0.014889823 -0.83916926
0000d0 97 b2 88 3e 5b 4d 97 3e b3 12 d4 bd 6c 7a 74 bd
       0.26698753 0.29551205 -0.10355129 -0.059687063
0000e0 32 ac bb 3e ef 49 e4 bc a2 52 8f 3e 03 3f ba bb
       0.36654812 -0.027867286 0.2799273 -0.005683781
0000f0 23 4f 94 bd 95 8a a7 3e 3d 5c be 3e ac f3 a7 3e
       -0.07241657 0.32722917 0.37179747 0.32803094
