pk_adv.onnx (onnx, 10532 bytes, 2 tensors)

model.2.bias f4 [64]
0	0x3e8c400b	0.2739261
1	0xbcdba2aa	-0.026810963
2	0x3dc041ec	0.093875736
3	0xbc9f6c53	-0.019460833
4	0xbd7a69d5	-0.061136086
5	0x3e73c339	0.2380494
6	0x3e94293a	0.28937703
7	0x3e44d429	0.19221558
8	0x3e74156b	0.23836295
9	0x3da09b02	0.078420654
10	0x3bf9b07b	0.007619915
11	0x3e98da53	0.29854068
12	0xbe05b8a3	-0.13058715
13	0x3ec963f8	0.39334083
14	0x3e2e1b1e	0.17002532
15	0x3e2a524d	0.16632958
16	0x3e9ac18d	0.30225793
17	0x3e70261d	0.23452039
18	0x3e8e4ed8	0.27794528
19	0x3e06e9dc	0.13175148
20	0x3e92d95f	0.28681466
21	0x3e935f21	0.28783515
22	0xbbeaf54e	-0.007170356
23	0x3e6a6cd5	0.22893079
24	0x3eabbd9a	0.33543092
25	0x3e72b6b5	0.2370251
26	0x3ea73802	0.32659918
27	0x3e6c11cc	0.23053664
28	0x3e392f07	0.18084346
29	0x3d8e4bf1	0.069480784
30	0x3e57bed0	0.21068883
31	0x3e8ff80d	0.28118935
32	0x3e21a255	0.15784581
33	0xbe66466a	-0.22487798
34	0x3d9e772d	0.07737575
35	0x3e075719	0.13216819
36	0x3e6815a5	0.22664507
37	0x3df4527e	0.11929797
38	0x3e902bfc	0.28158557
39	0x3dfae983	0.1225157
40	0xbdc336da	-0.095319465
41	0x3e41cc61	0.1892562
42	0x3e9d01e5	0.30665508
43	0x3e23926e	0.15973827
44	0x3e6bd113	0.23028974
45	0x3ea22d44	0.3167516
46	0xbdcafccf	-0.09911501
47	0x3d2d7dea	0.04235641
48	0x3e3d1e5b	0.18468611
49	0x3ea0c4b1	0.31400064
50	0xbd631381	-0.055438522
51	0x3e83332c	0.2562498
52	0x3e43278b	0.19058053
53	0x3e72eca9	0.23723091
54	0xbd57e218	-0.052705854
55	0x3c3bf9b0	0.011473104
56	0x3ea49c27	0.32150385
57	0xbd8a07f1	-0.06739796
58	0x3ea7c6f6	0.32768983
59	0x3e99f596	0.3007018
60	0x3ea8e753	0.32988986
61	0xbcbaaaef	-0.022786586
62	0x3e578cd4	0.21049815
63	0xbd95550a	-0.072916105

model.4.weight f4 [1, 64]
0	0x3eb09251	0.3448663
1	0xbc30e636	-0.010797074
2	0xbf298bb2	-0.66228783
3	0xbd977b2b	-0.07396539
4	0xbd5b79cf	-0.053582963
5	0x3e8355f6	0.2565152
6	0x3e902d65	0.28159633
7	0x3e9fff82	0.31249624
8	0x3e86ae8f	0.26305053
9	0xbf0c84a1	-0.54889876
10	0xb8a642e5	-7.927957e-05
11	0x3e9a4f3c	0.30138576
12	0xbf153931	-0.5829039
13	0xbf4078f7	-0.7518458
14	0xbf0af7b6	-0.54284227
15	0x3e9e8ed5	0.30968347
16	0x3e9d3d4d	0.3071083
17	0x3e817a78	0.2528875
18	0x3ebaa26c	0.36452043
19	0xbf19dea5	-0.60105354
20	0x3e9de3b5	0.3083779
21	0x3ead781d	0.33880702
22	0xbdc93659	-0.09824819
23	0x3ea76bf4	0.3269955
24	0x3e96043e	0.29300112
25	0x3eba002a	0.3632825
26	0x3e9a8929	0.3018277
27	0x3e80bd33	0.25144348
28	0x3eb81485	0.35953155
29	0xbf093907	-0.5360264
30	0x3e9f9dbc	0.3117503
31	0x3eaf1f9a	0.34203798
32	0x3ea81a85	0.32832733
33	0xbf08fcb7	-0.5351061
34	0xbf18e77d	-0.59728223
35	0xbf0c6116	-0.5483564
36	0x3ea924f5	0.33036008
37	0xbef9158a	-0.48649246
38	0x3e91f31b	0.28505787
39	0xbede268c	-0.43388784
40	0xbd5241af	-0.051332172
41	0x3e974690	0.29546022
42	0x3eaff131	0.34363702
43	0x3e99235a	0.29909784
44	0x3e8320dd	0.2561101
45	0x3ea8a2b4	0.32936633
46	0xbab7bde8	-0.0014018388
47	0xbdca3bf8	-0.098747194
48	0x3e89a80c	0.26886022
49	0x3e91c672	0.28471714
50	0xbd99f344	-0.07517102
51	0x3e831aa2	0.25606257
52	0x3ea3cbc8	0.3199141
53	0x3ea5d723	0.323907
54	0xbef60cc1	-0.48056605
55	0xbc1d83cc	-0.009613942
56	0x3e8cb5f2	0.27482563
57	0xbd593788	-0.053031474
58	0x3e9ad61e	0.30241483
59	0x3eb95163	0.36194906
60	0x3e864ba6	0.2622959
61	0xbba3b25d	-0.004995628
62	0x3e8987a4	0.26861298
63	0xbe58d3da	-0.21174565
