pk_no_sex.onnx (onnx, 46163 bytes, 5 tensors)

model.0.weight f4 [128, 5]
0.19797808 0.56697845 0.56253016 0.17894283 0.08219993 0.23593226 0.011538634 0.40349323
0.014545838 0.063542075 0.16488296 0.5277326 0.087581694 -0.24765316 0.12779848 0.2848049
0.3087368 0.12203852 0.044357393 -0.41390932 0.28440535 0.14204562 0.1924015 -0.4616757
-0.15096062 0.06151464 0.15198651 -0.14023905 -0.51749176 -0.08535651 0.13467908 0.6484539
0.3637648 0.17976674 -0.5164429 -0.5202711 0.048552327 0.49400902 -0.13996221 -0.18815795
-0.4814296 0.24669759 0.5425529 -0.25703034 -0.1294059 0.31247437 0.2530986 0.69684285
-0.071749374 -0.24338253 0.5689235 0.014420799 0.31377834 0.0059736758 -0.22329779 0.33336538
-0.086741574 -0.12850657 0.31860098 0.36096713 0.36434513 0.13997461 -0.005083783 0.3248123
-0.33600873 0.14019254 0.56017596 0.6163635 -0.3870034 -0.06441773 -0.14488026 0.55316305
0.45244405 0.20337951 -0.30778593 0.14039168 0.3107908 0.5396217 -0.3800067 -0.09386829
0.123062596 0.44252867 0.23892733 -0.38063243 0.15479809 0.0002737321 0.72040176 0.6223134
-0.08603446 -0.08611877 -0.0076339417 0.46351734 0.3024504 0.15943436 0.18101005 0.21104929
0.45379385 0.42043307 -0.103664406 -0.30231354 -0.46458158 0.2199009 0.43949205 -0.05073678
0.039039638 -0.21193519 0.25576478 0.06758011 0.2539033 0.29437578 0.3731668 0.011762961
0.24925339 -0.42011195 -0.25024733 0.2205071 0.1439571 0.65003663 -0.088084295 -0.40283746
-0.54980075 0.4397601 0.25026128 -0.48553902 0.29001078 -0.08745358 0.21827632 0.19657578
-0.45744497 0.402288 0.22409564 0.3221761 0.3478286 -0.12155568 -0.22991155 0.3816508
-0.25396347 -0.017174527 -0.35585222 0.3854112 0.017617121 0.2048155 0.6318718 -0.12932362
-0.30233437 0.016958674 0.6146371 0.11559486 -0.16039787 -0.23783287 0.040718317 0.48868456
0.5958883 -0.2822719 0.2710909 0.47360116 -0.15875386 0.29564512 -0.35353395 0.26044238
-0.16129237 0.06985776 0.5709817 -0.1895794 0.19566005 0.65411186 -0.07484266 -0.15325984
0.5107455 0.16540217 -0.53157747 0.13871537 0.7287678 -0.03413742 0.032917608 -0.31344807
0.17785938 0.58404833 0.09834295 -0.20786977 -0.58406705 -0.034816008 0.45399916 0.24345498
0.036956854 0.38652742 -0.0004224052 0.65303975 0.3673861 -0.3320843 -0.27980518 0.2602497
0.16434623 -0.49045032 0.36444536 -0.2303917 0.5238847 0.62483925 0.3844384 0.2677148
0.11225622 0.37664062 0.67283696 -0.086299725 -0.3702879 -0.15490167 -0.4722727 -0.073185444
-0.87048763 -0.03767156 0.1597626 0.28530872 0.14734717 -0.53977203 -0.35353354 -0.04630698
0.1816998 0.59666485 0.0034160558 0.07609096 -0.025032787 0.19056487 0.27583244 0.5334726
-0.37853232 0.3061303 0.474142 0.36567265 0.5027381 0.5135083 0.42848268 -0.029823257
0.13966948 0.41301033 0.30769348 -0.08853807 0.42133817 0.54213697 -0.15548404 0.26467076
0.53635085 0.17736253 0.39656273 0.46762556 0.53481925 0.015123395 -0.014138653 0.25472504
-0.1251375 0.13617401 -0.4651411 0.635693 0.6739041 0.31895962 0.076721005 -0.35324934
00000000: c4ba 4a3e 8025 113f fa01 103f ca3c 373e
00000010: 7058 a83d 3a98 713e 8a0c 3d3c aa96 ce3e
00000020: ab51 6e3c 5922 823d 14d7 283e 7c19 073f
00000030: 085e b33d ca98 7dbe 9bdd 023e f3d1 913e
00000040: c012 9e3e 55ef f93d 19b0 353d eceb d3be
00000050: 949d 913e 6874 113e e604 453e c260 ecbe
00000060: 6c95 1abe c6f6 7b3d 5aa2 1b3e d39a 0fbe
00000070: 577a 04bf 65cf aebd 50e9 093e 1301 263f
00000080: 613f ba3e c614 383e 9a35 04bf 7d30 05bf
00000090: cede 463d c0ee fc3e 4152 0fbe 7aac 40be
000000a0: f17d f6be 4b9e 7c3e bfe4 0a3f 7b99 83be
000000b0: fb82 04be a4fc 9f3e 2496 813e 4b64 323f
000000c0: 56f1 92bd 4539 79be f8a4 113f 3745 6c3c
000000d0: 8ea7 a03e d3be c33b 2da8 64be deae aa3e
000000e0: 91a5 b1bd 3a97 03be ab1f a33e afd0 b83e
000000f0: 728b ba3e 8155 0f3e dd95 a6bb cc4d a63e
00000100: 5609 acbe a28e 0f3e b167 0f3f 00ca 1d3f
00000110: 4f25 c6be 71ed 83bd 7e5b 14be 189c 0d3f
00000120: bfa6 e73e b842 503e 1e96 9dbe d6c2 0f3e
00000130: f91f 9f3e a624 0a3f 3d90 c2be 053e c0bd
00000140: 3e08 fc3d 1e93 e23e 5ea9 743e 41e2 c2be
00000150: 6483 1e3e b383 8f39 406c 383f ee4f 1f3f
00000160: d632 b0bd 0a5f b0bd 2526 fabb 2552 ed3e
00000170: c7da 9a3e c342 233e b35a 393e 4e1d 583e
00000180: ab57 e83e 0143 d73e 014e d4bd d7c8 9abe
00000190: a3dd edbe b42d 613e 1a05 e13e 5fd1 4fbd
000001a0: 07e8 1f3d 8a05 59be 9af3 823e 7167 8a3d
000001b0: 9dff 813e 6cb8 963e b80f bf3e 6fb9 403c
000001c0: 483c 7f3e ea18 d7be 6b20 80be 9dcc 613e
000001d0: 7d69 133e cd68 263f 8a65 b4bd b640 cebe
000001e0: bebf 0cbf 3c28 e13e 3f22 803e 9298 f8be
000001f0: 4b7c 943e dd1a b3bd d483 5f3e 294b 493e
00000200: 3a36 eabe b1f8 cd3e 5479 653e 44f4 a43e
00000210: 9716 b23e 2ff2 f8bd ef6d 6bbe bc67 c33e
00000220: 8007 82be 98b1 8cbc 4332 b6be 9e54 c53e
00000230: c851 903c 28bb 513e 5ac2 213f 696d 04be
00000240: 92cb 9abe ebec 8a3c db58 1d3f ffbc ec3d
00000250: 573f 24be 768a 73be 40c8 263d dd34 fa3e
00000260: 238c 183f f185 90be 6dcc 8a3e da7b f23e
00000270: 5f90 22be cc5e 973e 6702 b5be b458 853e
00000280: d429 25be 9611 8f3d db2b 123f 1a21 42be
00000290: 1c5b 483e e073 273f 1c47 99bd 26f0 1cbe
000002a0: 38c0 023f 305f 293e 7615 08bf 670b 0e3e
000002b0: 8790 3a3f aed3 0bbd 9dd4 063d 447c a0be
000002c0: c520 363e 3184 153f 0768 c93d d0db 54be
000002d0: 6b85 15bf 3b9b 0ebd 9472 e83e 434c 793e
000002e0: 1260 173d ece6 c53e 4476 ddb9 9d2d 273f
000002f0: 081a bc3e f406 aabe a042 8fbe 733f 853e
00000300: 614a 283e 4e1c fbbe 9598 ba3e cdeb 6bbe
00000310: 4f1d 063f 77f5 1f3f 1cd5 c43e ea11 893e
00000320: 97e6 e53d 0ad7 c03e 0b3f 2c3f e9bd b0bd
00000330: 6096 bdbe 8b9e 1ebe bacd f1be 40e2 95bd
00000340: 47d8 5ebf 7e4d 1abd cf98 233e fc13 923e
00000350: 2de2 163e 802e 0abf 5902 b5be 63ac 3dbd
00000360: 830f 3a3e 07bf 183f e8df 5f3b 94d5 9b3d
00000370: 8f11 cdbc 7023 433e e939 8d3e a991 083f
00000380: fdce c1be 1cbd 9c3e bdc2 f23e 7239 bb3e
00000390: 72b3 003f 4875 033f 1562 db3e e74f f4bc
000003a0: 8405 0f3e 1776 d33e 008a 9d3e 7353 b5bd
000003b0: a3b9 d73e 7dc9 0a3f 3537 1fbe ed82 873e
000003c0: 4a4e 093f 869e 353e 450a cb3e 9e6c ef3e
000003d0: eae9 083f 1ec8 773c cfa5 67bc 526b 823e
000003e0: 0b24 00be 3371 0b3e f926 eebe c7bc 223f
000003f0: fb84 2c3f ad4e a33e e71f 9d3d 19dd b4be

model.0.bias f4 [128]
0.69076204 0.7103093 0.51558304 0.24377833 0.0402126 0.21927746 -0.07082056 0.27093112
0.6822092 0.6048232 0.72044754 0.5802078 0.27179638 0.39130756 0.08600233 0.17081589
-0.0034186188 -0.12365201 0.7291191 0.034687154 -0.038096543 0.67298865 0.4400664 0.10125153
0.091622375 0.27702624 0.43385297 -0.17092516 0.16471468 0.68911517 -0.09120249 0.18083985
0.41858256 -0.010053314 0.03538457 0.11913444 0.2135697 0.084001906 0.1833615 0.30263525
0.025013264 -0.34007943 0.2780719 0.6571114 0.5839053 0.17939752 0.40163934 0.7135877
-0.06698915 0.52133834 -0.11862271 -0.121539846 0.05955662 0.36014536 0.5316987 0.32094017
-0.24689186 0.672644 -0.10945358 0.16382037 0.7349683 -0.2497035 0.452371 0.2691615
0.5411712 0.053257283 0.41342288 0.44207105 0.09833818 0.32397616 0.44329756 0.61074847
0.104408726 0.33185118 0.70603573 -0.10319446 0.40280193 -0.14313114 0.5631834 0.007853822
0.6800468 0.10150091 0.25068328 0.4146002 0.07438947 0.16324042 0.06454658 0.06423622
0.34672266 0.08477362 0.706352 0.6063675 0.13947192 0.5950329 0.6080595 0.649439
0.35990664 -0.20147072 0.55888677 0.46201807 0.3950086 -0.077337585 0.7124123 0.12208371
0.43203944 -0.07163884 -0.14189169 0.3512317 0.49352315 0.37894905 0.7643244 0.40406758
0.1957556 0.47969773 0.46524152 0.4188022 -0.2761971 0.4228335 0.65237993 0.575347
0.6526871 0.2454591 -0.13821076 0.3150131 0.058184832 0.5396946 0.6570611 -0.010246
00000000: c8d5 303f d5d6 353f 40fd 033f 07a1 793e
00000010: f8b5 243d 458a 603e 5f0a 91bd 7cb7 8a3e
00000020: 43a5 2e3f b1d5 1a3f 406f 383f 8088 143f
00000030: e528 8b3e 7759 c83e fd21 b03d 5cea 2e3e
00000040: e80a 60bb 443d fdbd 8da7 3a3f 1e14 0e3d
00000050: 1f0b 1cbd fc48 2c3f 6250 e13e f65c cf3d
00000060: 83a4 bb3d 62d6 8d3e fa21 de3e 0107 2fbe
00000070: f7aa 283e da69 303f 5fc8 babd 152e 393e
00000080: 7450 d63e a8b6 24bc 69ef 103d c2fc f33d
00000090: 04b2 5a3e 3109 ac3d 1ec3 3b3e 02f3 9a3e
000000a0: 9ee8 cc3c e41e aebe 715f 8e3e 7438 283f
000000b0: d17a 153f fcb3 373e aca3 cd3e afad 363f
000000c0: 9c31 89bd 6e76 053f 77f0 f2bd e2e9 f8bd
000000d0: a4f1 733d f964 b83e 681d 083f 4552 a43e
000000e0: 38d1 7cbe 6632 2c3f 3329 e0bd 87c0 273e
000000f0: e226 3c3f 46b2 7fbe 2c9d e73e 89cf 893e
00000100: 328a 0a3f 4f24 5a3d 2aac d33e 2357 e23e
00000110: 8765 c93d 34e0 a53e e6f7 e23e 035a 1c3f
00000120: 3ed4 d53d 66e8 a93e c2be 343f 9e57 d3bd
00000130: 0e3c ce3e f890 12be ca2c 103f 51ad 003c
00000140: 8c17 2e3f b6df cf3d 8f59 803e 7a46 d43e
00000150: 8259 983d 7f28 273e ff30 843d 488e 833d
00000160: a285 b13e cb9d ad3d 7cd3 343f e73a 1b3f
00000170: bad1 0e3e 1354 183f caa9 1b3f a241 263f
00000180: af45 b83e 574e 4ebe 3413 0f3f a28d ec3e
00000190: 913e ca3e 2b63 9ebd a760 363f 0607 fa3d
000001a0: 4634 dd3e 62b7 92bd 0e4c 11be a4d4 b33e
000001b0: 11af fc3e 9c05 c23e c4aa 433f f2e1 ce3e
000001c0: 2874 483e f19a f53e 2334 ee3e 3e6d d63e
000001d0: b569 8dbe a27d d83e 5f02 273f f149 133f
000001e0: 8016 273f a159 7b3e 1f87 0dbe 6649 a13e
000001f0: 3853 6e3d 6d29 0a3f 2835 283f d7de 27bc

model.2.weight f4 [64, 128]
0.31005117 0.24045335 0.22638148 0.23648068 0.23074427 0.15751387 0.27293375 0.17575054
0.1806865 0.1795229 0.29620704 0.21402714 0.18196735 0.2872389 0.22713201 0.22017111
0.294319 0.30062214 0.28157976 0.21545304 0.23719548 0.18617289 0.17202625 0.16116163
0.22695944 0.29697737 0.27305758 0.0058834474 0.22682656 0.32201132 0.3248182 0.14441593
0.2688341 0.15836854 0.27517697 0.20890382 0.31837893 0.14720884 0.3039735 0.31419525
0.29368192 -0.20358545 0.2840833 0.19757394 0.21832658 0.18793261 0.19155703 0.2699565
0.21921122 0.22927599 0.31899676 0.2347925 0.11657322 0.1875943 0.15143122 0.25744155
0.21040699 0.35782793 -0.11683947 0.16510764 0.29281464 0.01877262 0.28714323 0.27597073
0.21585046 0.16967574 0.2332257 0.23377098 0.1727264 0.13073553 0.25200966 0.19884636
0.31388658 0.29536444 0.33491945 0.1764041 0.20251325 -0.26893854 0.28309432 0.25891447
0.31583706 0.3013712 0.2995037 0.22682162 0.22106923 0.27284345 0.17182498 0.1247264
0.10089805 0.15435816 0.22068174 0.2341151 0.20046192 0.25330725 0.23138559 0.20271614
0.17591996 0.30157933 0.2824157 0.21430846 0.30732867 0.27418703 0.2912201 -0.098452844
0.30517998 0.2432391 0.19635278 0.30641228 0.1775587 0.3073606 0.28278905 0.31811494
0.21255097 0.20041856 0.20050754 0.25431716 -0.2534063 0.27890003 0.21367669 0.3168692
0.22623003 0.27796137 0.18458189 -0.08711331 0.27569687 0.28612828 0.31571767 0.3583653
0.18305105 0.3133103 0.2896878 0.18287206 0.09326609 0.14388847 0.23415582 0.30000865
0.31749716 0.20243706 0.25251338 0.208661 0.085744746 0.23098414 0.20812263 0.2853409
0.3259824 0.1910771 0.2167844 0.29290667 0.2801186 0.3119001 0.24356903 0.24732557
0.31315345 0.30679977 0.26098627 -0.019221453 0.20913254 0.23131293 0.24326943 0.08808289
0.2101176 0.07517314 0.2002875 0.2989458 0.30197397 0.2346266 0.27973142 0.29242504
0.28441876 -0.12180555 0.2054745 0.24416314 0.26086047 0.16209164 0.17317961 0.15908545
0.11827701 0.25529718 0.2762529 0.35260817 0.22239132 0.2699222 0.23101266 0.32274047
0.36971608 0.24429041 -0.1368541 0.2844997 0.27649194 0.10072431 0.20616685 0.20190865
0.30953258 0.077734575 0.16844857 0.31222543 0.20591867 0.11830708 0.18706895 0.29749516
0.24293531 0.29911503 0.16189794 0.24575846 0.1609362 -0.29042295 0.2853373 0.16199182
0.21965773 0.25012317 0.25985968 0.27718654 0.1727498 0.24238166 0.2541546 0.21594605
0.12497113 0.17374653 0.110540666 0.14270094 0.15471227 0.25349545 0.20625624 0.3128451
0.20239773 0.23938638 0.2983874 0.17555347 0.21542895 0.34710488 0.28775826 -0.08229631
0.17044601 0.22622465 0.2522097 0.21690501 0.21874908 0.3090813 0.1589193 0.30549338
0.25860736 0.19206849 0.29047722 0.19157901 -0.24958216 0.16177917 0.21090251 0.3015515
0.2917789 0.29479983 0.19943811 -0.06569728 0.31231996 0.28833562 0.21010114 0.24116568
00000000: 07bf 9e3e 6739 763e 8cd0 673e fe27 723e
00000010: 3a48 6c3e 514b 213e f9bd 8b3e f3f7 333e
00000020: e205 393e dad4 373e 73a8 973e ee29 5b3e
00000030: a655 3a3e fa10 933e 4b95 683e 8974 613e
00000040: fbb0 963e 25eb 993e 392b 903e b99f 5c3e
00000050: 5fe3 723e 1ba4 3e3e a627 303e 8e07 253e
00000060: 0e68 683e 6b0d 983e 34ce 8b3e efc9 c03b
00000070: 3945 683e abde a43e 924e a63e c5e1 133e
00000080: a0a4 893e 5d2b 223e ffe3 8c3e e2ea 553e
00000090: 9002 a33e eabd 163e 6aa2 9b3e 33de a03e
000000a0: 7a5d 963e b478 50be 5e73 913e d350 4a3e
000000b0: 0191 5f3e 6871 403e 8727 443e bd37 8a3e
000000c0: e878 603e 53c7 6a3e 8b53 a33e 726d 703e
000000d0: f1bd ee3d b818 403e c910 1b3e 61cf 833e
000000e0: ee74 573e 3935 b73e 8849 efbd fa11 293e
000000f0: cdeb 953e 0ac9 993c 7004 933e 094c 8d3e
00000100: e707 5d3e 7abf 2d3e b8d2 6e3e a961 6f3e
00000110: 30df 303e 89df 053e 6907 813e 619e 4b3e
00000120: beb5 a03e 023a 973e 907a ab3e 47a3 343e
00000130: a25f 4f3e 50b2 89be bdf1 903e 7090 843e
00000140: 65b5 a13e 534d 9a3e 8d58 993e ed43 683e
00000150: f95f 623e 23b2 8b3e e3f2 2f3e 8e70 ff3d
00000160: a3a3 ce3d 1110 1e3e 65fa 613e debb 6f3e
00000170: e445 4d3e 7db1 813e 58f0 6c3e d294 4f3e
00000180: 5d24 343e 9b68 9a3e ca98 903e ad73 5b3e
00000190: 2f5a 9d3e 3e62 8c3e cd1a 953e a5a1 c9bd
000001a0: 8d40 9c3e ac13 793e b410 493e 12e2 9c3e
000001b0: f3d1 353e 5e5e 9d3e bac9 903e f6df a23e
000001c0: f6a6 593e 863a 4d3e d951 4d3e dc35 823e
000001d0: 78be 81be fccb 8e3e 10ce 5a3e ae3c a23e
000001e0: d8a8 673e f450 8e3e 0903 3d3e 7768 b2bd
000001f0: 2428 8d3e 687f 923e bfa5 a13e a87b b73e
00000200: bc71 3b3e 356a a03e f651 943e d042 3b3e
00000210: 4b02 bf3d 8057 133e 8bc6 6f3e bc9a 993e
00000220: fd8e a23e a94b 4f3e 6f49 813e 3bab 553e
00000230: f19a af3d 1b87 6c3e 191e 553e 3418 923e
00000240: 2ae7 a63e b7a9 433e bbfc 5d3e ddf7 953e
00000250: b56b 8f3e 5fb1 9f3e 296a 793e ea42 7d3e
00000260: a655 a03e dc14 9d3e fe9f 853e 4f76 9dbc
00000270: d726 563e 4cdd 6c3e 9f1b 793e cd64 b43d
00000280: 1129 573e 60f4 993d 2b18 4d3e 6d0f 993e
00000290: 559c 9a3e f541 703e f538 8f3e bcb8 953e
000002a0: 569f 913e 3075 f9bd e867 523e e705 7a3e
000002b0: 818f 853e 5afb 253e ff55 313e 4ce7 223e
000002c0: 383b f23d 50b6 823e 0571 8d3e 0f89 b43e
000002d0: 8dba 633e 3e33 8a3e 958e 6c3e 3d3e a53e
000002e0: 6d4b bd3e 4427 7a3e 7b23 0cbe f2a9 913e
000002f0: 5a90 8d3e 8c48 ce3d 671d 533e 24c1 4e3e
00000300: 0e7b 9e3e 4e33 9f3d c87d 2c3e 03dc 9f3e
00000310: 58dc 523e fb4a f23d 018f 3f3e 4951 983e
00000320: 09c4 783e 9b25 993e 93c8 253e 1ba8 7b3e
00000330: 76cc 243e 51b2 94be bb17 923e 2fe1 253e
00000340: f5ed 603e 2510 803e 540c 853e 65eb 8d3e
00000350: 53e5 303e e632 783e 8d20 823e f620 5d3e
00000360: ddf0 ff3d 9cea 313e 2563 e23d 3220 123e
00000370: e56c 1e3e 28ca 813e d634 533e 3c2d a03e
00000380: 5a41 4f3e b421 753e 3cc6 983e 4ac4 333e
00000390: 6899 5c3e bbb7 b13e 0d55 933e f88a a8bd
000003a0: 6689 2e3e 6fa7 673e a121 813e 591c 5e3e
000003b0: c2ff 5f3e e73f 9e3e bebb 223e a169 9c3e
000003c0: 2f68 843e 9aad 443e 6eb9 943e 4a2d 443e
000003d0: 7792 7fbe 70a9 253e d4f6 573e f564 9a3e
000003e0: 0b64 953e 01f0 963e 8139 4c3e 4c8c 86bd
000003f0: 67e8 9f3e baa0 933e c124 573e 23f4 763e

model.2.bias f4 [64]
0.28932196 0.09804508 -0.022945404 0.14946344 -0.08096046 -0.037579715 -0.014280678 -0.06951782
0.12096689 0.21761893 0.039760195 -0.027212866 0.2496108 -0.09619726 -0.0078077237 0.024953565
0.16552192 -0.03634082 0.1669057 -0.090917334 0.23428293 -0.055105682 0.1896624 0.1749282
0.2522027 0.15263991 0.26484194 -0.03372061 0.015340153 0.24779144 0.16128397 -0.05618884
-0.019159101 -0.004614085 0.13633001 -0.019228159 0.039881952 0.05960446 0.0021604528 0.2718528
0.24043322 -0.036845747 0.27514097 0.058005385 -0.018947719 0.14140467 0.15820202 0.03741689
0.05778519 -0.06304137 0.255628 0.15932533 0.22016115 0.026239598 0.20202017 0.26256168
0.14084914 0.1250462 0.10494516 0.18637343 0.15000527 -0.0083194515 0.12259493 0.24954924
00000000: 0222 943e dccb c83d 00f8 bbbc f20c 193e
00000010: 99ce a5bd 30ed 19bd 81f9 69bc 5c5f 8ebd
00000020: 7dbd f73d 7fd7 5e3e 96db 223d 84ed debc
00000030: f999 7f3e 1203 c5bd efd7 ffbb 6b6b cc3c
00000040: 947e 293e 1dda 14bd 54e9 2a3e de32 babd
00000050: dde7 6f3e 7fb6 61bd dc36 423e 6120 333e
00000060: b620 813e a34d 1c3e 5d99 873e 9f1e 0abd
00000070: 4455 7b3c 0abd 7d3e a027 253e 4526 66bd
00000080: 8cf3 9cbc c031 97bb 189a 0b3e 5f84 9dbc
00000090: 425b 233d ce23 743d 6296 0d3b 4a30 8b3e
000000a0: 2034 763e 91eb 16bd 47df 8c3e 0e97 6d3d
000000b0: 3f38 9bbc 63cc 103e b6ff 213e 7442 193d
000000c0: 2ab0 6c3d d51b 81bd ace1 823e 2e26 233e
000000d0: ed71 613e 6df4 d63c 60de 4e3e 7c6e 863e
000000e0: c23a 103e 1c0c 003e 7ded d63d add8 3e3e
000000f0: fb9a 193e 4f4e 08bc 0d13 fb3d d689 7f3e

model.4.weight f4 [1, 64]
0.28211138 0.33291665 -0.022901218 0.35065752 -0.03841069 -0.06346386 -0.38111025 -0.07408371
0.33440775 0.2837191 -0.08544704 -0.020181097 0.30164105 -0.076661274 0.0037770132 -0.082664296
0.37319297 -0.026118208 0.26543313 -0.031617787 0.27742597 -0.7106102 0.35216796 -0.4514032
0.36734155 0.3677052 0.32948846 -0.030785484 -0.62799895 0.3683695 0.3633107 -0.5352716
-0.0816958 -0.072596766 0.29960027 -0.4838846 -0.07870076 -0.03270622 -0.067758285 0.37449086
0.36966327 -0.08379681 0.31829548 -0.5875443 -0.08791592 0.32740822 0.28163257 -0.10594402
-0.066158816 -0.07015017 0.37122145 0.27426058 0.2669977 -0.06167217 0.3724969 0.2660908
0.3361826 -0.47762874 0.36683065 0.3195265 0.30152878 -0.054674417 0.29076698 0.3483972
00000000: e770 903e 0d74 aa3e 569b bbbc 6289 b33e
00000010: 8754 1dbd 57f9 81bd e220 c3be 33b9 97bd
00000020: 7e37 ab3e a143 913e dcfe aebd d452 a5bc
00000030: b270 9a3e 9600 9dbd c487 773b e64b a9bd
00000040: 2613 bf3e daf5 d5bc dae6 873e a781 01bd
00000050: c70a 8e3e 8dea 35bf 5c4f b43e 521e e7be
00000060: 3114 bc3e db43 bc3e b6b2 a83e d731 fcbc
00000070: 8ac4 20bf ed9a bc3e dc03 ba3e 8f07 09bf
00000080: 2150 a7bd 9dad 94bd 3565 993e b9bf f7be
00000090: dd2d a1bd f5f6 05bd dbc4 8abd 44bd bf3e
000000a0: 8144 bd3e a99d abbd a0f7 a23e 4e69 16bf
000000b0: 430d b4bd 0da2 a73e 2532 903e 2ef9 d8bd
000000c0: 467e 87bd e4aa 8fbd bd10 be3e e26b 8c3e
000000d0: ecb3 883e f59b 7cbd eab7 be3e 0e3d 883e
000000e0: 2020 ac3e c18b f4be 3ad1 bb3e fa98 a33e
000000f0: fb61 9a3e 48f2 5fbd 69df 943e 1e61 b23e
