pk_no_sex.onnx (onnx, 46163 bytes, 5 tensors)

model.0.weight f4 [128, 5]
0	0x3f1de263	0.61673564
1	0x3e5bf96c	0.21481866
2	0x3d84c445	0.06482748
3	0x3ef76cbf	0.48325154
4	0x3ec3cb81	0.382412
5	0x3de4f2d2	0.11179127
6	0x3e10fc43	0.1415873
7	0x3ee06693	0.43828258
8	0xbee6353d	-0.44962493
9	0xbecb856c	-0.3975023
10	0x3eae7e9a	0.34080964
11	0x3eae2fc3	0.34020814
12	0xbce34192	-0.027741227
13	0x3ee0a46a	0.43875438
14	0x3f06eb52	0.5270282
15	0xbeb24076	-0.34814805
16	0x3e441541	0.19148733
17	0x3f0f63bc	0.5601156
18	0x3e57ff4a	0.21093479
19	0xbe6e41b2	-0.23267248
20	0x3ec6621f	0.38746735
21	0x3dcaf498	0.09909934
22	0x3e2cacb1	0.16862752
23	0x3f02b764	0.5106108
24	0xbe808188	-0.25098825
25	0xbf0bcbe1	-0.5460797
26	0x3ea66dd4	0.32505667
27	0x3ed18b77	0.40926716
28	0xbda65878	-0.08122343
29	0x3d3b9f1d	0.04580604
30	0xbe7b5c47	-0.2454692
31	0x3ebcb39d	0.36855784
32	0x3ea58b55	0.32332864
33	0x3ed137f0	0.4086299
34	0x3ec55fbc	0.38549602
35	0x3dba57ee	0.090988025
36	0x3ebb7137	0.36609814
37	0xbd8ddb3c	-0.06926581
38	0x3e418ec9	0.18902124
39	0x3e98ea15	0.2986609
40	0xbf27682f	-0.65393347
41	0xbd19b0c9	-0.03752211
42	0x3f12dcaf	0.57367986
43	0x3eb86a0f	0.36018416
44	0xbeb7c1a4	-0.35889924
45	0xbf0c983f	-0.5491981
46	0x3cebb98e	0.028775003
47	0x3f0fe4ab	0.56208295
48	0x3ed609d5	0.41804376
49	0xba92bba8	-0.0011194842
50	0xbf133c32	-0.57513726
51	0xbd4be31c	-0.049777135
52	0x3f28d3c4	0.6594813
53	0x3e84d305	0.25942245
54	0x3e03a814	0.12857085
55	0xbee51c54	-0.44748175
56	0xbe40cb57	-0.18827568
57	0x3eab06c9	0.33403614
58	0xbe9c681f	-0.30548188
59	0x3ed10bdd	0.40829363
60	0x3f069aee	0.52580154
61	0x3e4d0f32	0.20025328
62	0x3e1a14f0	0.1504705
63	0x3edf6bca	0.43636924
64	0x3e8db8c5	0.2768003
65	0x3e2e1ffb	0.17004387
66	0x3f1293f4	0.5725701
67	0x3e41ae23	0.18914084
68	0x3df94755	0.12171809
69	0xbcc97dbd	-0.02459609
70	0x3d175105	0.0369425
71	0x3edf34d3	0.4359499
72	0x3e739cd0	0.23790288
73	0x3ec7bb16	0.39009923
74	0x3e71b800	0.23605347
75	0x3e63c151	0.22241713
76	0x3ebafbcd	0.36520234
77	0x3f351e2d	0.7074917
78	0x3d042f00	0.032271385
79	0x3e944744	0.2896062
80	0x3f0035e7	0.5008225
81	0xbdc7083a	-0.09718366
82	0xbc2a8c68	-0.010409452
83	0x3c3fb8b9	0.011701756
84	0x3e7854bd	0.24251075
85	0xbeff9501	-0.49918368
86	0x3e7315b5	0.2373875
87	0x3f19deb5	0.6010545
88	0xbddfe9cf	-0.10933267
89	0xbe71d2a9	-0.23615517
90	0xbb3bf8d7	-0.0028682256
91	0x3f083c34	0.5321686
92	0xbcb3c7e2	-0.021945897
93	0xbd673f2f	-0.05645674
94	0xbeae798b	-0.34077105
95	0x3e2aa86d	0.16665812
96	0x3ec42e9b	0.38316807
97	0x3e388cb7	0.18022428
98	0xbed246a3	-0.41069517
99	0x3e543ed6	0.20727095
100	0x3eeb29e6	0.45930403
101	0x3e413d01	0.18870927
102	0x3f1a8ce3	0.60371226
103	0xbe4498d7	-0.19198929
104	0x3f067e54	0.5253651
105	0xbf15b182	-0.5847398
106	0xbd992fe5	-0.07479838
107	0x3eae1570	0.3400073
108	0xbeb826b9	-0.35967043
109	0xbf013f42	-0.5048715
110	0x3e1a128c	0.15046138
111	0x3ec0a3f5	0.3762509
112	0x3e4f0b6e	0.20219204
113	0xbd030e57	-0.031996097
114	0xbf0ca941	-0.5494576
115	0x3e08b1d4	0.13349086
116	0x3f28d978	0.6595683
117	0x3dd2dd87	0.10296159
118	0x3ef337ae	0.47503418
119	0xbe658096	-0.22412333
120	0x3e5d46ea	0.21609083
121	0xbd37eee5	-0.044905562
122	0xbdcdd81f	-0.100509875
123	0xbf0ced29	-0.5504938
124	0x3f0be967	0.5465302
125	0xbe9507c9	-0.29107502
126	0x3e621169	0.22076954
127	0x3f0ae171	0.54250246
128	0x3ecb8cdb	0.39755902
129	0x3e91cadb	0.2847508
130	0xbe4b3780	-0.1984539
131	0x3e3a9eb8	0.18224609
132	0x3f09a993	0.53774375
133	0xbe8c7aec	-0.27437532
134	0xbea392d7	-0.31947967
135	0x3e487a9f	0.19578026
136	0x3c8aae07	0.016928686
137	0x3d717cc4	0.058956876
138	0xbe3f6ca6	-0.1869379
139	0x3eb7a36f	0.35866877
140	0x3cb0546e	0.021524634
141	0x3ec38431	0.38186792
142	0x3e05f3fb	0.13081352
143	0xbe6dede8	-0.23235285
144	0xbe8b928c	-0.27260244
145	0x3e51497f	0.20438193
146	0x3efe5215	0.49672
147	0x3ebaafbd	0.36462203
148	0x3ec0642e	0.3757643
149	0xbed0ba92	-0.40767342
150	0xbe111192	-0.14166859
151	0x3f14c920	0.5811939
152	0x3f372817	0.7154555
153	0xbee42d1f	-0.44565675
154	0x3eab6d42	0.33481795
155	0x3cac4a90	0.021031648
156	0xbd6950ad	-0.056961704
157	0x3eb1594b	0.34638438
158	0x3ecf12b0	0.40443945
159	0x3f13f15e	0.5779017
160	0xbc110833	-0.0088520525
161	0x3ec65072	0.3873325
162	0x3ef4b5ab	0.47794852
163	0x3d048478	0.032352895
164	0xbdff4118	-0.124635875
165	0x3e9040c7	0.2817442
166	0x3d9aea40	0.07564211
167	0x3e095b92	0.13413838
168	0x3e9feb8e	0.312344
169	0x3f0c770c	0.5486915
170	0xbebb4183	-0.3657342
171	0xbebd276c	-0.3694414
172	0xbf04052d	-0.515704
173	0x3e3da133	0.18518524
174	0x3f0efef4	0.5585778
175	0xbebd2b00	-0.3694687
176	0x3f175a4a	0.59122145
177	0x3e9286e9	0.28618553
178	0x3ea1e184	0.31617367
179	0xbeb2f6d0	-0.34953928
180	0x3e8f8a3a	0.28035146
181	0x3de4e213	0.11175933
182	0x3f3a371f	0.7274036
183	0xbd9416e4	-0.072309285
184	0x3c9e2299	0.019303607
185	0xbe4a78ff	-0.19772719
186	0x3f3f36b7	0.74692863
187	0x3f3b2b89	0.73113304
188	0x3df86358	0.12128323
189	0xbe3db02f	-0.1852424
190	0xbdec1c51	-0.115288384
191	0x3e461a0e	0.19345877
192	0x3f2c7f92	0.67382157
193	0x3d54bafc	0.051936135
194	0xbec84741	-0.39116862
195	0x3ec563f8	0.38552833
196	0x3f2ab10a	0.6667639
197	0x3eb0133c	0.34389675
198	0x3e67b7aa	0.22628656
199	0xbe16253f	-0.14662646
200	0x3ec83c7a	0.3910864
201	0x3ee578de	0.44818777
202	0x3edd088f	0.43170592
203	0x3ee4c41d	0.44680873
204	0xbd87854e	-0.06617223
205	0x3ec22ce5	0.37924877
206	0x3eaaca86	0.33357638
207	0x3f0e12f6	0.5549768
208	0xbf15d0c0	-0.5852165
209	0xbe7af72f	-0.24508356
210	0xbe73df4e	-0.23815653
211	0xbe8d31ab	-0.27576956
212	0xbd9b1fd1	-0.07574428
213	0xbf49dbca	-0.78850996
214	0x3e24944a	0.16072193
215	0x3e979585	0.29606262
216	0x3ea65c37	0.3249223
217	0x3ed1f596	0.4100768
218	0xbea731cd	-0.32655182
219	0xbe67343d	-0.22578521
220	0x3e5e8900	0.21731949
221	0x3d71d8df	0.059044715
222	0x3ea1a4da	0.31571084
223	0xbebcad25	-0.3685085
224	0x3eda2546	0.42606562
225	0x3ecd075a	0.4004467
226	0x3dbd5a60	0.09245753
227	0xbdc9993f	-0.098436825
228	0x3ef639ff	0.48091123
229	0x3ead8615	0.3389136
230	0xbebb03de	-0.36526388
231	0x3f4089cf	0.7521028
232	0x3de926f1	0.113843806
233	0x3d42cd80	0.04755926
234	0xbe9f1436	-0.31070107
235	0x3ed3bc5e	0.4135465
236	0x3e229d6e	0.15880367
237	0x3e86ee6f	0.26353785
238	0x3f0c1a89	0.5472799
239	0x3edd22fc	0.43190753
240	0xbf0db75e	-0.5535792
241	0x3efe4172	0.49659306
242	0x3eb36bb1	0.350431
243	0xbe63930b	-0.22224061
244	0xbdd5b500	-0.10434914
245	0x3e5342f0	0.20631003
246	0xbd63306f	-0.05546611
247	0x3e81ed5b	0.253764
248	0xbe4490ca	-0.19195858
249	0x3ef15348	0.4713385
250	0xbe827404	-0.25479138
251	0x3e5d932b	0.21638171
252	0x3e56ddbb	0.20983021
253	0x3eb3d751	0.3512521
254	0xbef4f37e	-0.4784202
255	0x3cb95f95	0.022628585

model.0.bias f4 [128]
0	0xbdd4b94a	-0.103869036
1	0xbdd61f5e	-0.104552016
2	0xbdc74eab	-0.097318016
3	0x3d4a4e32	0.04939098
4	0x3ea1f01d	0.31628504
5	0xbe0b70a6	-0.1361719
6	0x3ebe21c2	0.3713513
7	0x3e845159	0.25843313
8	0xbdfc37d8	-0.12315339
9	0x3e8a537f	0.27016827
10	0xbd5c7607	-0.053823497
11	0xbe07ef3f	-0.13274859
12	0x3ee0973d	0.43865386
13	0x3f18d7e2	0.5970441
14	0x3eead26f	0.45863673
15	0x3e8b27b6	0.27178735
16	0x3ec6b7a3	0.3881198
17	0x3e09f64a	0.13472858
18	0xbd2b0b78	-0.041758984
19	0x3e280aee	0.1641042
20	0x3e137435	0.14399798
21	0x3eeba47c	0.4602393
22	0xbe2efda6	-0.17088947
23	0xbd13d479	-0.0360913
24	0x3f29820c	0.6621406
25	0x3d93a283	0.07208731
26	0xbdc26dac	-0.094935745
27	0x3f0a419f	0.5400638
28	0xbe09f446	-0.13472089
29	0x3d314ea5	0.043287892
30	0x3f0320c7	0.5122189
31	0x3d3cca9e	0.04609167
32	0x3eec6b13	0.4617544
33	0x3e9298c9	0.2863219
34	0xbdecd7ea	-0.1156462
35	0xbdd8043b	-0.10547682
36	0x3f43e78f	0.76525205
37	0x3f2166a8	0.63047266
38	0xbd9a246a	-0.07526477
39	0x3f349d98	0.7055297
40	0x3e431c36	0.1905373
41	0xbc26587b	-0.010152931
42	0x3dae6747	0.08515792
43	0xbd12f9a0	-0.035882592
44	0x3e8ba641	0.2727528
45	0xbe6b87e3	-0.23001055
46	0x3de1b5ee	0.110210285
47	0x3e54dadb	0.20786612
48	0xbc03df98	-0.008048914
49	0x3f2acc16	0.6671766
50	0x3e843474	0.2582127
51	0x3f3dc488	0.7412801
52	0x3cf160e4	0.029465146
53	0xbdb23aba	-0.087026075
54	0x3f163f5b	0.5869042
55	0x3ecf5313	0.40493068
56	0x3f3ad5e4	0.7298262
57	0x3f34b687	0.70591015
58	0x3e4e33d7	0.20136963
59	0x3ed1c664	0.40971673
60	0x3eb0fa73	0.34566078
61	0x3ef1d5a4	0.47233307
62	0xbe6ea4fb	-0.23305123
63	0x3c8c62aa	0.01713689
64	0x3ed615af	0.41813418
65	0xbe18ea4a	-0.14933124
66	0x3e366c29	0.17814697
67	0xbdfe2a3a	-0.12410398
68	0xbd80eee1	-0.062955625
69	0x3e132620	0.14370012
70	0x3b75e241	0.003751889
71	0x3d0cf318	0.03441152
72	0xbb5ef9a0	-0.00340233
73	0x3f25fcec	0.64839053
74	0x3f163bb7	0.5868487
75	0xbd1815ed	-0.037130285
76	0x3f254192	0.6455318
77	0x3f1675c9	0.58773476
78	0x3f0cf11b	0.550554
79	0x3d921684	0.07133201
80	0x3c9ff654	0.019526638
81	0x3ec741ac	0.3891729
82	0x3ea7161e	0.32634062
83	0x3e2f18af	0.1709926
84	0x3dfd3592	0.12363733
85	0xbdfac292	-0.122441426
86	0x3f433520	0.7625294
87	0xbd1652b2	-0.03669996
88	0x3e2ae32c	0.16688222
89	0xbd3085e0	-0.043096423
90	0x3e355e88	0.17711842
91	0x3e9fe29d	0.3122758
92	0x3ea689ec	0.325271
93	0x3ee7185b	0.4513577
94	0x3e9e0fb0	0.30871344
95	0x3e903352	0.28164154
96	0xbe337335	-0.17524417
97	0xbdb64bad	-0.08901153
98	0x3e725348	0.23664582
99	0x3df0153a	0.11722799
100	0x3ed5b466	0.41739196
101	0x3f06a125	0.5258964
102	0x3efaed5f	0.49009225
103	0x3f01872b	0.50596875
104	0x3f3a2236	0.7270845
105	0x3f292ec6	0.66086996
106	0x3e97f515	0.2967917
107	0x3e9f06a2	0.31059748
108	0x3f20fc56	0.62885034
109	0x3e8e9851	0.27850583
110	0x3f129cdd	0.57270604
111	0x3e6e7127	0.23285352
112	0x3e9ae127	0.30249903
113	0x3ebbac27	0.3665478
114	0x3e89f94e	0.26948017
115	0x3df804be	0.121102795
116	0x3db2856c	0.087168545
117	0x3f2d7bb1	0.67766863
118	0x3ec11ad8	0.37715793
119	0xbb6f940a	-0.0036556744
120	0x3e4ceb2a	0.20011583
121	0xbcdcd235	-0.026955703
122	0x3c145b6e	0.009055002
123	0x3e04babc	0.12961859
124	0x3eb8d297	0.36098167
125	0x3f214856	0.63001
126	0x3effe4a2	0.4997912
127	0x3f40ba02	0.75283825

model.2.weight f4 [64, 128]
0	0x3e3279d8	0.17429292
1	0x3e531912	0.20615032
2	0x3e1a6650	0.15078092
3	0x3ec0777e	0.37591165
4	0x3e13d0bf	0.14435099
5	0x3ea743ad	0.3266882
6	0x3e895a73	0.2682682
7	0x3e6e9571	0.23299195
8	0x3e91e037	0.28491375
9	0x3e4350d3	0.190738
10	0x3e444bef	0.19169591
11	0x3d86df19	0.06585521
12	0x3e23f132	0.16009977
13	0x3eb91fe8	0.36157155
14	0x3ea83259	0.32850912
15	0x3e9410b3	0.2891899
16	0x3e55fae2	0.20896485
17	0x3e80944c	0.25113142
18	0x3e7d9e36	0.24767384
19	0x3e808801	0.25103763
20	0x3eab41d4	0.3344866
21	0x3e184e5a	0.14873639
22	0x3e80bab0	0.2514243
23	0x3e667d4c	0.22508734
24	0x3e298d10	0.16557717
25	0x3e7ca6ac	0.24672955
26	0x3ebd65f6	0.36991853
27	0x3eacae32	0.3372665
28	0x3e88dc9f	0.2673082
29	0x3e8b8cab	0.2725576
30	0x3e6c0ca8	0.23051703
31	0x3e6e2310	0.23255563
32	0x3e524126	0.20532665
33	0x3e94e144	0.29078114
34	0xbe806b37	-0.25081798
35	0x3e5f42fa	0.21802893
36	0x3e8ae0dd	0.27124682
37	0x3ea8528b	0.32875475
38	0x3e4f4413	0.20240812
39	0x3e344cd5	0.17607434
40	0x3e33ac0c	0.175461
41	0x3e8ee10e	0.27906078
42	0xbe297575	-0.16548713
43	0x3e9dd960	0.30829906
44	0x3e48ee36	0.1962212
45	0x3cabc88e	0.020969655
46	0x3ebfd2e1	0.37465575
47	0x3e3b4ba9	0.18290581
48	0x3ea6eccc	0.32602537
49	0x3e6b5632	0.229821
50	0x3e7ec7ff	0.2488098
51	0x3e80806f	0.25097987
52	0x3e4e7e49	0.20165361
53	0x3e412111	0.1886027
54	0x3e6a2aed	0.22867937
55	0x3e97fd92	0.29685646
56	0x3e5df669	0.2167603
57	0x3e71716c	0.23578423
58	0x3e83fb03	0.25777444
59	0x3eaf0965	0.34186855
60	0x3ea3752b	0.3192533
61	0x3e43911a	0.1909832
62	0x3e275290	0.16340089
63	0x3e81f13c	0.2537936
64	0x3e18b5cb	0.14913099
65	0x3ea8342c	0.32852304
66	0x3e5cb639	0.21553887
67	0xbeb294f9	-0.34879282
68	0x3ec427bd	0.38311568
69	0x3ebcb7fe	0.36859125
70	0xbe9dcb8a	-0.3081935
71	0x3e8802cb	0.2656463
72	0x3e7bcccb	0.24589841
73	0x3e851724	0.25994217
74	0x3e55e9ec	0.20890015
75	0x3eb99b76	0.3625142
76	0x3ea5bc6c	0.32370317
77	0x3e509290	0.20368409
78	0x3e5011bb	0.20319264
79	0x3ea8d450	0.32974482
80	0x3e8a2f6c	0.26989305
81	0x3e84c385	0.2593042
82	0x3eacbb90	0.3373685
83	0x3dc3ffd4	0.0957028
84	0x3e86f394	0.2635771
85	0x3e5cf87a	0.21579161
86	0x3eb047ff	0.3442993
87	0x3e92acd6	0.28647488
88	0x3eb52b8e	0.35384792
89	0x3e9fc0c2	0.3120175
90	0x3e64fa1b	0.22361033
91	0x3e75fc35	0.2402199
92	0x3e45cbb5	0.1931599
93	0x3e731e65	0.23742063
94	0x3e99070c	0.2988819
95	0x3e857a5d	0.26069918
96	0x3d23cf64	0.039992705
97	0x3e9d1b78	0.3068502
98	0x3e621e04	0.22081763
99	0x3e8d2d7f	0.27573773
100	0x3e9935c8	0.29923844
101	0x3e990a2f	0.29890582
102	0x3e8ed048	0.2789328
103	0x3ebabef4	0.3647381
104	0x3e9f80eb	0.31153044
105	0x3e901293	0.2813917
106	0x3e31cfd4	0.17364436
107	0x3e2c3475	0.16816886
108	0x3ec464f0	0.3835826
109	0xbe8ea7dc	-0.27862442
110	0x3e9e1d14	0.3088156
111	0x3e8f23b0	0.27956915
112	0x3df9d001	0.12197877
113	0x3eae1158	0.33997607
114	0x3e5ad973	0.21372013
115	0x3e95930a	0.29213744
116	0x3e236ed7	0.15960251
117	0x3e6c2c45	0.23063762
118	0x3e5168ed	0.20450182
119	0x3e870a65	0.26375118
120	0x3cf5c32d	0.030000294
121	0x3ea5f1cf	0.32411048
122	0x3e30ee95	0.17278512
123	0x3eaa5769	0.33269814
124	0x3e8986b3	0.2686058
125	0x3e49c33e	0.19703385
126	0x3d13590c	0.035973594
127	0x3eb7162b	0.357591
128	0xbcf6e022	-0.030136172
129	0xbd51e4fc	-0.051243767
130	0x3d06cd7c	0.03291081
131	0xbd75f1a5	-0.060044903
132	0xbcaf4622	-0.021395747
133	0x3d6dfbcb	0.058101457
134	0x3c5cf6d0	0.013486579
135	0xbb9e0b18	-0.0048231
136	0xbd026ae1	-0.03184021
137	0xbd9fd285	-0.07803825
138	0xbca054d8	-0.019571707
139	0xbdb87b33	-0.090078734
140	0x3d13cef1	0.036086027
141	0xbd739046	-0.05946376
142	0x3c854b4d	0.016271258
143	0xbd862723	-0.065504335
144	0x3d6c0867	0.0576252
145	0x3d0e7b95	0.034785826
146	0x3d8c240e	0.068428144
147	0x3d6e7f1c	0.05822669
148	0xbd76ac32	-0.060222812
149	0xbda14b95	-0.07875744
150	0xbd3207a5	-0.04346432
151	0x3d424bef	0.047435697
152	0xbd8b387e	-0.067978844
153	0xbd82e699	-0.06391639
154	0x3d5f1bf7	0.05447003
155	0x3d61a099	0.0550848
156	0x3da221b4	0.079165846
157	0xbd0b44ca	-0.03400115
158	0xbd963052	-0.07333435
159	0xbdcec120	-0.100954294
160	0xbd84e2fd	-0.06488607
161	0xbd873f0a	-0.066038206
162	0xbd679374	-0.056537107
163	0xbdc7e861	-0.0976112
164	0xbdd5eb85	-0.104453124
165	0x3d4b6c28	0.049663693
166	0x3d6a0577	0.057134118
167	0x3c14497f	0.009050726
168	0xbd8085ae	-0.062754974
169	0xbd5dcb7d	-0.05414914
170	0xbda24052	-0.079224244
171	0xbd549dd3	-0.051908325
172	0xbd1a8034	-0.03771992
173	0xbce2b8ef	-0.027676074
174	0x3b771dfd	0.0037707083
175	0xbd4a4d57	-0.049390163
176	0x3c8c633d	0.017137164
177	0xbd557114	-0.052109793
178	0x3d90c507	0.0706883
179	0xbce9f1e8	-0.028557733
180	0x3d3b8f3e	0.045790903
181	0xbd57f76b	-0.05272619
182	0xbd708896	-0.05872401
183	0xbdc38312	-0.09546484
184	0xbdb747d2	-0.089492455
185	0xbd8473ca	-0.064673975
186	0xbd6f3169	-0.05839673
187	0x3d27cee5	0.040968794
188	0xbda587e2	-0.08082558
189	0xb6b3417d	-5.3422395e-06
190	0x3c298b51	0.010348157
191	0x3d5e6612	0.05429656
192	0x3d80f140	0.06296015
193	0x3d43f02e	0.047836475
194	0x3d802891	0.062577374
195	0xbc4a1e32	-0.012336301
196	0xbdc460ed	-0.095887996
197	0x3c01c4e4	0.007920478
198	0xbc6566a9	-0.014001527
199	0x3d02927c	0.03187798
200	0xbd77a003	-0.060455333
201	0x3d15b214	0.03654678
202	0x3d0a3f88	0.033751994
203	0xbc0aae28	-0.008464374
204	0xbdb46df9	-0.08810038
205	0x3d64463d	0.055731047
206	0xbb19bde2	-0.0023459126
207	0x3938223a	0.00017560358
208	0x3d0904d2	0.033451863
209	0xbc828f85	-0.015937576
210	0xbd066875	-0.03281446
211	0x3d032fe0	0.03202808
212	0x3d61735c	0.055041656
213	0x3b0e4ae6	0.0021712123
214	0xbd9b1f96	-0.07574384
215	0xbd6af1f2	-0.057359643
216	0xbd8b05fe	-0.06788252
217	0x3d3260f1	0.04354948
218	0x3cbc7a8c	0.023007654
219	0x3ca77f05	0.02044631
220	0xbd323d91	-0.043515746
221	0x3cfdc5da	0.030978132
222	0x3c62c58c	0.013841044
223	0x3bffe6e0	0.007809505
224	0xbd9c0190	-0.076174855
225	0xbda4902a	-0.080353096
226	0x3cf554b7	0.029947622
227	0xbd352f61	-0.044234637
228	0xbd02b7b1	-0.031913463
229	0xbd83a2d6	-0.06427543
230	0x3d6768ee	0.056496553
231	0xbd624e2a	-0.055250324
232	0xbd1e5b82	-0.038661487
233	0xbd61da78	-0.05513999
234	0x3bba7659	0.0056903777
235	0x3cf18ce8	0.029486135
236	0xbd805781	-0.0626669
237	0x3d43decc	0.047819898
238	0xbd3b4073	-0.04571576
239	0xbcedc8d3	-0.029026425
240	0x3d349d4a	0.044095315
241	0xbda9b3ae	-0.08286224
242	0xbda95a7a	-0.0826921
243	0x3bef0a0a	0.007294898
244	0x3c72cea9	0.014819779
245	0xbcacf84a	-0.021114487
246	0x3d7db798	0.061942667
247	0x3d089ae0	0.033350825
248	0x3cb36a8b	0.02190139
249	0x3c04afea	0.008098582
250	0xbd9cfa7c	-0.076649636
251	0x3d5425e3	0.051793944
252	0x3d6af2ac	0.057360336
253	0x3d3e8e2c	0.046522304
254	0xb9f614bb	-0.00046936222
255	0xbdcffad3	-0.10155263

model.2.bias f4 [64]
0	0x3e17407e	0.14770696
1	0x3cd2eeb2	0.025748584
2	0xbdcc8122	-0.09985568
3	0xbd495607	-0.049154308
4	0x3e3603f8	0.17774951
5	0xbe9c8844	-0.30572712
6	0x3e160f51	0.1465428
7	0x3e6bd6f1	0.23031212
8	0xbd78398b	-0.060601752
9	0xbb564924	-0.0032697404
10	0x3e49d2ad	0.19709273
11	0xbd66640b	-0.056247752
12	0x3d8142a3	0.06311538
13	0xbd733fdd	-0.059387077
14	0x3c8d9012	0.017280612
15	0x3e031c5e	0.1280379
16	0x3e4ef6c9	0.20211329
17	0xbd471a2c	-0.048608944
18	0xbccda8fe	-0.025104996
19	0x3e8ee0d6	0.2790591
20	0x3cdf553c	0.027262323
21	0x3d1dfa43	0.038568746
22	0x3e1c0742	0.15237144
23	0x3e7be8c7	0.24600516
24	0xbd94de87	-0.07269006
25	0xbe1eff6a	-0.1552712
26	0xba8b03d8	-0.0010606004
27	0xbd1111e7	-0.035417464
28	0x3e51cb28	0.20487654
29	0x3e39baeb	0.1813771
30	0x3d117969	0.035516176
31	0x3e0e028c	0.13868159
32	0x3e7c1197	0.24616085
33	0xbd1f937a	-0.038959004
34	0xbdd85b5d	-0.10564301
35	0x3e64fe3d	0.22362609
36	0x3e042393	0.12904195
37	0xbd8da4d9	-0.06916208
38	0x3df3ba84	0.119008094
39	0x3e518b53	0.20463304
40	0xbe51d805	-0.20492561
41	0x3e64e087	0.22351275
42	0x3d30e528	0.04318729
43	0x3d17cacf	0.037058648
44	0x3dfe953a	0.124308065
45	0xbd9b85e3	-0.07593896
46	0x3c8dc756	0.017306965
47	0x3de52957	0.111895256
48	0xbdad199b	-0.084521495
49	0xbab187a8	-0.0013544457
50	0x3e7a8c47	0.24467574
51	0x3c9c4bab	0.01907905
52	0x3d838fe9	0.06423933
53	0x3e816cf2	0.2527843
54	0x3e36efba	0.17864886
55	0x3e7ff455	0.24995549
56	0x3bc14dc5	0.0058991634
57	0x3e83f3c0	0.25771904
58	0x3e8297f9	0.2550657
59	0x3e08b15d	0.13348909
60	0x3d82d7e9	0.06388838
61	0xbc3e521e	-0.011616258
62	0x3e37c599	0.17946471
63	0x3e7ec0a2	0.24878171

model.4.weight f4 [1, 64]
0	0x3ea11347	0.3146002
1	0xbd11bd3e	-0.035580866
2	0xbd1b5083	-0.03791858
3	0xbd1cd4e5	-0.03828897
4	0x3e924944	0.28571522
5	0xbf1f0fc2	-0.6213342
6	0x3eb24e13	0.3482519
7	0x3eaae784	0.33379757
8	0xbc3789f3	-0.011202323
9	0xbcb385ba	-0.021914352
10	0x3e96a382	0.29421622
11	0xbd887d97	-0.06664579
12	0xbce1c309	-0.02755882
13	0x3d8828e6	0.06648426
14	0x395cfe57	0.00021075584
15	0x3eb18a4c	0.34675825
16	0x3ec1e52f	0.37870166
17	0xbd861e99	-0.06548805
18	0xbd866662	-0.06562497
19	0x3e9cb33c	0.30605495
20	0xbee2328a	-0.44179183
21	0xbdbdf558	-0.09275311
22	0x3eaa0e6c	0.33214128
23	0xbed6ddaa	-0.4196599
24	0xbf337e0c	-0.7011421
25	0xbf0478d7	-0.51746887
26	0xbd86a61b	-0.06574651
27	0xbd947ff3	-0.07250967
28	0x3ea38671	0.31938508
29	0x3eaad08f	0.33362243
30	0xbf275b07	-0.6537327
31	0x3eae9028	0.34094357
32	0x3ecc3ebb	0.3989161
33	0xbed87e0a	-0.4228366
34	0xbdce2b0b	-0.100668035
35	0x3ec48ff5	0.3839108
36	0x3ebcf6a6	0.36906928
37	0xbc30eea2	-0.010799082
38	0x3ecbea27	0.39827082
39	0x3ebb739d	0.36611643
40	0xbf2ab279	-0.6667858
41	0xbedabb69	-0.42721108
42	0xbd066a82	-0.032816418
43	0xbdaf00d2	-0.08545078
44	0x3ea75b0c	0.3268665
45	0xbd6fb6f4	-0.058524087
46	0xbd9ed814	-0.077560574
47	0x3ebc33c0	0.36758232
48	0xbd8ef7e5	-0.06980876
49	0x3bb83ad3	0.005622247
50	0x3ec23482	0.37930685
51	0x3a4e541d	0.000787081
52	0xbce579df	-0.028012214
53	0x3ec3b386	0.38222903
54	0x3eaeff3b	0.341791
55	0x3ecdc932	0.40192562
56	0xbdf2036c	-0.11817059
57	0x3e97b03a	0.29626638
58	0x3ea8fe3a	0.3300646
59	0x3eaf3696	0.34221333
60	0xbd5daac9	-0.05411795
61	0xbc19cf1d	-0.009387759
62	0xbeeb0a85	-0.45906463
63	0x3ea07acc	0.31343687
