pk_pdt_simple.pth (torch, 40029 bytes, 5 tensors)

model.0.weight f4 [128, 6]
00000000: 165f d23e a63f 0a3d ac5b 073f b93c b4be
00000010: e9da 78be 6ee7 db3d 6a69 183e 33d8 0b3e
00000020: 0022 4e3d 3b58 003f 4ddd b83e 20ec ca3e
00000030: b4f7 6bbe 2280 e13e 4f9d 7c3e 823f df3e
00000040: d82e 8a3e 005b 8d3e 72f7 98be 2518 153e
00000050: 4da9 013f bb1c e6bd 22dc aabe d5a9 3c3d
00000060: 3a60 9bbe 91e9 d53e eca2 013e 2075 1e3e
00000070: 9a35 b13e 8a79 6bbe 07ce ce3e 0e0f a73e
00000080: eab5 433d 855d a9be b109 993e 6244 e3be
00000090: 86f1 863e a693 8dbe 286f 85be 21f8 da3e
000000a0: be95 ffbe 8b41 d53d f82a a53e 27cb 17bd
000000b0: da99 6f3e 369c a3be 9c3c b03d 61b6 f5be
000000c0: e4f7 003e 8f39 013f ea67 893e 56e6 73be
000000d0: 2624 533e 4a5e eb3e 3a5f 79be ef5e c13e
000000e0: 2bd5 9c3e 1a02 c53c 43ae ae3e 0943 96bd
000000f0: dc3b 7ebd bd3a 543e a64a b63e 1294 18be
00000100: d7ee c73d 0c32 8a3e f7f9 08be 5a34 063f
00000110: 5207 143f 5acf 113e 4387 e13c 5a3a e6bd
00000120: ffb4 95be adb6 ce3e 517e d43e dcec 79be
00000130: 91dc 1a3e 3188 90be a9c2 af3e 258c a93e
00000140: d385 923d e989 c6be 137b 9b3e 8bb8 eb3e
00000150: fdb3 ba3e a4f6 cd3d c6b8 a3bc d242 a9be
00000160: c874 ef3e d83f 063f ae22 ba3d 3a86 10bd
00000170: 0380 02be dc30 0ebf c07b 30be 8353 ee3e
00000180: 99f1 d83e f283 c43e 0259 113f e8ea 0e3e
00000190: 11d3 bd3e 4b34 1e3e cf2f a23c 0754 883e
000001a0: 6a67 8b3e d33f 373e e8ca 87be 0992 12bd
000001b0: f95b 453d ee26 2f3e e8a7 7a3e d645 9f3e
000001c0: a3dc 993e 7938 00be 360e 823e 8648 2c3f
000001d0: ba0e 253f 23ee 733e 15cb 083d 0a7b 95be
000001e0: 2500 df3e 6d56 bf3e 3178 163f e1e4 4e3b
000001f0: cfd9 81be 4130 ac3e 9d54 85be d102 b63e
00000200: 5624 f33e 60d1 edbc f72c 4fbd b497 ce3e
00000210: f1d3 a23e 2500 343d 0c71 ae3e a132 85be
00000220: 467d fe3e 838e f6be 5299 e63e e631 553e
00000230: fe4e e53c 482d b33e a414 6c3e f655 b4be
00000240: 5b8c 9d3e 2ecc ab3e b570 693b 2161 cd3e
00000250: 7527 d1bd f861 76be f8bc bc3e 19b7 c23e
00000260: 0c49 373e 6c07 94be 9401 963e 18c0 ce3e
00000270: d4ca de3e 9aab 1a3d c653 a53e c094 e33e
00000280: 8edd 9abe 54bd 24be 2ce5 b73e 669b b63e
00000290: 14bb b5bd e05a dcbe 9ded 9abe 02e5 04bf
000002a0: 449a bc3e 8a8c fd3d 4569 203f 7fd9 ba3e
000002b0: e334 d13e 0211 acbe ab5c 92bd efc1 123f
000002c0: 6c2f f33e 6695 733e d737 943e 51e7 f53c
000002d0: 03fa b23e a95b 1f3f cd6b bfbd dc3b e7bc
000002e0: d8dd 18be 5d43 a4bd 2125 a9bc 5123 223f
000002f0: d59c 123f 22f8 da3e f5f2 db3d 77b8 8b3e
00000300: 06d4 a53e 19d9 f43e 9b1b 85bc e180 1cbe
00000310: 57b1 623e 67df a1be 18d3 c5be 5286 183f
00000320: 4b9d 123f 87e4 da3d bff2 8dbe c509 f2bd
00000330: bcf0 9f3d c57e e73e 0130 9f3e 9c34 62be
00000340: fe9b b4be 6508 cd3d 005b 1f3f c7de df3d
00000350: 308b 023e 5d48 bc3d 3e1d 2d3e 9e1e ea3d
00000360: 0778 9abe 5f67 273f 326b 353d 1749 84be
00000370: e381 cd3e f1fa babe bf13 5a3e 5454 d73e
00000380: 7041 ba3e 7584 9dbd ecdb 1fba f013 063d
00000390: d769 223d 7d7e aa3e f72a 0b3f 27c1 bc3e
000003a0: 778f ebbd e0db 98be 6e57 0bbd 226d 183f
000003b0: 4f6e d8bd 334f 033e ded2 75be 088b a43e
000003c0: 6539 143e 4df2 853e b1d2 b83e f5fb 87be
000003d0: fbe1 e73e f2bd 703e 4ac0 243c e33a 263f
000003e0: 6452 0e3f 95be e7bd 8f5a a23c f3bf 2c3e
000003f0: 65e2 533e 5686 673e d220 7c3e aa24 5abe
0.4108817 0.033752106 0.52874255 -0.35202578 -0.24302258 0.10737501 0.14883962 0.13656692
0.050325394 0.5013463 0.3610634 0.39633274 -0.2304371 0.4404307 0.24669383 0.4360314
0.26988864 0.2760849 -0.29876286 0.14559992 0.5064896 -0.11235949 -0.33371073 0.046060402
-0.30346853 0.4177976 0.12659806 0.15474367 0.34611207 -0.22995582 0.4039156 0.32628673
0.04778091 -0.33079162 0.29890206 -0.4438811 0.26356143 -0.2765171 -0.26061368 0.42767432
-0.49918932 0.10412892 0.32259345 -0.037058976 0.23398533 -0.31955117 0.0860531 -0.47990707
0.12594563 0.5047845 0.26837093 -0.23818335 0.20619258 0.45970374 -0.24352732 0.3776774
0.30631384 0.024048854 0.34117326 -0.07337005 -0.062068805 0.20725532 0.35603827 -0.14900234
0.09762352 0.26991308 -0.13376604 0.5242363 0.5782367 0.14239255 0.027530318 -0.112415984
-0.29239652 0.40373746 0.41502622 -0.24406761 0.15123202 -0.28228906 0.343282 0.33114734
0.07154431 -0.38777092 0.30367336 0.46039233 0.36465445 0.100568086 -0.019985568 -0.33058792
0.46768785 0.5244117 0.09088646 -0.03528426 -0.12744145 -0.55543303 -0.17234707 0.4654809
0.42371824 0.38381916 0.5677644 0.13956797 0.37075093 0.15449636 0.019798188 0.26626608
0.27227336 0.17895441 -0.26521993 -0.0357838 0.048183415 0.17104694 0.24478114 0.31107968
0.30051145 -0.12521543 0.25401467 0.6729816 0.64475596 0.2382131 0.0333968 -0.29195434
0.43554798 0.37370625 0.5877715 0.0031569528 -0.25361487 0.33630565 -0.26041117 0.35549024
0.4748866 -0.029030502 -0.05057999 0.40350115 0.31802323 0.04394545 0.34070623 -0.2601519
0.4970495 -0.48155603 0.4503885 0.20819816 0.027991768 0.34995484 0.23054749 -0.35221833
0.30771145 0.33554214 0.0035620157 0.40113166 -0.10212604 -0.2406081 0.36862922 0.38030317
0.17898959 -0.28911912 0.2929808 0.4038093 0.4351412 0.03776131 0.32290477 0.44449425
-0.30247158 -0.16087848 0.35917032 0.35665435 -0.08873573 -0.43038082 -0.3025941 -0.5191194
0.36836445 0.12380321 0.6266063 0.3649406 0.40860662 -0.33606726 -0.07146581 0.5732717
0.47497118 0.2378746 0.28948852 0.030017527 0.3495637 0.6224924 -0.09346733 -0.028226785
-0.14928377 -0.08020661 -0.020647587 0.6333514 0.57270557 0.42767435 0.107397 0.27289173
0.32388324 0.47821882 -0.016248515 -0.15283538 0.22137962 -0.31615755 -0.38637614 0.59579957
0.5727126 0.106881194 -0.27724263 -0.1181827 0.07809588 0.45213905 0.31091312 -0.22090381
-0.35275263 0.10011367 0.6224823 0.10931163 0.12748408 0.0919349 0.16905686 0.11431621
-0.301697 0.65392107 0.044291683 -0.25837013 0.40138158 -0.36519578 0.21296595 0.42056525
0.3637805 -0.0769128 -0.00060981396 0.032733858 0.039651718 0.33299628 0.54362434 0.36866114
-0.11501973 -0.2985525 -0.034018926 0.59541523 -0.10567915 0.12823181 -0.2400622 0.32137322
0.1447502 0.26161423 0.36098245 -0.26559415 0.45289597 0.23509958 0.010055611 0.64933604
0.5559447 -0.113156475 0.019818572 0.16870098 0.20691831 0.22609839 0.24621895 -0.21303049

model.0.bias f4 [128]
00000000: 9fa7 313e 7c9c 3e3e 75ff a83e ed98 1bbe
00000010: 518e ae3e 8a9b 3e3e 112c 24be 5f4d ec3c
00000020: ee69 203e 53e2 e4bd f971 6b3e 934a 163f
00000030: f97a 0d3f 1839 503e 061e e8bc aec4 c2bd
00000040: 26ed bd3d 3b73 933e 1810 e73e b4ee 97bb
00000050: f68d f13d 9985 59bd 033d 4e3d 2f30 a63d
00000060: 2358 0b3f b0cd de3e dcba 543e 90b3 293e
00000070: eaf5 d13e 39e7 9f3e e391 fe3e 3412 b1bd
00000080: 6c5b 8e3e 9247 d23d 2d79 043e 0646 103f
00000090: c350 e5bd 505f fb3e 665a 03be cc90 cf3d
000000a0: 893c a03d 3534 993e 19bc d93e 002d b43e
000000b0: 050b 003e 4eb1 a03d d6a8 0d3e 0668 9c3d
000000c0: 15f1 e13e 3425 163d 59ec 0d3f ee94 a03e
000000d0: 1ab1 033e 3dc5 d63e a4d2 3cbd f876 f73c
000000e0: a3de 5c3c 0d98 0dbd b688 533e b536 8f3e
000000f0: f115 343e 4d93 023e 6649 da3e 9cb5 083f
00000100: f310 b03e 1dbf ff3e c992 89bd 443c 4ebe
00000110: d3d4 83bd 48bd 143f 082b 833e 3f2a c23e
00000120: cb80 0e3f d58c d63e 992f 1fbe 147f e13e
00000130: c52b 7bbe c0ff dd3e 1b72 ae3e e68c e93d
00000140: 568a 3e3e e604 8a3e d69a eb3e 177f aa3b
00000150: 9900 463e 2c70 28bd 86f7 113e d980 d13e
00000160: 5f0d 023f b7dd cc3e d79d 013f 0ed7 103e
00000170: 1e05 4d3d 337d c43e 6b05 af3e f1d8 033f
00000180: cf6c a93e fba7 3a3e 04cb df3d 703f af3e
00000190: bf67 113f e9b0 673e c024 993e 44dc 0bbe
000001a0: 2a4d f63e 22f1 023f 3990 2d3d c73f 033e
000001b0: 197f 123f d75b 153e 5054 9c3e 6eac 013f
000001c0: 0d4e 2f3e c587 103f 9e0f 19bd 7c7b 853e
000001d0: 5feb ae3e e376 043e 5651 7b3e 9623 f7bd
000001e0: f7a5 4ebe 42b0 203e dacf 013f 6e12 0c3f
000001f0: eedf 203e e987 61bb b231 21be 6e0d 1dbe
0.17349099 0.18614382 0.33007398 -0.15195055 0.34092954 0.18614021 -0.16032435 0.028845487
0.15665409 -0.111759804 0.22992696 0.5870754 0.55265766 0.2033428 -0.028334629 -0.0951017
0.09273748 0.2879885 0.45129466 -0.00463661 0.11794655 -0.053105924 0.050351154 0.08114659
0.5443136 0.43516302 0.20774406 0.16572404 0.4100793 0.31231096 0.49720678 -0.0864605
0.27804124 0.10267557 0.1293685 0.5635685 -0.11197045 0.49096155 -0.12827453 0.1013504
0.07824046 0.29922643 0.4252632 0.35190582 0.12504204 0.07846318 0.13833937 0.076370284
0.44129243 0.036656573 0.5543876 0.31363624 0.12860528 0.41947356 -0.04609932 0.030208096
0.013480815 -0.034568835 0.2065762 0.27971426 0.17586495 0.12751503 0.42634124 0.53402114
0.3438793 0.49950495 -0.0671745 -0.20140177 -0.064370774 0.5810132 0.25618768 0.37922856
0.5566527 0.4190432 -0.15545501 0.44042265 -0.24528416 0.43359184 0.3407143 0.11403827
0.18607458 0.26956862 0.46016568 0.0052031386 0.19336165 -0.0411226 0.14254579 0.40918615
0.5080165 0.40012905 0.5063147 0.14144537 0.05005371 0.3837677 0.3418382 0.515029
0.33090827 0.18228142 0.10927394 0.34228086 0.5679893 0.2262608 0.2991085 -0.13658243
0.48105747 0.5114919 0.04237387 0.12817298 0.57225186 0.14585815 0.30533075 0.5065373
0.17119618 0.5645717 -0.03736841 0.26070774 0.3416395 0.12935977 0.24542746 -0.12067334
-0.20180498 0.15692237 0.5070778 0.5471562 0.15710422 -0.0034413284 -0.15741614 -0.15337154

model.2.weight f4 [64, 128]
00000000: 0840 3e3e 6618 cd3d e2ac 8d3e 8ed3 533e
00000010: f3dc 7e3e 5184 673e 70fc 19bc 4811 733e
00000020: 9c87 263e 531b 1f3e 0bf3 9f3e ff80 963e
00000030: 2a47 853e 4fcd 4c3e efa3 5d3e 1393 5bbd
00000040: 0d0a 933e 2173 903e 5999 783e 04d4 843e
00000050: 9342 933e 3f91 8f3e 651a 1a3e f684 8d3e
00000060: ec65 313e b3a7 343e b258 4a3e 42bf 403e
00000070: f423 8b3e 243e 913e 7fd4 513e 4675 953e
00000080: bfb6 753e 0219 0b3e 6fd2 7b3e b53b 623e
00000090: e67e 123e ef6b 293e 7085 2e3e 20a7 a73e
000000a0: f71f 5c3e ece7 7c3e fcda 813e 1c75 753e
000000b0: cbde 6e3e df29 2e3e 3768 8d3e 7867 f53d
000000c0: df51 933e 65c9 d7be 6412 033e 1be3 6a3e
000000d0: a53d 563e f2a9 7b3e 0aec 463e 3c0c 4d3e
000000e0: 5a03 5e3e 201a 6f3e 9038 843e a451 1b3e
000000f0: d0cc 483e 62e9 1b3e aa47 603e 3d79 603e
00000100: 0854 4a3e 2f0e 813e c14e 473e 7311 a83e
00000110: 6c2f 303e bd91 4e3e 9867 2b3e 19cf 833e
00000120: c7d6 4e3e 9786 473e b035 d43d 3aa2 253e
00000130: 7f11 b93d 27e9 383e a669 a23e 778d 863e
00000140: 83fb 4d3e 8cf2 753e c32c 813e 8443 273e
00000150: 580e 4f3e fcfd 163e 17b8 5f3e 6bdd 43bd
00000160: 7278 f83d bea1 103e 333a 4a3e e8f0 8e3e
00000170: bc4b 6a3e 22db 483e 5fb5 463e 1c0a 0b3e
00000180: dec6 5e3e a4a8 493e ac45 643d 2ad8 593e
00000190: 9a8a 7e3e c604 1c3e 2aba 0f3e 4504 403e
000001a0: c67c 533e 3c78 8b3e 3ae9 643e a6bf 2d3e
000001b0: e054 d63d 2108 843e b0bc 37bc f911 6c3e
000001c0: e23d 233e 19d1 763e 0239 8b3e 4ccd 4c3e
000001d0: 7f57 3b3e 9b5a 213e 76e2 c53d 99a7 f53d
000001e0: 8e66 8c3e d68e 943e f9cb 8c3e 9e0f 7c3e
000001f0: 1bbe 8d3e b0b7 383d 37b3 4f3e 2b69 2d3e
00000200: 62a6 d4bb 8ec7 853e e18f 903d 1c74 39be
00000210: eacc 4a3e 065c 523e 44dc 9e3e 2b67 f63d
00000220: fe89 55bd 767d 11be 7d9c 5b3d b6a2 5dbe
00000230: d288 a43d 2656 443e 9dd4 013e 5f14 a33e
00000240: 19af fdbd 9ade b9bc d2c2 403e d786 2abe
00000250: be32 56bc b395 2dbe ced8 073e aca8 133e
00000260: 3a8f 393e 7d8b 0c3e d074 353e 9afc 683e
00000270: ac9e 093d a2e6 53be e7b9 dd3c 017b 25be
00000280: 00a8 513e 6c89 22be c29b ebbd 3399 e73d
00000290: 6cb7 cf3d 417b 4fbe 97d2 52be a7ff bf3c
000002a0: debf 80bb 85a0 f5bd a240 5c3d 86c8 e2bd
000002b0: 3be4 3a3e 5722 99bd 6b4a 173e ac76 553e
000002c0: f0ab 0e3e d66a 9d3e 1a40 4a3e 50a1 a5bd
000002d0: add3 16bd 219a 0bbe 8186 533d c67b 8b3d
000002e0: 6ade 753e 7ece 29bd 1b88 833e 03d1 f2bb
000002f0: f1ce 0c3e 3979 8bbc d5d3 293e 17f6 383e
00000300: 57c1 843d d451 833d bd61 233e e0ed e43d
00000310: b2ab 163e 311c 243e 27c6 26be c5be 98bc
00000320: 5ff3 0abe fd70 3a3e 13a7 9f3e ed22 3a3e
00000330: 58c0 423e 588e 903d d1cd 5fbd 0657 07be
00000340: 1c03 443e 3541 d33c d650 e23c 79ed a23d
00000350: 3fc1 683e 0efd 57be e184 8d3e 22e6 513e
00000360: 84dd 1c3e 5935 593e 2e57 533d 55df cf3a
00000370: 237f 303b 9c00 03be 1d3d 1dbe e611 06bd
00000380: 69f0 f13d 6d15 08be 44bb 183e 07ff 0fbe
00000390: 63ed f4bd c790 9f3d 5285 98bd 2348 b13d
000003a0: 18c9 5c3e 467e 1a3e e3f7 c0bd 81c3 333e
000003b0: f47d 5f3e 70ed 10be 68e3 a03e 9718 adbd
000003c0: c5bd df3d 5893 863e eaf8 07be 1bb1 993a
000003d0: 4072 6f3e 678b 15be 2def 3f3e 6a0e 0f3e
000003e0: b512 7fbd 8303 69be 0aab dd3c 2bcf 09bd
000003f0: 4890 713e da5a a33e 8040 5b3c 90df 873e
0.18579113 0.10014419 0.27670962 0.2068617 0.24888973 0.22609068 -0.009398565 0.23737061
0.16262668 0.15537767 0.31240115 0.2939529 0.26030856 0.20000194 0.21644567 -0.053607058
0.28718606 0.28212836 0.24277247 0.25943005 0.2876173 0.280405 0.15049131 0.27640504
0.17324036 0.17642097 0.19760397 0.18822959 0.27175868 0.28367722 0.20491217 0.29191035
0.23995493 0.13583758 0.24591993 0.22093089 0.1430622 0.1654508 0.1704309 0.32744694
0.21496569 0.24697846 0.25362384 0.23970455 0.23327176 0.1700816 0.27618572 0.11982626
0.287734 -0.4214584 0.12799984 0.22938196 0.20921953 0.24576548 0.1942598 0.20024198
0.21680966 0.2334981 0.25824404 0.15167862 0.1960938 0.15225747 0.21902338 0.21921249
0.19758618 0.25206134 0.19463636 0.32825813 0.1720559 0.20172782 0.16738737 0.2574394
0.20199119 0.19484936 0.103618026 0.16175166 0.0903654 0.1805769 0.31721228 0.26279804
0.20115475 0.24018306 0.25229463 0.16334349 0.20220315 0.14745325 0.21847568 -0.047818583
0.12132348 0.141242 0.19748764 0.27918172 0.22880453 0.19614843 0.19405125 0.13578075
0.2175555 0.19693238 0.055730507 0.21273866 0.2485756 0.15236196 0.1403586 0.18751629
0.20653066 0.2724017 0.22354594 0.1696764 0.10465407 0.25787452 -0.01121442 0.23053731
0.15941575 0.24103202 0.2719193 0.2000019 0.18295096 0.1575722 0.096623346 0.11994857
0.27421993 0.29015225 0.2749937 0.24615332 0.276841 0.045097053 0.20283209 0.1693465
-0.006489561 0.2612881 0.07058693 -0.18110698 0.19804731 0.20542917 0.31027424 0.120313965
-0.052133553 -0.14208016 0.053616036 -0.216441 0.08033909 0.19173488 0.12678762 0.3185148
-0.12386913 -0.022689153 0.18824318 -0.16653 -0.013073621 -0.16951637 0.13266298 0.14419812
0.18121043 0.13725086 0.17720342 0.2275261 0.033598587 -0.20693448 0.027066184 -0.16160204
0.20474243 -0.15872735 -0.11504318 0.11308517 0.10142407 -0.20261861 -0.20588146 0.023437334
-0.0039291224 -0.11993507 0.053772576 -0.11073403 0.18251126 -0.07477253 0.14774482 0.20846051
0.13932776 0.30745572 0.19751015 -0.080874085 -0.036822964 -0.13633014 0.051641945 0.06810717
0.24010625 -0.041456692 0.25689778 -0.00741017 0.13750817 -0.017025577 0.16584714 0.18062626
0.06482189 0.06412092 0.15955253 0.111781836 0.14713934 0.16026379 -0.16286527 -0.018645654
-0.13569401 0.18207164 0.31182155 0.18177386 0.19018686 0.070584 -0.05463964 -0.1321679
0.19141811 0.02578793 0.027626436 0.079554506 0.22729968 -0.21092626 0.2764044 0.20497945
0.15318877 0.21211757 0.051596813 0.0015859405 0.0026931248 -0.12793201 -0.15355344 -0.032731913
0.11813433 -0.13289423 0.14915186 -0.14062129 -0.119593404 0.07791286 -0.07447304 0.08656337
0.21561086 0.15087232 -0.09422281 0.17555048 0.21825391 -0.14153075 0.31423497 -0.08451956
0.109248675 0.2628429 -0.13278547 0.0011725755 0.23383427 -0.14603959 0.18743582 0.13970342
-0.0622737 -0.22755246 0.027059097 -0.033644836 0.23590195 0.31905252 0.013382077 0.26537752

model.2.bias f4 [64]
00000000: f2a0 af3d 9f70 7e3e 2b9b 303e 1e7b 8c3d
00000010: 11c4 473d f042 0d3e 4822 b93d 880a 2b3d
00000020: a82d ea3d cb5b 533e 202d 153d 73ce 3d3e
00000030: 62c3 c33c f2b8 793d 20f0 163e 144f 8e3e
00000040: 7e74 173e 22b6 fd3d 0f23 d23d 3cc9 cf3d
00000050: 2321 ac3d ea6c 8e3e a42d 293e de87 22bd
00000060: f45f d53c a630 493d cd89 a6bd cb36 bcbd
00000070: 383b 623e a39d 3a3e 5c2b 883d bcb0 323e
00000080: be8c 9b3d 52a5 a13d b05b 3b3d 0896 203e
00000090: 01ca dc3c 6769 8f3d 93f9 993c c217 8d3e
000000a0: f9d2 3e3e d5e5 983c c0b1 063e eec1 da3d
000000b0: a29c 263e 9256 33bd 8d3c 54bd 30d4 c73d
000000c0: 7a08 bd3d 9d70 213e 225c 9e3d 7133 503e
000000d0: 38c7 2e3d cfa9 833e c4cc 513e d0ec 1e3d
000000e0: e575 a73d f43a cf3d 2b92 02bd 06af 9ebd
000000f0: 423f 3a3e 9691 873e d418 243e 9ceb 3e3e
0.0857562 0.24847649 0.17246692 0.0685942 0.048770968 0.13795066 0.09039742 0.04175809
0.114344895 0.20640485 0.036419988 0.18535785 0.023896877 0.060967393 0.14740038 0.27794707
0.14790532 0.12388255 0.10260593 0.10145804 0.08404758 0.2781747 0.16521317 -0.039680354
0.02604673 0.04911866 -0.08131752 -0.091901384 0.22092903 0.18224196 0.06648895 0.17450231
0.07595204 0.078928605 0.045741737 0.15682232 0.026951792 0.07002526 0.018795764 0.27557188
0.18635167 0.01866428 0.13153744 0.106815204 0.16270688 -0.04378373 -0.05181556 0.097572684
0.092301324 0.15765615 0.07732417 0.20332123 0.04267046 0.2571549 0.20488268 0.03880006
0.081767835 0.10118666 -0.031877678 -0.07748227 0.18188193 0.2647826 0.16025096 0.18644565

model.4.weight f4 [1, 64]
00000000: 8e20 a93e 06b4 8abe e3d6 b83e 2222 d1bd
00000010: 3090 59bd 526c 8f3e 6c99 b13e 3f6d 6a3b
00000020: 0deb 853e fd47 963e 65a0 bbbd 5295 903e
00000030: 6c4b 903b ba99 d4bd 1517 afbe 75da c6be
00000040: 6da1 b7be e8cd 833e 87ca 843e a97f b13e
00000050: 44cf 863e c45b a9be 3344 8d3e e277 7bbc
00000060: 9bb3 0bbd d67a ad3e f277 91bd 55bd 1cbd
00000070: b067 9d3e cec7 be3e eb88 a73e 89d7 af3e
00000080: aa67 b93e 722e 9c3e e58d ae3e e356 aabe
00000090: a7f7 dfbb a95c bd3e 0c9f 28bd b63f b6be
000000a0: ec96 953e c9e4 b6bd a29e b43e da67 b23e
000000b0: 9396 813e c4f5 8abd 80af 13bc 2be5 a03e
000000c0: 9c6b ba3e 03f9 b63e 0c82 833e e375 8d3e
000000d0: 43ce a53e 2045 83be ab21 aabe 860d fdbb
000000e0: 343c 853e 8051 a63e 5e7d 89bd c8bf 0ebc
000000f0: 2670 923e 645e a0be 43ca ad3e 3bb6 a63e
0.3303265 -0.27090472 0.36101446 -0.102115884 -0.053116024 0.2801233 0.34687364 0.0035770682
0.26155892 0.29351798 -0.09161452 0.28238922 0.0044035222 -0.103808835 -0.34197298 -0.38838544
-0.35865346 0.25743032 0.25935766 0.3466771 0.26330006 -0.33077824 0.27591094 -0.0153484065
-0.034106832 0.3388278 -0.07102956 -0.0382665 0.3074317 0.37261814 0.32721648 0.34344128
0.36211902 0.30504185 0.34092632 -0.33269414 -0.0068349424 0.36984757 -0.041167304 -0.35595483
0.29216707 -0.08930356 0.35277277 0.34844857 0.25310192 -0.06785157 -0.00901401 0.3142484
0.36410224 0.35736856 0.25685155 0.27629003 0.32383928 -0.25638676 -0.33228812 -0.0077225594
0.26022494 0.32484055 -0.06713365 -0.008712716 0.28601187 -0.31322014 0.33943376 0.32560906
