pk_pdt.onnx (onnx, 10556 bytes, 2 tensors)

model.2.bias f4 [64]
00000000: d922 263d 4489 9a3d 3b35 243c 21d1 523d
00000010: bb0b 14bc 3de3 5c3d 525c 1abd e2e7 573c
00000020: 1410 7ebc 4952 683d f7cd 7dbc b665 a9bb
00000030: b8d0 3fbd 8325 693d 14cb 80bd f30d 10bd
00000040: 66df 183c f649 8f3c 3b9f d7ba 4f3a edbc
00000050: 6aab a8bd 15ca 4b3d 2d61 67bd 37bf 8dbb
00000060: af72 a13d 0709 8dbd fcfa a33c f444 57bd
00000070: 9a5d 183d ceda 90bd 34af 3ebc e01c c33c
00000080: 4ac7 b4bd e23b 7abd c92a 77bd 254d b4bc
00000090: 5c4a 993d ffde 453d 4b92 0bbd 415e a2bd
000000a0: aa4a 98bd 4503 5f3c 401f 733d bb84 713d
000000b0: c9dd 833c 38e4 5b3d 71da 203d 03e7 aa3d
000000c0: bda2 6b3d 2bf9 7ebd 4282 8c3b e20d de3c
000000d0: a313 323d 8494 93bc 305c 5fbd 13fb 7d3d
000000e0: 4ede 59bd 02ea a53d 7e77 28bd bd7c 15bd
000000f0: 0182 a3bd 6ccb a2bd 5db9 8f3d c220 eabb
0.040560577 0.075457126 0.010022457 0.051468972 -0.009036 0.05392765 -0.0376857 0.013177844
-0.015506763 0.0567191 -0.015491 -0.0051695956 -0.04682991 0.05692054 -0.06288734 -0.035169553
0.009330606 0.017491322 -0.0016450653 -0.028958468 -0.0823582 0.049753267 -0.05648916 -0.004325773
0.07883202 -0.068864875 0.02001714 -0.052555993 0.03719864 -0.07072984 -0.011638451 0.02381748
-0.08827074 -0.061092265 -0.060343537 -0.022009442 0.07484886 0.04830837 -0.034075063 -0.07928134
-0.07436116 0.013611619 0.059355974 0.058964472 0.016096966 0.053684443 0.039270822 0.08344843
0.057528246 -0.062249344 0.004287989 0.02710623 0.04347576 -0.018015154 -0.054531276 0.06200702
-0.053190522 0.08101274 -0.04112958 -0.036495913 -0.07983781 -0.07948956 0.07017777 -0.0071450183

model.4.weight f4 [1, 64]
00000000: c475 8dbd 5a95 a0bd a8cd f3bd b067 75bd
00000010: 26ea bfbd 946a e0bd 30b6 9b3d d877 223d
00000020: a8da 22bd 783c 4abd 409e 753c 0612 8cbd
00000030: 007e f5ba e04c 5abd 7233 e13d f823 253d
00000040: bc74 f3bd 921d d5bd 6c70 b63d 806e bbbc
00000050: 0457 bb3d dad1 eebd 8883 593d b2cd a0bd
00000060: 20a6 c1bb 080b 1d3d 84f5 a43d cc7c 59bd
00000070: 98c7 60bd 00ae e9bc 5c04 2cbd b6eb a53d
00000080: 787a f3bc 4ece e3bd d0dc c7bc 40e3 d4bc
00000090: 2061 6ebd fc9b 4ebd eca1 6abd d8c6 f23c
000000a0: 402e 513c 7293 febd 8034 d6bd 3674 fcbd
000000b0: ce98 b83d 6cd2 3c3d 0065 783b 04cc 17bd
000000c0: cc50 b83d 16e9 f1bd 4cc0 3d3d 1896 bc3c
000000d0: a85c f0bd e61f 8cbd b6ac cbbd 62ae efbd
000000e0: 44fb d73d bc90 3dbd 180e 553d 300b e03d
000000f0: 64eb 07bd 9c66 19bd 8c1a adbd e4ce bfbd
-0.06907228 -0.078409865 -0.1190446 -0.059913337 -0.09370832 -0.10957828 0.07603109 0.039665073
-0.039759308 -0.049374074 0.014991343 -0.06839375 -0.0018729568 -0.05329597 0.109961405 0.040317506
-0.118875 -0.10406031 0.089081615 -0.022879839 0.09147456 -0.1166112 0.053103954 -0.07851733
-0.005909696 0.0383406 0.08054641 -0.05309753 -0.054877847 -0.028525352 -0.041996345 0.08101599
-0.029721484 -0.11123334 -0.024397284 -0.025987267 -0.058198094 -0.050441727 -0.057283327 0.029635832
0.0127673745 -0.12430467 -0.10459232 -0.12326853 0.0901352 0.04609911 0.0037901998 -0.0370598
0.08999786 -0.11812036 0.046325967 0.023020789 -0.11736423 -0.06842022 -0.09945051 -0.11703183
0.10545972 -0.046280608 0.052015394 0.10939634 -0.03318347 -0.03745137 -0.08452329 -0.09365633
