pk_pdt_no_sex.onnx (onnx, 46283 bytes, 5 tensors)

model.0.weight f4 [128, 5]
00000000: f420 963d 592d 1e3e 0d36 943c f905 e6be
00000010: fa6b d3be b7fa 49be aa9a 1b3f 3515 ffbd
00000020: b713 ffbb ced4 ac3d a288 a03e baad 72bd
00000030: 79eb d33e 7d1c 503e c0c0 5bbe 30fb f4be
00000040: 75b6 cdbe e07b 94be 2b83 5d3d c985 393f
00000050: 1699 d3bd 29e1 2b3f 50e2 013f 3432 193e
00000060: f17c 45bd f4d1 823e 16c9 493e ddde 58bd
00000070: 874a dcbe 0dd4 d0bc 02a0 9b3d 8ea4 c43e
00000080: be71 363f d142 f6bc 69ce 79be a006 303e
00000090: cca4 e53e 8d66 9a3e 64ab 3d3e 8d34 6e3d
000000a0: 44fc f9be 4d8e 0b3f 8a4f 85bd c5a5 a8be
000000b0: b8d7 743e 9f88 a0be e0db f63e 4dd6 adbc
000000c0: 5a7c 72be f29e e3bd d0ed 833e 7d78 9d3e
000000d0: 94c1 d73e e6d5 d73e 3634 2bbe e9a2 a4be
000000e0: 72d0 223f 7109 ba3c bdeb 773e 084b 94be
000000f0: 06ce 87be 1bb6 fd3d 80c6 4a3f 220e f4bc
00000100: 4e9d 18be 9327 f2be 7134 fd3d b654 c93e
00000110: 30b9 f7be 7c46 c63d 2190 31be 3b86 993e
00000120: 2b32 e53d ca42 88bd 620e 773e e7bf eb3e
00000130: 1fb1 30bb 3e22 d63e 451c bd3e 3181 a23e
00000140: 3203 1e3d 2c57 2a3f f171 373e efd7 87be
00000150: 3a3a 623e 4ff0 c53e b65a cab8 093b 973e
00000160: 09f5 e7be abea e83e c3e5 fabe 8838 973e
00000170: cd4d 303f 3e32 cdbe e0b1 b5be bd64 9dbd
00000180: 6d20 d83e 3aef 313f 6760 633e fada 833e
00000190: ecb3 8b3e 4dc1 1ebc e758 9b3e aa0a 863e
000001a0: ed36 f23e 641b 98be 5855 fc3e fe0f 223f
000001b0: fd05 34bd bbbb bfbc 3ecf f5be 85cb 313f
000001c0: 9bb1 f93d 20c9 7a3e 8458 bebe 0515 44be
000001d0: ab77 043f 5912 253f c1a9 d73e 85ef c1be
000001e0: b7e2 18bc e3e2 0cbe a770 043f cbfc a2be
000001f0: 23b4 4e3d 36ef 44bd c10e bf3e b15f b53e
00000200: db8f 47bd 67e9 e63d 5aac ccbd b2c9 ef3e
00000210: e72f 9d3e 62a2 efbd 3179 ddbd 4c77 903e
00000220: b68b 073f 99d6 c83e 6028 a2be 3db0 f83c
00000230: 177e f3be 269e f43e 6450 073f f5c1 c1be
00000240: 48c5 9cbe efd9 eebe 2096 333f cc96 473e
00000250: 1ba3 ae3c d0b2 a13e ab58 37bf 62f4 2bbf
00000260: 2fc9 cebe d701 06be f3c8 37be ea33 a8be
00000270: 3cb8 f53e 545d 073f 03b5 a53d e87f 6bbe
00000280: 8e4b e03e 3d9b 303e a5d1 83bd 088a 843e
00000290: face 793e ee59 4fbf 1799 35bf b8a7 b6be
000002a0: ae9f 63be 4f60 a1be 6e9e 16bf d3cb 2ebf
000002b0: a747 95bd 2e25 f2bd 1913 65be 6ff5 d83e
000002c0: 3247 223f ffdc 983e 3339 8b3e 130b 603d
000002d0: c7dc 793e 5deb ef3e e390 143e e215 03bd
000002e0: b8a3 493e babc b43e 9ba6 d23e acc0 923d
000002f0: c8fa e7be 8f58 0d3e c4f0 8cbe 18bb b23e
00000300: fde3 96bd edf3 793e 28c0 febe c553 cfbe
00000310: c468 b4bd 70ae 1f3f 2ab2 07bf 2557 883e
00000320: 868e b2be 6014 f03d fd85 043f ac53 a23c
00000330: 7185 debd 6210 d5bd 7c34 fdbe 0b26 deba
00000340: f630 613e 6f4c ffbe 3925 70be 879b 363f
00000350: c720 563f c7a6 923c 9b39 9d3e 5351 b8bd
00000360: efb8 be3e 24c1 203f e95d e63c f394 9ebc
00000370: 822b 9f3e 634d 14bd 45b2 4b3f 33aa d4be
00000380: b731 d43c 5c82 1bbf 41b4 6c3e 4926 f13e
00000390: 524e 04be 9679 97bd 003b a33e dc72 253f
000003a0: ce86 7e3e ca24 26bc ae68 983e 6873 2bbf
000003b0: f9cb 41bf 8f15 0fbf 38a1 2bbe 5880 b1be
000003c0: 8881 ab3d 8a90 2fbd 7e27 c53e fcf9 a2be
000003d0: 3498 6c3d 8cb1 693e e246 9c3e e0de dc3e
000003e0: bb58 523d 4b5d 483e 4915 dabc a9c5 173f
000003f0: 890c d1bc 2292 b3be 6cd6 1a3e 2499 b8be
0.07330504 0.15446986 0.01809218 -0.44926432 -0.41293317 -0.19724546 0.60782874 -0.12455217
-0.0077843326 0.08439027 0.31354243 -0.05924771 0.4139059 0.20323367 -0.21460247 -0.4784789
-0.40178266 -0.2900076 0.05408017 0.72469765 -0.10331933 0.6714044 0.5073595 0.14960557
-0.048214857 0.25550807 0.19705614 -0.052946914 -0.4302561 -0.025491739 0.075988784 0.38406795
0.71267307 -0.030061157 -0.24395145 0.17190027 0.44852293 0.30156365 0.18522412 0.058155585
-0.48825276 0.5451401 -0.065093115 -0.32938972 0.23910415 -0.31354234 0.48214626 -0.02122035
-0.23680249 -0.11114301 0.25767374 0.30755988 0.42139876 0.4215538 -0.16719136 -0.3215554
0.6359931 0.02270958 0.24211021 -0.28963494 -0.2652437 0.123882495 0.79209137 -0.029791895
-0.14903757 -0.47295818 0.12363518 0.39322442 -0.48383474 0.096814126 -0.17340137 0.29985222
0.111912094 -0.06653364 0.2412658 0.46044847 -0.002696104 0.41823 0.3693563 0.3173919
0.038577266 0.66539264 0.17914559 -0.26531932 0.22092524 0.38659903 -9.649007e-05 0.29537228
-0.45304134 0.45491537 -0.4900342 0.29535317 0.68868715 -0.40077394 -0.3548727 -0.0768523
0.4221224 0.69505656 0.22204743 0.25753003 0.27285707 -0.009689641 0.30341265 0.2618001
0.4730753 -0.29708397 0.49283862 0.6330565 -0.043951023 -0.023404947 -0.48009676 0.6945117
0.12192079 0.24490786 -0.37176907 -0.19148643 0.517451 0.6448112 0.421217 -0.3787805
-0.009331397 -0.13758425 0.51734394 -0.3183349 0.05046476 -0.04807969 0.37315944 0.3542457
-0.048721176 0.11274987 -0.09993811 0.4683357 0.3070061 -0.11700894 -0.10814131 0.28216016
0.52947557 0.39226225 -0.3167143 0.030357474 -0.47557136 0.47776908 0.5285704 -0.3784329
-0.30619264 -0.46650645 0.7015095 0.19491118 0.02131801 0.31581736 -0.7161967 -0.67169774
-0.40387866 -0.1308664 -0.1794775 -0.32852107 0.47992122 0.5287678 0.08091166 -0.22998011
0.43807644 0.17246719 -0.06436471 0.2588656 0.24395362 -0.80996597 -0.7093672 -0.35674834
-0.22228882 -0.3151879 -0.58835495 -0.6827976 -0.07289057 -0.11823498 -0.22370566 0.4237475
0.63389885 0.29856107 0.27192077 0.05469806 0.24400626 0.46859255 0.14508395 -0.03200329
0.1969136 0.35300237 0.41142735 0.071656555 -0.45308518 0.13803314 -0.2752744 0.34908366
-0.07367704 0.24409457 -0.4975598 -0.404936 -0.08809045 0.62375546 -0.5300623 0.26628986
-0.34874362 0.11722636 0.5176695 0.019815288 -0.10865296 -0.104035154 -0.49454105 -0.0016948594
0.21991333 -0.49863002 -0.234517 0.71331066 0.83643764 0.017901791 0.30708012 -0.08999886
0.37250468 0.6279471 0.028120952 -0.019358134 0.3108788 -0.036206614 0.7956889 -0.41536102
0.025902612 -0.6074579 0.23115636 0.47099522 -0.12920502 -0.073962376 0.3188095 0.64628386
0.24856111 -0.010140607 0.29767364 -0.6697297 -0.7570186 -0.5589227 -0.16760719 -0.3466823
0.083743155 -0.042862453 0.38506693 -0.31831348 0.05776234 0.22821635 0.3052283 0.4313879
0.05135415 0.19566838 -0.026621478 0.5928598 -0.025518673 -0.35072428 0.15120858 -0.36054337

model.0.bias f4 [128]
00000000: c5ec 593f 2d7f 343f bc46 583f b5c2 86be
00000010: d000 743d 503e 603f 28d2 7fbc 4355 d33e
00000020: d00e c13e 5680 4c3f 14cd 8d3e 3540 8c3e
00000030: 92e2 273e 9324 b73e 55cd 563f abbe fd3e
00000040: 0111 653f 5758 2e3f b123 e3bd 2327 8f3b
00000050: f80f 863e 5096 443f 2d03 603e 846c 3b3f
00000060: a972 383f ea83 ad3e 6223 173f 9c80 c83e
00000070: c628 863c 9355 59be d985 a93e 1923 f23d
00000080: 39dd 2b3f 1b6e 21bd 9836 cdbb 4eb5 323f
00000090: f7c6 473f d949 e23e a2d4 533f 2967 e03e
000000a0: 9dab 063f 3549 59be 3a43 373e 6d7e 503f
000000b0: a14b 2e3e 6065 b3bd f23c 923e 2ecd f3bd
000000c0: 171b 4c3f c29d 323e c60c 743f 9097 0e3e
000000d0: eaec 693f 4e44 043f efa2 593f f10d 95be
000000e0: 9cc7 173f ccab cd3e 871d 083f 4362 ae3d
000000f0: 1240 5b3e 14c8 babd 6015 203f d79f 1d3e
00000100: a84b 80be 07b6 a53d 6ec3 bf3e 923b 313f
00000110: a9db 633e 56af d13e fb95 a73e 5740 763e
00000120: 4862 0a3f 4a5c d33d ca62 243f 4d7b adbc
00000130: 8895 80bd a173 aa3e 59cf 383f 7983 df3e
00000140: 5c49 5f3d a852 693d ee8c 543f 5227 59bc
00000150: 2eb2 603f 634e 0f3f 977c a63e 2822 793c
00000160: 6ee3 11be 12a2 af3e 2b30 343f 6183 2a3d
00000170: ee9e b83e 3b36 9a3e 1275 88be 0403 a93e
00000180: aa5a 0d3f 5eca 113f 4c05 583d b2de 9b3d
00000190: bcb7 9c3e 88ed a13e 13f4 403e 4e4c c03e
000001a0: 4494 dd3e 3cdd 8abd 5b47 633f 52ce 14bd
000001b0: 2aa2 613e de68 0ebd 3a31 683f 6c30 0d3f
000001c0: 75bf 823d 2a53 db3c d857 03bd 1873 d13e
000001d0: b88a 0abe b1ab 4a3f 5cca 2f3e 6ddf a7bc
000001e0: 3463 1d3f 7e4a bb3e ca34 2d3f b6f4 643f
000001f0: 45bb 433f c888 cd3d 0fcd f03e a121 243f
0.85126907 0.70506555 0.8448293 -0.26320425 0.059571087 0.8759508 -0.01561407 0.41275987
0.37706614 0.79883325 0.27695525 0.27392736 0.16395023 0.3577009 0.8390706 0.4955953
0.8947907 0.68103546 -0.11090792 0.004368679 0.26184058 0.7679186 0.21876211 0.73212457
0.7204996 0.33889705 0.59038365 0.3916062 0.016376864 -0.2122405 0.3310993 0.118231006
0.67134434 -0.039411645 -0.0062626116 0.698079 0.7803797 0.44196966 0.82746327 0.43828705
0.5260561 -0.21219333 0.17896739 0.8144291 0.17021038 -0.0875957 0.28562123 -0.11904369
0.79728836 0.17442992 0.9533199 0.13925004 0.9137713 0.51666725 0.8501424 -0.291122
0.59288955 0.40170133 0.53170055 0.08514836 0.2141116 -0.09120193 0.62532616 0.15393005
-0.2505772 0.080913596 0.3745379 0.6923152 0.22251762 0.40954083 0.32731614 0.24047981
0.54056215 0.10320337 0.6421324 -0.021176958 -0.06278521 0.33291343 0.7219139 0.43654993
0.05451332 0.056963593 0.8302754 -0.013254004 0.8777188 0.55978984 0.3251693 0.015205897
-0.14246914 0.34303337 0.70386 0.0416292 0.36058754 0.301195 -0.26651818 0.33010113
0.5521647 0.5694941 0.052739426 0.07610835 0.30608928 0.31626534 0.18843107 0.37558216
0.4327718 -0.06780478 0.88780755 -0.036329575 0.22034517 -0.034767978 0.90700114 0.5515201
0.06384174 0.026773054 -0.032066196 0.40908122 -0.1352948 0.7916823 0.17167038 -0.02049228
0.61479497 0.3658027 0.67658675 0.894359 0.76457626 0.100358546 0.47031447 0.64113814

model.2.weight f4 [64, 128]
00000000: 1682 a73e aeb8 c23e ce10 823e 6f1f 04bf
00000010: bcae c03e 3100 cc3e a395 993e 44e0 8c3e
00000020: 98d6 2a3e 2d4c 013f 9ff6 943e 4811 c43e
00000030: 6a57 a13e 795a a33e d8da da3e b95b 893e
00000040: 0218 af3e eb19 a63e e0df 9c3e 985c 9e3e
00000050: 91fb 2c3e 9b26 a93e 106f ba3e 6602 b13e
00000060: ab62 9f3e 3951 d13e 53b3 bc3e 596f a93e
00000070: 6f50 9d3e 32b1 fa3d 4fe7 6fbe 7265 d13e
00000080: 7512 923e 14a1 bdbe 64bd b4be 84e3 8e3e
00000090: 4648 c73e 9b37 693e 4df9 a73e 4160 463e
000000a0: 2d49 e93e feea f6be 14df 733e 1d41 b73e
000000b0: 5360 613e 3b35 c13e 3ac4 573e 5e1b e0be
000000c0: 399b f23e 3428 713e 3adf c43e f90a 643e
000000d0: 0319 b43e 4623 a73e b7b3 743e 7fb6 a3be
000000e0: 5036 b53e 782b 903e 8ba2 543e 5e23 a83e
000000f0: b345 7a3e 1ce6 c8be 0543 793e 9b98 b93e
00000100: 07f6 aabe 9e81 c03e 7d56 be3e caa2 3f3e
00000110: 57cd 733e 5f9f b03e 4c26 3b3e b49e 463e
00000120: 4714 9e3e 29ab 913e aaa3 b63e a381 033e
00000130: 4c30 d4be b005 803e d9ec be3e 8e3c b63e
00000140: 4b88 163e c8bb 8e3d 400b 7b3e f8b9 cdbe
00000150: 3956 7d3e 3ea1 783e 1198 d13e 4bfd 6f3e
00000160: abec b2be 36f3 4d3e 15f9 c63e e684 233e
00000170: f03c 753e ba64 153e 151d 00bf 7e43 773e
00000180: 34f9 c23e cdea 8e3e 38d5 693e 2426 8b3e
00000190: 818c 173e 7210 693e 8ca9 433e 4494 a73e
000001a0: f7d5 9d3e 0a93 b33e 5787 bc3e 8579 793e
000001b0: a545 653e 2be4 883e 955c ba3e 6d61 ad3e
000001c0: b0ca bb3e 0abc abbe b076 773e a7d9 433e
000001d0: 28cb 1f3e c809 833e 70bb fd3d f0af 753e
000001e0: 141f 863e e42d e53d 7d12 803e 95e4 cb3e
000001f0: 62b1 ac3e c39f 843e d0ae 463e 4e3b 803e
00000200: 1185 febc 71d2 bdbd 61a0 c6bd 9f20 b43e
00000210: ceae a53d 3284 5d3c 5269 c6bb 40c1 44bd
00000220: 69de b63d 8081 1cbe 00ce d8b9 8873 1a3e
00000230: 2720 b6bd f200 0e3e b057 ccb9 5b37 ad3c
00000240: 4d72 06bc 5414 d63c 309e bb3a c73b 1f3c
00000250: 4c63 a3bb 809f 07be f558 e5bc 88f8 c3bd
00000260: 72d7 7cbd cece 0c3e 342a 92bd c2d3 223d
00000270: 61b7 a43b 8d25 f63d 9683 0a3d 8606 0b3d
00000280: 287d 003d 4379 223e 3ea6 ab3d 8c00 b23b
00000290: cc3e c6bd 7fd6 4d3d 679a 373c 56e6 1c3d
000002a0: 1933 d73d 0738 223d e777 b23b 6ee9 06bc
000002b0: 4b73 a43c 8ca5 423e 6606 fb3c 2885 433e
000002c0: ffea a2bd a001 9e3b 3ac8 213b b062 423e
000002d0: 580e 7fbd 9aee 113d 4396 483d 5d6b 623e
000002e0: 925c 58bb 5ab2 c9bd b2fb 9b3d b211 b63d
000002f0: ebfe c63c 990b a53e d3da 963d 8ce0 d93d
00000300: 17c0 bd3d 293e 243e b2f0 c9bc 9075 b3bd
00000310: e914 9e3c 2216 1f3e 5e5d b43d 05e9 4dbd
00000320: 26b3 203d 2266 7e3d dda5 4fbd 2aa4 833d
00000330: f5b4 103e cc9e 043e ca16 d2bd 63ea c3bd
00000340: a0d8 c03d 4912 e03d 02de 22bc 20ec 873e
00000350: 9bb8 a8bc 4a94 a5bd 6466 c63c a8ba 343d
00000360: bce2 8e3d 0ce3 abbc 78dd 053d 2c45 213e
00000370: cbb9 dbbc e5a5 d9bc 396a 933e 41cc 8c3d
00000380: a7e9 61bb d480 bb3c af3d 6f3d cd02 773d
00000390: 282d df3d 0984 903d 07d5 c83c cf39 f33c
000003a0: 36eb 8abc e7d0 bf3c 37fd 41bd 3c25 8e3e
000003b0: 5836 4d3c e263 6e3e c3fa 03bd 5b6a 1ebd
000003c0: 8665 993d 8c2f a03d 91bf 4c3d fa83 0e3d
000003d0: 84a8 3d3d e74c 953c 7376 5d3d bc55 663d
000003e0: 7965 88bc e92e a33d 166c 57bd d360 b23b
000003f0: 6630 d0bc c1db da3d 5027 81bc eec2 5abc
0.32716435 0.38031524 0.25403446 -0.51610464 0.37633312 0.39843896 0.29996976 0.2751485
0.16683424 0.5050686 0.29094407 0.38294435 0.31512004 0.31904963 0.4274509 0.2682779
0.34198004 0.3244165 0.30639553 0.30930018 0.1689284 0.33037266 0.3641286 0.34572142
0.31129965 0.4088228 0.36855564 0.33092764 0.30725428 0.122408286 -0.23428081 0.4089771
0.28529707 -0.37036955 -0.35300744 0.27907956 0.38922328 0.22775118 0.3280739 0.19372655
0.4556364 -0.4822616 0.23815566 0.35791865 0.22009401 0.37735924 0.21070948 -0.4377088
0.4738405 0.23550493 0.38451558 0.2226981 0.35175332 0.326441 0.23896681 -0.3197517
0.35393 0.28158164 0.2076513 0.32839483 0.2444065 -0.3923806 0.24341972 0.3624924
-0.3339083 0.3759889 0.3717536 0.18714443 0.238088 0.3449659 0.18276328 0.19396478
0.30874845 0.28450897 0.3567174 0.12842421 -0.41443098 0.2500434 0.37290075 0.35593075
0.14700429 0.0696941 0.2451601 -0.40180945 0.24739923 0.24280259 0.4093633 0.23436467
-0.34946188 0.20112309 0.3886191 0.15968665 0.23949027 0.14589205 -0.50044376 0.2414684
0.38080752 0.27913514 0.22835243 0.27177536 0.14799692 0.2276018 0.19107646 0.32730305
0.30827305 0.3507312 0.36822006 0.24362762 0.22389849 0.26736578 0.3639876 0.33863392
0.36678076 -0.335419 0.2416637 0.19125997 0.15604842 0.255934 0.123892665 0.23992896
0.26195586 0.111903936 0.25014105 0.39822832 0.33729082 0.2590314 0.19402623 0.25045246
-0.03106931 -0.09268654 -0.096985586 0.35181138 0.08089982 0.013520287 -0.0060550356 -0.04803586
0.0892914 -0.15283775 -0.00041352212 0.15083134 -0.08892851 0.13867548 -0.00038975244 0.02114456
-0.008205962 0.02613274 0.0014314111 0.009718842 -0.0049862023 -0.13244438 -0.02799652 -0.09568888
-0.061728902 0.13750765 -0.07136956 0.03975273 0.0050267433 0.12018881 0.033816896 0.033941768
0.03136936 0.1586657 0.083813176 0.005432194 -0.09679946 0.050253388 0.011206246 0.038305603
0.10507793 0.039604213 0.0054464224 -0.008234365 0.020074507 0.19008464 0.0306427 0.19093764
-0.07954978 0.004821971 0.0024685995 0.18982959 -0.06226954 0.03562794 0.048971426 0.22111268
-0.003301416 -0.09848471 0.076163664 0.08890094 0.024291476 0.3223541 0.07365956 0.10638532
0.09265154 0.16039337 -0.024650905 -0.08762658 0.01929708 0.15535787 0.08806871 -0.050271053
0.03923335 0.06210912 -0.05069529 0.06427796 0.1413153 0.12951201 -0.10258253 -0.0956619
0.09416318 0.109409876 -0.009940626 0.26547337 -0.02059584 -0.080849245 0.024218746 0.04412332
0.0697684 -0.020982288 0.032681912 0.15749043 -0.026821991 -0.026568362 0.2879198 0.06874896
-0.0034471543 0.022888578 0.058408435 0.060305405 0.10897285 0.07056434 0.024515642 0.029690651
-0.01695786 0.023415042 -0.047360625 0.27762783 0.012525164 0.2328029 -0.032221567 -0.038675647
0.07490067 0.07821569 0.04998738 0.03479383 0.046303287 0.018225146 0.05406804 0.056234106
-0.016649948 0.07967932 -0.052593313 0.0054436713 -0.025413703 0.10686446 -0.015765816 -0.013352139

model.2.bias f4 [64]
00000000: 530c 953e 8dba 403d 1252 c53e 1411 1f3e
00000010: 3fd9 933e d7a3 e6bb d921 653e da08 763e
00000020: 4d5b 8f3e e8bc 6a3e 2a82 b13c 7899 5f3d
00000030: c70a 1cbd 5b0f a9bd da64 d63e 1dc7 2f3e
00000040: 317e 3f3d 054e 5b3e fc92 adbd d90b 003e
00000050: 2103 483e 23eb 123e cb6c c1bd e2b6 803c
00000060: ac3e 6e3e 3181 603e c68f 9bbd d940 99bd
00000070: 8381 893d b207 c03d 9983 a13c e619 2f3c
00000080: 0ea5 0c3e 3da1 abbc 3d2a 473e d977 923d
00000090: 6415 cb3d fe9e 1fbd 223b cdbd 2dfd 41bd
000000a0: aa5b 373e 6d7b ca3a f3eb b03e e308 bcbd
000000b0: 8da6 f23d ab11 333e ccd2 d83d df14 833d
000000c0: 425d e3bc 200e 953e b732 733e 12f6 5c3e
000000d0: 19cb b7ba 613b 42be 76c1 723c 8c2b 573e
000000e0: 5138 e23c d666 923d 5415 67bd 7779 5abd
000000f0: e055 d53c b9da 613e ec61 d53d 020d bcbd
0.29110965 0.04705291 0.38539177 0.15533859 0.28876683 -0.007038574 0.22376193 0.24026814
0.27999344 0.22923625 0.021668512 0.05458972 -0.038096216 -0.08254882 0.4187382 0.171658
0.046751205 0.21416481 -0.08475301 0.1250452 0.19532444 0.1434751 -0.09444579 0.015712205
0.23266095 0.21924283 -0.07595782 -0.07483072 0.067141555 0.09376468 0.019716071 0.010687327
0.13734838 -0.020950908 0.19449706 0.071517654 0.09916189 -0.038969986 -0.10021044 -0.047360588
0.17906061 0.0015448161 0.34555015 -0.091813825 0.11848173 0.17487209 0.10587081 0.06400465
-0.02775443 0.2911234 0.23749815 0.21578243 -0.001402232 -0.18967964 0.0148166325 0.21012706
0.027614744 0.07148521 -0.056416824 -0.053338494 0.026041925 0.22056092 0.10419068 -0.091821685

model.4.weight f4 [1, 64]
00000000: 918c a73e cd51 05be d4b8 943e c7d5 b13e
00000010: 27b4 b43e bc09 05bf 7097 ad3e c96a be3e
00000020: 8021 9b3e 2589 b33e 3b14 e6bc fd2e 17bd
00000030: fa35 2ebd 5889 e7bd fcb8 a33e 784c bb3e
00000040: 511c acbd 2313 b73e 94e0 d6bd 944d aa3e
00000050: 5d35 cd3e b6d9 b93e 73ea 98be 5a4c acbd
00000060: 4fb2 9e3e 8a31 a93e e33f cfbd cc61 4cbd
00000070: 5205 acbd f168 b53e 5dbe 6bbd 9825 94be
00000080: bc1f 9f3e 2d8b b1bc 7094 a43e 1568 c9bb
00000090: 5ff9 b53e 127f b4bd a541 b7bd 7b5f b5bd
000000a0: ea74 bd3e a763 fdbe 2798 a83e 92f1 9dbe
000000b0: fba5 a93e ec88 b53e 142d a23e 207c cdbd
000000c0: 4d84 85be cac7 ab3e 1168 a43e 2f9b b93e
000000d0: 6ab3 99bd 0f53 e7be a5be b0ba 47ed bf3e
000000e0: 285a 5dbe 3cb8 d1bd d1a2 a4bc 6324 9fbd
000000f0: c96a b6bc da5c bc3e 0881 c23e 62ed 31be
0.3272443 -0.13019486 0.29047263 0.34733412 0.35293695 -0.5196798 0.339046 0.37190846
0.30298996 0.3506557 -0.028085819 -0.036910046 -0.042531945 -0.11305493 0.3197707 0.3658178
-0.084038384 0.35756788 -0.10492054 0.33262312 0.40079775 0.36298913 -0.2986637 -0.084130004
0.30995414 0.33045608 -0.10119607 -0.049897954 -0.08399452 0.35431626 -0.05755459 -0.28934932
0.310789 -0.02167281 0.321445 -0.0061464407 0.35541818 -0.08813299 -0.089480676 -0.08856102
0.3700326 -0.4949009 0.32928583 -0.30848366 0.33134446 0.35456026 0.31675017 -0.100334406
-0.260775 0.33550864 0.32110646 0.36251208 -0.07504924 -0.45180556 -0.0013484551 0.37485716
-0.21616423 -0.10240218 -0.020097168 -0.07770612 -0.022267716 0.3678959 0.37989068 -0.1737571
