pk_pdt.onnx (onnx, 20101 bytes, 5 tensors)

model.0.weight f4 [64, 6]
000000 0c 63 20 be 3c e5 25 3f 1c 7c 83 3e ee a9 8e 3e
       -0.15662783 0.6480291 0.25680625 0.2786402
000010 de 08 4a 3e 99 11 11 be f8 5c 86 3e f8 83 92 3e
       0.19729945 -0.14166869 0.26242805 0.2861631
000020 3f be 7a 3e 96 b6 09 bf c1 26 20 be da 84 05 bf
       0.24486636 -0.5379423 -0.15639783 -0.5215584
000030 5a 2d ca 3e cc 0f 41 3e 0c 23 24 3f 10 bd b6 be
       0.39487725 0.18853682 0.6411598 -0.35691118
000040 b0 ba 1e 3e b5 a7 06 3d 9a 1e c9 3e 5d 18 0d 3f
       0.15500903 0.03287478 0.3928116 0.551153
000050 f7 52 e7 3e 32 c4 b1 bd 40 b9 93 3e 57 aa e4 be
       0.45180485 -0.086799994 0.28852272 -0.4466121
000060 28 e0 6f 3e 30 fe 0b 3e 2d c2 36 3f aa aa fb 3c
       0.23425353 0.13671184 0.7139004 0.030721027
000070 63 c5 81 be 6d 47 d1 3e f5 cc 31 bf 07 16 1c 3f
       -0.25345907 0.40874806 -0.69453365 0.6097111
000080 a7 cb 8c 3d 95 48 d3 be 30 52 51 be 5c 21 d8 be
       0.06874781 -0.41266313 -0.20441508 -0.4221295
000090 ab a4 23 3f 0f f3 91 3d 9b d8 2e 3e 37 e8 a7 3e
       0.6392314 0.07126438 0.17074816 0.32794353
0000a0 68 b5 77 be 33 a8 c9 3e 23 f4 32 be 83 79 12 3f
       -0.24190295 0.39386138 -0.17475943 0.5721666
0000b0 bb c1 c4 3e ff 62 69 be 6b e4 ea bd eb c4 51 be
       0.38429055 -0.2279167 -0.114693485 -0.20485274
0000c0 84 27 ef 3e 0d 00 0b 3f d2 ef a1 3e 8b 40 a5 3e
       0.46709836 0.5429695 0.3162828 0.32275805
0000d0 24 86 61 be e8 3a d2 3e b4 20 88 be 77 c0 54 3f
       -0.22023827 0.41060567 -0.2658745 0.8310618
0000e0 fa d2 43 3f ef 42 dc bd f9 1f 2d be 81 cc 75 3e
       0.764938 -0.10754954 -0.16906728 0.24003793
0000f0 73 03 d1 3e 6c 97 c4 3e b8 53 0a 3f e3 d6 c0 3e
       0.40822944 0.38396776 0.54033995 0.37663946
000100 8a 4e b5 be 09 3e 98 3e df f5 85 3e f6 68 09 3f
       -0.35411483 0.2973483 0.26164147 0.5367578
000110 10 25 44 3e bf ef 2e 3e 42 db 58 bb 7b 8c 1c be
       0.19154763 0.17083643 -0.0033089672 -0.15287964
000120 56 ad 0c bf e2 7b 02 3f a1 85 ad 3e 87 06 f2 bd
       -0.5495199 0.5097028 0.33891013 -0.11817651
000130 69 7c ac 3e 29 45 e6 3e a0 6f 0b be cd f9 22 3e
       0.33688667 0.4497464 -0.136168 0.15915604
000140 b2 a9 98 3e ee ff da 3e c0 a8 de 3e b1 4f 6c bd
       0.29816967 0.42773384 0.4348812 -0.057693187
000150 58 05 f6 be 76 fc 22 3f 7d 26 bc 3e 73 94 8b be
       -0.48050952 0.63666475 0.36748114 -0.27261695
000160 99 e1 2d b9 dd 75 c8 be 18 8d a0 bc d2 13 7b 3e
       -0.00016582607 -0.39152423 -0.019598529 0.2451928
000170 4c b8 18 3e 5d a2 72 3e 6e 7b 15 bf a4 fa 69 3e
       0.14914054 0.23694749 -0.58391464 0.22849518
000180 a7 48 02 3f ae 8f f5 3e af 58 84 3e ca 26 c6 3d
       0.5089211 0.4796118 0.2584891 0.09675367
000190 05 63 b7 be 0a 53 95 3e 3b 09 6c bd 20 75 01 3d
       -0.35817733 0.29164916 -0.05762599 0.03160584
0001a0 a3 75 3a 3f ba 48 81 be 03 5e 81 3e 94 37 ca be
       0.7283575 -0.25250798 0.25267038 -0.39495528
0001b0 44 22 f0 3e 45 f2 d6 3e 39 87 90 3d 93 8c 27 bd
       0.46901143 0.41981712 0.07057042 -0.040905546
0001c0 db 9b 02 be b0 05 a2 be e5 b8 bb be ff 52 50 3f
       -0.12754767 -0.31644964 -0.366645 0.8137664
0001d0 3e 3c 20 3f 5a 29 d7 3d b8 f6 80 3e 56 cb 1c 3c
       0.6259192 0.10505934 0.2518823 0.009569963
0001e0 b0 36 a0 3c 39 ee 4d 3f 85 92 6e 3e 96 15 46 be
       0.019557327 0.80441624 0.2329808 -0.19344172
0001f0 9f 0d 84 3e 9f 65 de 3e 80 36 b3 bd 57 bc ea 3e
       0.25791642 0.43436906 -0.087506294 0.45846817
000200 18 d3 11 3f 09 f9 52 be cd d8 2c be 78 8b a5 3e
       0.5696273 -0.20602812 -0.16879578 0.3233297
000210 50 0f 81 3e 9a a2 19 3f 6b bb 37 3f 42 9a a3 be
       0.25206995 0.60013735 0.7177035 -0.31953627
000220 2a 26 93 bd ab 1e 03 be fb 5d c7 3e ff 86 91 3e
       -0.071850136 -0.12804668 0.3893889 0.28423306
000230 1b 6d 00 3e 3b 26 f3 be d6 81 f3 be 75 85 0d bf
       0.1254162 -0.47490105 -0.47559994 -0.55281764
000240 75 c5 99 3e 39 ec 90 3d 0e d9 15 3f a1 e7 f0 be
       0.3003346 0.07076306 0.58534324 -0.4705172
000250 87 73 14 3d 60 13 94 3d e3 6c fd 3e 58 a1 6e 3e
       0.036242988 0.07230258 0.49497136 0.23303735
000260 e3 e0 d5 3e f7 08 6f be cc 88 9d 3e 67 a4 17 3c
       0.41773137 -0.23343264 0.3076843 0.009255505
000270 16 b3 01 bf b9 ce 4d 3f 8a 8a d8 3e 09 bc a6 be
       -0.5066389 0.8039356 0.42293197 -0.32565334
000280 81 8d b1 3e f0 fb e5 be 95 52 ed 3e 0a b9 0b 3f
       0.3467827 -0.44918776 0.46352068 0.5457922
000290 b1 40 ac 3e a3 77 94 3e 10 8c 77 bd bc 44 ee be
       0.33643106 0.28997526 -0.06043631 -0.46536815
0002a0 b2 38 f3 be 6d 56 1a 3f f1 9f 30 3e 14 be 77 3d
       -0.47504193 0.60288125 0.17248513 0.060484007
0002b0 40 df 3d 3c 20 bd ee 3e 73 08 b7 3e d5 c8 4b 3e
       0.0115888715 0.46628666 0.35748634 0.1990083
0002c0 63 ae 42 3f 89 c0 bc 3e c3 3f 7c be 74 5a 1b be
       0.76047343 0.36865643 -0.24633698 -0.15171224
0002d0 9d 24 18 bf 12 04 f3 3d df 72 0a 3f df 13 c2 be
       -0.5943087 0.11866011 0.5408153 -0.37905785
0002e0 a6 a8 87 be 04 6e bf 3e 68 6b 50 3e 1b 75 e7 3d
       -0.26495856 0.37388623 0.20353472 0.11301633
0002f0 94 37 39 3f a8 a2 70 be 9b 63 87 3e 94 12 2b 3d
       0.7235043 -0.23499548 0.2644318 0.041765764
000300 3e fc e3 be 73 65 a4 3e 68 14 ab 3e bb e0 9b be
       -0.44528383 0.3210865 0.33414006 -0.30444893
000310 34 14 82 3d 16 19 a1 3e 23 08 62 3d b4 6c 63 3e
       0.0635151 0.31464452 0.05518354 0.22209436
000320 7b 8c 3b 3f 07 77 b4 3e 5c 4f f6 3d 06 db e4 be
       0.7326123 0.3524706 0.12026855 -0.44698352
000330 2e 40 cb 3e 96 87 e3 3e 49 17 d7 3e 9a 0f b2 3d
       0.39697403 0.4443938 0.42009953 0.08694382
000340 9b b1 4b 3e d0 bd 7b 3c 42 54 94 3c 57 b6 43 3f
       0.1989197 0.015365079 0.018106584 0.76450104
000350 0e 12 1b 3f 0d db 54 be 67 93 78 3d 0f b0 db 3e
       0.60574424 -0.20786686 0.06068745 0.4290776
000360 1c 83 3c 3e ad 03 03 3e 46 50 56 3f b1 f3 8a be
       0.1840939 0.12794371 0.8371624 -0.27139047
000370 49 dd 65 3e 9b 9e bd be dd da 99 3e 23 32 c1 3e
       0.22447695 -0.3703507 0.30049792 0.37733564
000380 b7 38 96 3e c6 2c e7 3e 46 93 02 3f f9 4a 0c 3f
       0.29340145 0.45151347 0.5100597 0.548019
000390 96 38 a8 3d 78 53 62 3e 92 f8 1d 3f bb f4 98 be
       0.08213918 0.22102153 0.61707413 -0.29874215
0003a0 e5 bc d7 3e 30 5f e5 be 86 2b e3 3e 6d 23 13 3f
       0.42136303 -0.44799185 0.44369143 0.5747593
0003b0 d0 7a 48 3f d3 67 00 3e 96 a1 30 3e 25 4c 98 3d
       0.78312397 0.12539606 0.1724914 0.074363984
0003c0 42 96 93 be c7 c5 cb 3e 8e e7 ad 3e f9 6c a1 3e
       -0.28825575 0.3979933 0.33965725 0.31528452
0003d0 55 13 9b 3e 46 29 07 bf d8 77 27 be 39 59 3d 3f
       0.30288187 -0.52797353 -0.1635431 0.7396427
0003e0 31 44 19 3f a1 fe 20 be 71 dd a7 bc 34 83 e1 3d
       0.59869677 -0.15722133 -0.020491334 0.11011353
0003f0 86 44 30 be 6c fc 02 3f a6 af 1a 3f 00 59 f7 bd
       -0.1721364 0.51166415 0.6042427 -0.12077522

model.0.bias f4 [64]
000000 4a 27 41 3f 12 f2 61 3e e0 be c2 3e 2a c9 3e 3e
       0.75450575 0.22064999 0.3803625 0.18631425
000010 c8 0c 25 3f 5d c7 35 3e a8 c5 31 3e 8d 70 38 3f
       0.6447263 0.17751832 0.17360556 0.7204674
000020 1d 35 d1 3e 5f 0a 37 3f e0 8b 03 3f de a5 a1 3e
       0.40860835 0.715002 0.5138531 0.3157186
000030 07 08 7f 3e ac ce 28 3f e3 2f 1d 3d 4b 39 e4 3e
       0.24905406 0.65940356 0.038375746 0.4457496
000040 8d d8 7d 3e 1b db 0d 3f 10 24 8c 3e e8 fc 88 3d
       0.24789639 0.55412453 0.27371264 0.06688863
000050 cc f0 70 3d ba 1a 48 3d 7b 9b 50 3e c1 e1 61 3d
       0.05882339 0.048853613 0.20371811 0.055146936
000060 a3 fa 22 3e ba 44 84 3e 1b b1 82 3e 53 a5 1f 3e
       0.15915923 0.25833684 0.25525746 0.1559041
000070 86 aa b4 3e 97 d3 3f 3e 9f 0f 43 3f f4 68 b9 3e
       0.3528635 0.18733059 0.7619571 0.36212885
000080 54 d0 03 3f 33 c1 de 3e d6 2b 01 3f cd 24 53 3e
       0.5148976 0.43506774 0.50457513 0.20619507
000090 22 b9 3c 3f 1a 0e 0f 3e 48 bd b9 3d 9c 19 37 3f
       0.7371999 0.13970223 0.09069306 0.7152345
0000a0 d0 a8 46 3e c1 60 fa 3e 29 c4 67 3d 28 64 05 3f
       0.19400334 0.48901942 0.056583557 0.5210595
0000b0 a8 76 c6 3e 49 63 37 3e c4 4e 8d 3e 8c 97 31 3f
       0.38762403 0.17908968 0.27599156 0.6937187
0000c0 f2 0e 6e 3e 09 31 7c 3e 3e ce a0 3e 89 54 2a 3f
       0.23247889 0.2462808 0.3140735 0.6653524
0000d0 aa 7a 11 3f 61 d3 f8 3e 16 a8 85 3e 57 ef 1f 3f
       0.56827796 0.4859877 0.26104802 0.6247458
0000e0 d3 8c 35 3f fe 38 a1 3e a3 e8 a6 3e 92 81 14 3e
       0.70918006 0.31488794 0.32599363 0.14502552
0000f0 48 26 43 3f a8 d3 e1 3e 43 0a 70 3e b1 8d b5 3e
       0.7623029 0.44106793 0.23441415 0.35459664

model.2.weight f4 [32, 64]
000000 dd 28 cf 3e a8 66 a7 3e 2f 34 a6 3e b4 e2 d0 3e
       0.40460864 0.32695508 0.32461688 0.4079796
000010 d4 6a 8f 3e a4 c8 d9 3e d9 7e 60 3e 7e 78 91 3e
       0.2801119 0.4253589 0.21923389 0.2841224
000020 af 43 f1 3e 86 04 f7 3e 76 9a 96 3e 24 04 b8 3e
       0.4712195 0.4824564 0.2941472 0.3594066
000030 17 3f e8 3e 9b 75 02 3f 4d ac d8 3e 2a 6a db 3e
       0.45360634 0.509607 0.42318955 0.42854434
000040 94 f9 e0 3e e2 db c4 3e 87 bf 87 3e 96 81 bd 3e
       0.43940413 0.38449007 0.2651331 0.3701293
000050 e6 f6 dc 3e 2c 48 bf 3e 90 b0 bf 3e eb d4 aa 3e
       0.4315712 0.3735975 0.37439394 0.3336557
000060 d0 3c df 3e 1b dd ea 3e d3 4c 9d 3e 4c c0 00 3f
       0.43601084 0.45871815 0.30722675 0.5029342
000070 e9 38 0d 3f 03 df c0 3e 26 1c 9d 3e ee bd bb 3e
       0.55164963 0.37670144 0.30685538 0.36668342
000080 01 e2 ef 3e 34 86 f4 3e 76 02 01 3f bc 67 ea 3e
       0.46852115 0.4775864 0.5039438 0.45782268
000090 4d 7a a1 3e b8 86 96 3e 7c 01 c3 3e e6 78 c3 3e
       0.3153862 0.29399657 0.3808707 0.38178176
0000a0 4b 6a cd 3e 78 7b 03 3f f9 1f c0 3e 1e 14 ae 3e
       0.40120158 0.51360273 0.37524393 0.33999723
0000b0 76 0b f6 3e 11 b1 f9 3e c7 90 d3 3e 9a 31 b9 3e
       0.4805562 0.48767903 0.41321394 0.36170655
0000c0 ac be 53 3e 38 56 3f bf 77 7f 95 3e 96 bd e0 3e
       0.20678204 -0.74740934 0.2919881 0.43894643
0000d0 30 fb 9a 3e fe 00 ca 3e 0a 47 d3 3e 33 14 fa 3e
       0.30269766 0.39453882 0.41265136 0.48843536
0000e0 a7 7c bc 3e a1 23 fe 3e f3 f6 a7 3e 5b 44 b4 3e
       0.36813852 0.49636558 0.32805595 0.352084
0000f0 7c 07 99 3e 1a 23 ed 3e d8 09 af 3e a7 a4 9c 3e
       0.29888523 0.46315843 0.34187198 0.3059437
000100 9f 05 a3 3d aa 87 4e 3e 92 5f 70 be d7 98 97 be
       0.079600565 0.20168939 -0.23473957 -0.29608795
000110 23 b0 83 3c 3b a3 da 3e 23 5a c6 3e 24 1b b2 3d
       0.0160752 0.4270266 0.38740644 0.08696583
000120 b9 8a 2c be e2 28 aa be 34 7d 31 3e 42 ab db be
       -0.16849793 -0.33234316 0.17332917 -0.42904097
000130 b7 24 af 3e 1e 3f db 3e e7 f5 5c be ee 9f e1 3e
       0.342077 0.42821592 -0.2157818 0.4406733
000140 41 b3 9b bd 1f 16 63 3e 1b fb 13 be 14 7d cc be
       -0.07602549 0.22176407 -0.14451258 -0.39939177
000150 a6 33 59 be 12 37 7d be 10 c6 a2 be e3 1e 6a 3e
       -0.21211109 -0.24728039 -0.31791735 0.22863345
000160 a9 83 ef 3d 59 ba 24 3d a6 0c 92 bd 28 a1 7c be
       0.11695034 0.040216777 -0.07131319 -0.24670851
000170 fc 66 50 3e be b3 57 be 3d 8a 06 3f 37 21 b4 bc
       0.20351785 -0.2106466 0.52554685 -0.021988494
000180 87 b9 97 3e 64 c8 26 be 58 b6 92 be e4 71 bd be
       0.29633734 -0.1628738 -0.28654742 -0.37000954
000190 3b 35 0e 3e 34 a2 65 3e 55 5a 97 3d 8b 7e d2 be
       0.13887493 0.22425157 0.07390276 -0.4111217
0001a0 f0 ae 69 3e ff ab c7 be 73 3e a4 be bd ce f0 be
       0.2282064 -0.3899841 -0.32078895 -0.4703273
0001b0 b3 a4 ea be df ed cd be b2 47 51 3e f8 79 59 bd
       -0.4582878 -0.40220544 0.20437506 -0.053094834
0001c0 77 28 1a 3f be e0 42 3f 9f 0f 45 3e 91 e0 5e 3e
       0.60217994 0.7612418 0.1924424 0.21765353
0001d0 6c 44 2e 3e b2 98 83 3d 3d af 4b 3e 79 1a 74 be
       0.17018288 0.06425609 0.19891067 -0.23838224
0001e0 18 c1 53 be 36 47 06 3e 00 27 a3 bd 68 32 a4 bb
       -0.20679128 0.13113102 -0.07966423 -0.0050108917
0001f0 5e 1d d9 3d b8 e3 ad 3d b7 11 e9 3e 36 e7 d6 3d
       0.106013045 0.084906995 0.45521328 0.10493319
000200 67 55 88 3e 03 d0 9f 3e 14 8b b7 3e 77 b1 aa 3e
       0.26627657 0.31213388 0.35848296 0.3333852
000210 9f c5 f3 3e 58 fa b4 3e 16 05 ac 3e c3 51 d3 3e
       0.4761171 0.35347247 0.3359763 0.41273317
000220 f0 df c3 3e 82 22 d9 3e 43 3e f4 3e a4 01 08 3f
       0.38256788 0.4240914 0.47703752 0.53127503
000230 8a 53 ee 3e 92 cd e6 3e d4 57 9e 3e e6 d2 ba 3e
       0.4654811 0.45078713 0.30926383 0.36489028
000240 1b 29 a3 3e 64 6e e9 3e 39 39 d2 3e a3 a9 d7 3e
       0.31867298 0.45592034 0.41059282 0.4212161
000250 c6 39 06 3f e4 af cb 3e 33 9c bd 3e 9e a1 b0 3e
       0.52431905 0.3978263 0.37033233 0.34498304
000260 0f 24 bb 3e c0 44 86 3e 81 b9 d0 3e 20 62 a1 3e
       0.36550948 0.26224327 0.40766528 0.31520176
000270 98 1f cc 3e 79 8a 8f 3e 25 3f 8c 3e 80 93 ad 3e
       0.39867854 0.28035334 0.27391925 0.33901596
000280 e4 4b 9f 3e c7 8a fa 3e fc 3a b1 3e 3d 22 d1 3e
       0.31112587 0.48934004 0.34615314 0.40846434
000290 d7 0e 9f 3e 44 0a e2 3e cc ff ca 3e cb c6 97 3e
       0.3106601 0.44148457 0.39648283 0.29643854
0002a0 7b cf aa 3e d1 7e f1 3e 66 fe ab 3e 2a 18 be 3e
       0.3336142 0.47167066 0.33592528 0.3712781
0002b0 0c a3 ac 3e 52 13 cf 3e 1f 30 08 3f 3c 9a bf 3e
       0.33718145 0.40444428 0.53198427 0.3742236
0002c0 93 82 8d 3e 3f c8 12 bf a4 4c 93 3e d9 6d f8 3e
       0.27638683 -0.573368 0.2876941 0.48521307
0002d0 a4 72 a6 3e bc ad da 3e bf 9f de 3e 50 49 ab 3e
       0.3250934 0.42710674 0.43481252 0.3345437
0002e0 10 e3 96 3e 6c 70 b0 3e 2e 42 b2 3e ae 56 f7 3e
       0.2947011 0.3446077 0.34816116 0.4830832
0002f0 13 70 c5 3e 1f 32 03 3f 9d a6 fe 3e 7c 43 da 3e
       0.38562068 0.51248354 0.4973649 0.42629611
000300 4b 13 90 3e e8 65 e8 3e 8d 6d ef 3e 02 fd e7 3e
       0.2813972 0.45390248 0.46763268 0.45310217
000310 b7 e6 85 3e 98 6c a4 3e 1a c4 85 3e 71 1e 75 3e
       0.26152584 0.321141 0.26126176 0.23937394
000320 5b 26 dd 3e f4 15 a9 3e eb bd 8c 3e df dd 9f 3e
       0.43193325 0.3302456 0.27488646 0.31223962
000330 dd ec 00 3f 42 95 fb 3e df 12 ec 3e 1d 0c da 3e
       0.50361425 0.49137312 0.46108148 0.42587367
000340 0c 56 c1 3e 54 4d cd 3e 8d 8e cd 3e da cd de 3e
       0.3776096 0.4009806 0.4014782 0.43516427
000350 8e cd 03 3f f9 70 9a 3e 75 df 85 3e 5d 03 c4 3e
       0.51485527 0.30164316 0.26147047 0.38283816
000360 ba c1 be 3e ae bf 9e 3e c7 d5 bd 3e 3f 7d 7e 3e
       0.37257177 0.31005615 0.37077162 0.24852465
000370 d6 c1 cf 3e ce d5 c8 3e 91 8a bd 3e 0d 4c ed 3e
       0.40577573 0.3922562 0.3701978 0.46347085
000380 bb 84 d8 3e be f0 f2 3e c9 ac 8c 3e c9 90 97 3e
       0.42288765 0.47449297 0.27475575 0.2960265
000390 d0 f3 db 3e 01 51 87 3e 63 45 fd 3e 7b 08 c7 3e
       0.42959452 0.2642899 0.49467 0.38873658
0003a0 6d 79 c6 3e 5c ca e6 3e ab db a6 3e 8e 74 d5 3e
       0.38764516 0.45076263 0.32589468 0.41690487
0003b0 06 1f 7e 3e 68 3f 95 3e 4e 3e d7 3e 82 67 f2 3e
       0.24816522 0.29149938 0.42039722 0.47344595
0003c0 98 ae e7 3d 5d 60 46 bf f2 45 c1 3e c1 cb a0 3e
       0.11312598 -0.7749079 0.37748677 0.31405452
0003d0 d2 b9 e0 3e 24 a0 e1 3e f0 d8 89 3e f1 47 bd 3e
       0.4389177 0.4406749 0.26923323 0.3696895
0003e0 b6 b4 88 3e 8c e4 dc 3e 01 4c ed 3e e0 a6 fb 3e
       0.26700372 0.43143117 0.4634705 0.49150753
0003f0 79 0b b3 3e 85 ff 8d 3e 35 b9 8b 3e e1 27 9d 3e
       0.3496969 0.27734008 0.2728974 0.30694488

model.2.bias f4 [32]
000000 08 dc b7 3e 6b ef e9 3e 46 79 42 3e ca ba a9 3e
       0.35910058 0.45690474 0.18991575 0.3315032
000010 c4 2a df 3b 6d 81 fe 3d 9e a0 48 3e 1a 53 15 3e
       0.006810518 0.1242703 0.1959252 0.14582482
000020 4c 14 97 3e 1f 10 9c 3e 36 61 9f 3e 85 23 d6 3e
       0.29507673 0.3048105 0.31128854 0.41823974
000030 2a 24 cf 3e bb fb 7d 3e 8a 56 83 3e 16 32 db 3e
       0.40457278 0.24803059 0.25651962 0.4281165
000040 13 a9 de 3e 7d 1e 63 3e 87 e9 b7 3e dc b0 f4 3d
       0.43488368 0.22179599 0.35920355 0.11947796
000050 8a 89 a6 3e 3e f5 ca 3e a4 5f 85 3e 7d b7 5c 3e
       0.3252681 0.3964023 0.2604953 0.2155437
000060 5c 3e 88 3e 19 4f 11 3e 20 f3 0b 3e bf b9 eb 3d
       0.26610076 0.1419033 0.13666964 0.11510038
000070 6d 85 73 3e 6b 0f b0 3e a9 9e 0c 3c bd 8b 07 be
       0.23781367 0.34386763 0.008582749 -0.132369

model.4.weight f4 [1, 32]
000000 1c 99 e8 3e b3 d7 48 bf be d6 fa 3e 0f de 12 3f
       0.45429313 -0.7845413 0.4899196 0.57370085
000010 2a c3 17 be 38 a4 d5 be fe b5 18 3f f4 40 14 3f
       -0.14820543 -0.4172685 0.596527 0.5791161
000020 e2 4f 45 bf 51 5e 11 3f 4e 5a fc 3e 26 b3 16 bf
       -0.77075016 0.5678454 0.49287647 -0.5886711
000030 ae 1d 38 bf 7e e4 01 bf e2 67 d7 3e cf 1c f9 be
       -0.7192029 -0.50739276 0.42071444 -0.48654792
000040 8d d7 3d bf d8 d9 18 3f 82 0f d5 3e b0 e4 0e 3f
       -0.7415703 0.59707403 0.41613394 0.558177
000050 ba de 01 3f a2 6d 1e bf b2 93 15 3f 78 9f e6 be
       0.5073048 -0.61886036 0.5842849 -0.4504354
000060 15 6c 11 bf 82 97 ff 3e 5e 82 18 3f 33 13 90 be
       -0.56805545 0.4992028 0.59573925 -0.28139648
000070 85 09 dd 3e 35 a2 de 3e 77 2d 00 bf 9c 74 ee bd
       0.43171325 0.4348313 -0.50069374 -0.11643335
