pk_pdt_trained.pth (torch, 40041 bytes, 5 tensors)

model.0.weight f4 [128, 6]
0.3201255 0.2847467 -0.38335714 0.07364523 -0.11802845 0.080906294 0.069000304 0.35986236
-0.059190888 0.3605207 0.05889835 0.04974326 -0.26787576 -0.14411624 -0.07599253 0.20800832
-0.11410823 0.33632043 -0.3081258 -0.30882636 -0.046220694 0.13479754 -0.18413618 -0.4067047
0.14126246 -0.3045869 -0.28523067 -0.2534743 0.2915951 -0.32262117 -0.34901386 0.14987078
-0.32588187 -0.3352175 0.28671885 0.048349924 0.17469673 -0.11549324 0.38567388 -0.059048
0.39349344 -0.23624022 0.3132936 -0.30608612 -0.30777296 -0.3348244 0.38852245 0.14704493
-0.2356809 0.25369698 0.22847916 -0.19838417 -0.048078217 -0.1168107 -0.121342674 -0.21595252
0.058091402 -0.1553194 -0.31194907 -0.25258562 0.31049106 -0.09389478 -0.3613718 0.090586446
-0.2102907 0.06033943 -0.0742159 -0.37738386 0.07328071 -0.3802494 0.2586769 -0.12080709
0.24248523 -0.40219998 0.009914293 0.24473472 0.107762784 -0.34289593 0.2376704 0.059323017
0.2934943 -0.057022724 -0.26790848 0.15244809 -0.05704876 -0.31910118 -0.40179574 -0.0977221
-0.28813997 -0.10426061 -0.32847786 0.3269914 -0.27979907 -0.29031947 0.09061716 0.15590027
0.40113255 0.28191546 -0.29888666 -0.25231737 -0.1309527 -0.31240836 -0.067645706 0.1897304
0.29450595 0.26821148 0.26315722 -0.2845019 -0.28501663 -0.032250542 0.113523684 -0.2678243
0.24981837 -0.3704567 -0.19310677 -0.4033868 -0.3079583 0.2037957 -0.050747454 -0.37024522
-0.024804203 0.18285245 -0.05243508 -0.22343673 0.2541709 -0.20818907 0.16687448 -0.22818589
-0.13235018 -0.18717363 0.01664343 0.19527021 -0.09065205 -0.32233462 -0.30284008 -0.062434394
-0.33817023 -0.070452236 0.22577463 -0.20555604 -0.063518114 0.28367487 -0.3236606 0.07507638
0.10715016 -0.39246094 -0.13205925 -0.40664873 -0.16655007 -0.4010998 -0.2746563 0.055075653
-0.2060886 -0.3377243 -0.29825404 -0.12825772 0.35023078 0.38245714 0.00550594 0.17521319
-0.09117624 0.3505879 0.28972125 0.21549267 0.093988225 -0.19110471 -0.06644908 0.3900429
-0.03490781 0.050022513 -0.30933264 0.19084896 -0.1960631 0.2629708 0.11603413 -0.23419505
-0.025695052 -0.12819226 -0.032221295 0.21309347 0.17400804 0.22086701 -0.30803123 0.09289482
-0.36914232 0.05631773 -0.018699318 0.2778805 0.056229014 0.11938606 0.34445164 -0.010385682
0.1425737 -0.37279966 0.38423875 0.34694454 0.025963206 -0.2674705 -0.33663195 -0.14938931
0.14465694 0.14135756 -0.04475314 0.2543866 0.1870088 0.16967201 0.111186504 0.30766857
-0.23421971 -0.2858593 0.24615481 -0.20064066 -0.030816669 0.21098936 0.17934832 -0.31485683
0.2741363 0.0618045 0.36188594 0.34001762 0.21177611 0.026220607 0.30363843 0.38109046
0.28968078 -0.22019672 -0.2602637 0.24945891 0.21553135 -0.004857209 0.31952366 -0.4042799
0.25395653 0.27779177 -0.37266642 -0.3496072 0.2614767 0.25256446 -0.070220776 -0.30423823
-0.040809657 -0.086716644 -0.31320843 -0.15418029 -0.012061384 -0.29266188 0.2637071 -0.32058406
0.036866803 -0.049881816 -0.25899005 -0.29261753 -0.23631522 -0.18692027 -0.06567129 0.34056577
00000000: 7de7 a33e 52ca 913e 6347 c4be 4fd3 963d
00000010: e6b8 f1bd 33b2 a53d 0850 8d3d e13f b83e
00000020: 2572 72bd 2b96 b83e 653f 713d 97bf 4b3d
00000030: 0327 89be 3593 13be f9a1 9bbd 2200 553e
00000040: 93b1 e9bd 3132 ac3e aac2 9dbe 7d1e 9ebe
00000050: e951 3dbd 5e08 0a3e 328e 3cbe 993b d0be
00000060: 1ba7 103e d0f2 9bbe c109 92be 62c7 81be
00000070: f44b 953e 9a2e a5be f2b1 b2be ba77 193e
00000080: fdd9 a6be a1a1 abbe d0cc 923e 920a 463d
00000090: b3e3 323e b887 ecbd 0c77 c53e 51dc 71bd
000000a0: f977 c93e f5e8 71be 0568 a03e 52b7 9cbe
000000b0: 6b94 9dbe 1b6e abbe 6aec c63e f292 163e
000000c0: 5556 71be 92e4 813e 71f6 693e 3825 4bbe
000000d0: aaed 44bd 733a efbd 8282 f8bd a822 5dbe
000000e0: 40f1 6d3d 0c0c 1fbe cab7 9fbe e752 81be
000000f0: aff8 9e3e e84b c0bd b905 b9be 6385 b93d
00000100: 7256 57be 7a26 773d 81fe 97bd 7538 c1be
00000110: 3214 963d 0db0 c2be 4c71 843e b569 f7bd
00000120: 0c4e 783e 28ed cdbe 8f6f 223c bd9b 7a3e
00000130: bcb2 dc3d 0e90 afbe df5f 733e b1fc 723d
00000140: e344 963e a990 69bd 4d2b 89be 5a1b 1c3e
00000150: f6ab 69bd 3b61 a3be 2cb8 cdbe 8622 c8bd
00000160: 1587 93be 9686 d5bd 402e a8be 6b6b a73e
00000170: d341 8fbe c1a4 94be 7d95 b93d 52a4 1f3e
00000180: 3f61 cd3e 3957 903e ac07 99be be2f 81be
00000190: 7718 06be fdf3 9fbe d589 8abd b048 423e
000001a0: 7cc9 963e 0453 893e 8bbc 863e 3caa 91be
000001b0: b3ed 91be 2519 04bd 1b7f e83d 4420 89be
000001c0: 63d0 7f3e 80ac bdbe c8bd 45be b788 cebe
000001d0: b6ac 9dbe d2af 503e 90dc 4fbd c890 bdbe
000001e0: 2f32 cbbc ac3d 3b3e 2bc6 56bd 99cc 64be
000001f0: b022 823e 842f 55be 25e1 2a3e 90a9 69be
00000200: ce86 07be 72aa 3fbe cd57 883c eaf4 473e
00000210: c8a7 b9bd 0b09 a5be db0d 9bbe 35bb 7fbd
00000220: a624 adbe 4349 90bd 7731 673e 487d 52be
00000230: c915 82bd d53d 913e d8b6 a5be a5c1 993d
00000240: 8b71 db3d a4f0 c8be 8a3a 07be 4334 d0be
00000250: 1a8c 2abe f45c cdbe c09f 8cbe 0297 613d
00000260: e408 53be 33ea acbe c1b4 98be fe55 03be
00000270: 7351 b33e 6cd1 c33e 2c6b b43b 166b 333e
00000280: 9cba babd 4280 b33e 5856 943e 1caa 5c3e
00000290: e67c c03d f4b0 43be 7516 88bd b4b3 c73e
000002a0: 7efb 0ebd 68e4 4c3d d960 9ebe e96d 433e
000002b0: c4c4 48be 1ca4 863e 4da3 ed3d d4d0 6fbe
000002c0: 6e7e d2bc d544 03be 7afa 03bd 2d35 5a3e
000002d0: 2a2f 323e f62a 623e 45b6 9dbe a43f be3d
000002e0: 3900 bdbe 6cad 663d 502f 99bc 5a46 8e3e
000002f0: 6550 663d ae80 f43d f75b b03e b528 2abc
00000300: d7fe 113e 99df bebe f1ba c43e b7a2 b13e
00000310: cab0 d43c e5f1 88be 065b acbe 83f9 18be
00000320: f320 143e 09c0 103e 124f 37bd f63e 823e
00000330: 3c7f 3f3e 80be 2d3e c0b5 e33d bc86 9d3e
00000340: 4bd7 6fbe 265c 92be 0210 7c3e bf74 4dbe
00000350: 3d73 fcbc 980d 583e 16a7 373e ea34 a1be
00000360: 985b 8c3e b726 7d3d 1d49 b93e ca16 ae3e
00000370: d6db 583e 99cc d63c 7f76 9b3e 4a1e c33e
00000380: 0a51 943e 407b 61be 4941 85be 2872 7f3e
00000390: 40b4 5c3e 3929 9fbb 9b98 a33e c6fd cebe
000003a0: 9706 823e b93a 8e3e 22ce bebe b7ff b2be
000003b0: 46e0 853e 2150 813e e9cf 8fbd 1dc5 9bbe
000003c0: 0728 27bd 7f98 b1bd db5c a0be 70e1 1dbe
000003d0: 1c9d 45bc c7d7 95be 9e04 873e 9823 a4be
000003e0: a501 173d e050 4cbd 589a 84be f7d1 95be
000003f0: 9efc 71be 0768 3fbe ab7e 86bd a35e ae3e

model.0.bias f4 [128]
0.29784364 0.18902434 0.31143945 0.3751707 -0.24329792 0.32976997 0.19445792 0.05223579
0.1022602 -0.3592618 -0.002984406 0.04959006 -0.25648034 0.026114171 0.25999185 -0.17405033
0.13513353 -0.086059056 0.40621144 -0.1910141 -0.25666648 0.19412085 0.3411123 -0.029220488
0.16163753 -0.1621679 0.2165231 -0.03299043 0.043126933 -0.16553059 0.030062621 0.0975906
0.1916768 0.32261539 -0.24156766 0.36336863 0.03505824 0.38904408 -0.13855498 -0.2873119
0.28457525 -0.09798967 -0.18647219 0.35185802 0.3414602 0.07987265 -0.22364779 0.21890286
0.29139262 -0.21653365 0.29914865 0.24060868 0.13712737 -0.18145336 0.23074646 -0.3360225
0.05767934 -0.18910372 -0.39327657 -0.08780532 0.19257465 0.27584323 -0.3080839 -0.34363544
-0.0068478347 0.35575968 -0.011292396 0.28881708 0.0864591 -0.2022583 -0.1750665 0.04027432
-0.36183912 0.16667227 -0.20301075 -0.22736508 -0.27967504 0.046080485 -0.13643382 0.10379389
-0.25761637 0.102048695 -0.1077001 0.0048185186 0.27062613 0.3651395 -0.31242397 0.0032834646
-0.25098366 0.23571968 0.21656859 -0.14143178 0.099739835 0.37683284 0.026142642 -0.26971665
0.37067237 -0.20857388 -0.31692567 0.04472292 0.25951084 0.06668059 -0.124832146 0.13394426
0.1512732 0.11392597 -0.2603725 -0.28788257 -0.105157 -0.25447473 0.035110507 0.078777745
0.22107652 0.3578519 -0.21822166 0.02318797 -0.113480814 -0.39552096 0.37706205 0.40318936
-0.25003454 0.04841733 0.32220793 0.33953816 -0.30765423 0.31723592 0.029779673 -0.36487255
00000000: f67e 983e 998f 413e fe74 9f3e 6016 c03e
00000010: 1723 79be 9cd7 a83e fa1f 473e 32f5 553d
00000020: cc6d d13d 2af1 b7be 0696 43bb f21e 4b3d
00000030: 6451 83be 63ed d53c a71d 853e 403a 32be
00000040: 7260 0a3e bb3f b0bd f2fa cf3e 3399 43be
00000050: ca69 83be 9ec7 463e 45a6 ae3e ce5f efbc
00000060: 4f84 253e 580f 26be 3bb8 5d3e f920 07bd
00000070: dea5 303d da80 29be e345 f63c 95dd c73d
00000080: ec46 443e d82d a53e 835d 77be 740b ba3e
00000090: 3b99 0f3d c930 c73e 5be1 0dbe 8c1a 93be
000000a0: d9b3 913e cfae c8bd 91f2 3ebe bc26 b43e
000000b0: dfd3 ae3e 4694 a33d ed03 65be 1228 603e
000000c0: 6a31 953e ffba 5dbe 032a 993e 1f62 763e
000000d0: 1e6b 0c3e e9ce 39be cd48 6c3e 240b acbe
000000e0: 2c41 6c3d 68a4 41be 8c5b c9be 47d3 b3bd
000000f0: 4a32 453e 533b 8d3e 2cbd 9dbe fcf0 afbe
00000100: cd63 e0bb 2226 b63e be03 39bc d5df 933e
00000110: 7811 b13d cd1c 4fbe a244 33be aff6 243d
00000120: fa42 b9be 23ac 2a3e 0de2 4fbe 64d2 68be
00000130: 9131 8fbe e4be 3c3d 4fb5 0bbe e491 d43d
00000140: 4be6 83be e8fe d03d df91 dcbd aae4 9d3b
00000150: 828f 8a3e 91f3 ba3e 09f6 9fbe 652f 573b
00000160: ee80 80be 8060 713e 28c4 5d3e 7ed3 10be
00000170: 6644 cc3d 3cf0 c03e 1829 d63c 4d18 8abe
00000180: c5c8 bd3e 6494 55be 1544 a2be 612f 373d
00000190: 9bde 843e d58f 883d ffa7 ffbd af28 093e
000001a0: 5de7 1a3e 0552 e93d 8b4f 85be 5865 93be
000001b0: 8e5c d7bd 834a 82be 09d0 0f3d 3a56 a13d
000001c0: e261 623e 5d38 b73e 8075 5fbe b3f4 bd3c
000001d0: a168 e8bd b981 cabe 470e c13e d66e ce3e
000001e0: 8704 80be 4051 463d 70f8 a43e f2d7 ad3e
000001f0: db84 9dbe bf6c a23e 80f4 f33c 93d0 babe

model.2.weight f4 [64, 128]
-0.07566638 -0.0816624 0.08212804 0.063236386 -0.07101257 0.07145751 0.009069643 -0.06722854
0.05246745 -0.00040681192 0.014540862 0.03640707 0.023533061 -0.05075964 0.03445841 0.052227426
-0.02504372 0.06949522 0.0037792972 0.013907933 0.077773064 0.03866402 0.023642316 0.02182171
-0.08755996 0.03772397 -0.05046182 0.049499407 0.050241992 0.071938105 0.022857163 -0.06712859
-0.07688089 -0.070067756 -0.027150271 0.043391548 -0.004411205 -0.05529348 -0.0063898205 -0.057834905
-0.033825394 0.027561983 0.047286373 0.07499563 -0.055007968 0.043921832 -0.02873512 0.015077835
0.016314633 0.05965012 -0.01657312 0.04420272 -0.067224115 0.071203865 0.06721584 -0.038259864
-0.00018435031 -0.057677835 -0.037934143 -0.03750375 -0.028636908 0.08544503 0.033774536 -0.043630764
-0.08417993 0.003152816 0.030495584 -0.06728333 -0.048839305 -0.028999645 -0.06416129 0.038305067
0.05735143 -0.04616553 0.087956026 0.032509632 0.046833135 0.041557297 0.02810688 -0.040694203
-0.03829682 -0.038337626 0.04269111 -0.08358744 0.08514638 0.06153151 0.027021281 -0.07923466
-0.044515353 -0.04295433 -0.067604534 0.0056639463 -0.08471896 -0.017913505 -0.05444008 0.010584106
-0.039800998 -0.034142245 0.04751982 -0.023437398 -0.008164245 0.041383177 -0.07852452 -0.06949206
0.08203282 -0.076311685 0.049202 0.027172884 0.012717443 0.067574844 0.008183179 0.08038005
-0.032093465 -0.01038119 0.0147511335 0.025358915 0.05928521 0.019476153 0.08828613 0.039281093
0.01374023 -0.051271524 -0.0739996 -0.037343215 0.068914585 0.063608125 0.009958552 0.03736754
-0.0163283 -0.030063314 0.06093367 0.038114544 -0.051599458 0.046565406 0.038396094 -0.0013455381
-0.018852875 0.046365134 -0.0519417 0.029000666 0.033300254 -0.0006964345 -0.08572823 -0.06913271
0.07780301 0.06521469 -0.08837426 -0.052912597 -0.075731404 0.054470986 -0.010137107 0.027560046
-0.0607894 -0.001466036 0.08548881 -0.060443215 -0.03826627 0.036975883 -0.02886192 -0.024519414
0.04221526 0.07748555 0.082604036 0.016340354 -0.062211867 0.052291363 -0.06233526 -0.032460142
0.078056596 0.05442885 0.07114054 -0.034676373 0.01181983 0.08373199 0.007384802 0.03169881
0.077557646 -0.046889927 0.08810082 0.07526373 -0.055820677 0.054812554 -0.0040732925 0.06095291
-0.07579576 -0.07255515 -0.041356638 0.044717636 0.0055280332 0.06434778 0.0048855785 -0.08650762
-0.0711598 -0.040916298 -0.08309178 -0.021826115 -0.046677075 0.083694555 0.033026576 0.015430087
-0.023939272 0.024067853 -0.023956943 0.055117574 -0.06903365 0.067782834 0.022730786 0.043514766
-0.06626142 0.06580067 0.07253368 -0.059361633 0.052990936 0.008847814 0.011324078 0.018212875
-0.08782053 0.01965023 0.053757578 0.05027371 -0.07011999 -0.023977827 -0.06988296 0.087841846
-0.082642466 -0.02351086 -0.040700093 0.03136398 -0.04727712 0.053169217 -0.084986255 0.047823723
-0.04192901 0.04743187 0.07446792 0.023554787 0.026761068 -0.033729773 0.065940306 -0.042439338
-0.034602035 0.06851598 -0.032961417 0.049124658 0.06039773 0.0060688197 0.015927862 0.04394436
-0.014527302 0.074651636 0.027970176 0.0013180268 0.083258495 0.022871472 0.02082305 -0.062887155
00000000: faf6 9abd 9e3e a7bd bf32 a83d 1482 813d
00000010: 0a6f 91bd 5158 923d d798 143c 1eaf 89bd
00000020: 1ce8 563d 5f49 d5b9 cc3c 6e3c 941f 153d
00000030: 68c8 c03c 57e9 4fbd 4324 0d3d 6dec 553d
00000040: 7d28 cdbc 8353 8e3d 16ae 773b 19de 633c
00000050: 7c47 9f3d 2a5e 1e3d 88ad c13c 71c3 b23c
00000060: a352 b3bd 7384 1a3d 0eb1 4ebd e4bf 4a3d
00000070: 8cca 4d3d 4954 933d f23e bb3c b77a 89bd
00000080: ba73 9dbd af7f 8fbd 3f6a debc 56bb 313d
00000090: df8b 90bb 6b7b 62bd b361 d1bb 4be4 6cbd
000000a0: 7f8c 0abd abc9 e13c 5baf 413d 4f97 993d
000000b0: 0950 61bd 61e7 333d ea65 ebbc 0609 773c
000000c0: 44a6 853c af53 743d 5ac4 87bc e90d 353d
000000d0: ccac 89bd 55d3 913d 75a8 893d 60b6 1cbd
000000e0: 294e 41b9 983f 6cbd d560 1bbd 889d 19bd
000000f0: f397 eabc cefd ae3d 2b57 0a3d 2cb6 32bd
00000100: 8766 acbd 7a9f 4e3b e0d1 f93c d8cb 89bd
00000110: b90b 48bd aa90 edbc ff66 83bd c6e5 1c3d
00000120: 55e9 6a3d 1118 3dbd 4a22 b43d d228 053d
00000130: 1ad4 3f3d fc37 2a3d 6640 e63c f7ae 26bd
00000140: 20dd 1cbd ea07 1dbd e0dc 2e3d e42f abbd
00000150: 3a61 ae3d 7708 7c3d bc5b dd3c c845 a2bd
00000160: bb55 36bd e1f0 2fbd 3f74 8abd a098 b93b
00000170: 2281 adbd 58bf 92bc 90fc 5ebd f568 2d3c
00000180: 5f06 23bd bdd8 0bbd 25a4 423d c9ff bfbc
00000190: 53c3 05bc 6881 293d 77d1 a0bd da51 8ebd
000001a0: d300 a83d 4d49 9cbd 0988 493d ab99 de3c
000001b0: d25c 503c ae64 8a3d be12 063c 4c9e a43d
000001c0: 7074 03bd de15 2abc bdae 713c 80bd cf3c
000001d0: 0cd5 723d 748c 9f3c 5ccf b43d 36e5 203d
000001e0: b41e 613c 1702 52bd 1a8d 97bd 33f5 18bd
000001f0: 1723 8d3d fa44 823d 3229 233c b50e 193d
00000200: edc2 85bc 5747 f6bc 9595 793d ff1d 1c3d
00000210: f459 53bd 5ebb 3e3d 3945 1d3d c45c b0ba
00000220: 5871 9abc 5ee9 3d3d d2c0 54bd ce92 ed3c
00000230: d965 083d ee90 36ba 4892 afbd 7395 8dbd
00000240: 2f57 9f3d 488f 853d 90fd b4bd e1ba 58bd
00000250: 1119 9bbd f81c 5f3d 1c16 26bc 9bc5 e13c
00000260: 4efe 78bd 0128 c0ba c214 af3d 4e93 77bd
00000270: 18bd 1cbd 0674 173d d56f ecbc f0dc c8bc
00000280: e9e9 2c3d beb0 9e3d 4e2c a93d 35dc 853c
00000290: dfd1 7ebd 782f 563d 4253 7fbd edf4 04bd
000002a0: 23dc 9f3d c9f0 5e3d 22b2 913d d008 0ebd
000002b0: f6a7 413c ad7b ab3d 36fc f13b 9dd6 013d
000002c0: 8bd6 9e3d a70f 40bd 346e b43d df23 9a3d
000002d0: 39a4 64bd 2183 603d 4179 85bb c2a9 793d
000002e0: cf3a 9bbd cb97 94bd 9465 29bd d729 373d
000002f0: 8124 b53b c5c8 833d 3417 a03b e82a b1bd
00000300: 3bbc 91bd d997 27bd 062c aabd aecc b2bc
00000310: 7630 3fbd 0d68 ab3d e046 073d 7ace 7c3c
00000320: 4b1c c4bc f229 c53c 5a41 c4bc f7c2 613d
00000330: 8461 8dbd bad1 8a3d ea35 ba3c 8a3c 323d
00000340: 11b4 87bd 80c2 863d 8a8c 943d 2f25 73bd
00000350: 060d 593d 6cf6 103c a088 393c 2b33 953c
00000360: 40db b3bd 85f9 a03c e830 5c3d ceeb 4d3d
00000370: 129b 8fbd 266d c4bc cc1e 8fbd 6de6 b33d
00000380: 7440 a9bd d999 c0bc 24b5 26bd 8477 003d
00000390: a7a5 41bd f7c7 593d 460d aebd cfe2 433d
000003a0: c1bd 2bbd ec47 423d a382 983d f8f5 c03c
000003b0: 073a db3c 3b28 0abd b60b 873d dfd4 2dbd
000003c0: ddba 0dbd 1b52 8c3d 8d02 07bd f036 493d
000003d0: 9c63 773d f3dc c63b 267b 823c 00ff 333d
000003e0: ec03 6ebc f5e2 983d b621 e53c a4c1 ac3a
000003f0: 6e83 aa3d f45c bb3c 1a95 aa3c fbca 80bd

model.2.bias f4 [64]
0.040560577 0.075457126 0.010022457 0.051468972 -0.009036 0.05392765 -0.0376857 0.013177844
-0.015506763 0.0567191 -0.015491 -0.0051695956 -0.04682991 0.05692054 -0.06288734 -0.035169553
0.009330606 0.017491322 -0.0016450653 -0.028958468 -0.0823582 0.049753267 -0.05648916 -0.004325773
0.07883202 -0.068864875 0.02001714 -0.052555993 0.03719864 -0.07072984 -0.011638451 0.02381748
-0.08827074 -0.061092265 -0.060343537 -0.022009442 0.07484886 0.04830837 -0.034075063 -0.07928134
-0.07436116 0.013611619 0.059355974 0.058964472 0.016096966 0.053684443 0.039270822 0.08344843
0.057528246 -0.062249344 0.004287989 0.02710623 0.04347576 -0.018015154 -0.054531276 0.06200702
-0.053190522 0.08101274 -0.04112958 -0.036495913 -0.07983781 -0.07948956 0.07017777 -0.0071450183
00000000: d922 263d 4489 9a3d 3b35 243c 21d1 523d
00000010: bb0b 14bc 3de3 5c3d 525c 1abd e2e7 573c
00000020: 1410 7ebc 4952 683d f7cd 7dbc b665 a9bb
00000030: b8d0 3fbd 8325 693d 14cb 80bd f30d 10bd
00000040: 66df 183c f649 8f3c 3b9f d7ba 4f3a edbc
00000050: 6aab a8bd 15ca 4b3d 2d61 67bd 37bf 8dbb
00000060: af72 a13d 0709 8dbd fcfa a33c f444 57bd
00000070: 9a5d 183d ceda 90bd 34af 3ebc e01c c33c
00000080: 4ac7 b4bd e23b 7abd c92a 77bd 254d b4bc
00000090: 5c4a 993d ffde 453d 4b92 0bbd 415e a2bd
000000a0: aa4a 98bd 4503 5f3c 401f 733d bb84 713d
000000b0: c9dd 833c 38e4 5b3d 71da 203d 03e7 aa3d
000000c0: bda2 6b3d 2bf9 7ebd 4282 8c3b e20d de3c
000000d0: a313 323d 8494 93bc 305c 5fbd 13fb 7d3d
000000e0: 4ede 59bd 02ea a53d 7e77 28bd bd7c 15bd
000000f0: 0182 a3bd 6ccb a2bd 5db9 8f3d c220 eabb

model.4.weight f4 [1, 64]
-0.06907228 -0.078409865 -0.1190446 -0.059913337 -0.09370832 -0.10957828 0.07603109 0.039665073
-0.039759308 -0.049374074 0.014991343 -0.06839375 -0.0018729568 -0.05329597 0.109961405 0.040317506
-0.118875 -0.10406031 0.089081615 -0.022879839 0.09147456 -0.1166112 0.053103954 -0.07851733
-0.005909696 0.0383406 0.08054641 -0.05309753 -0.054877847 -0.028525352 -0.041996345 0.08101599
-0.029721484 -0.11123334 -0.024397284 -0.025987267 -0.058198094 -0.050441727 -0.057283327 0.029635832
0.0127673745 -0.12430467 -0.10459232 -0.12326853 0.0901352 0.04609911 0.0037901998 -0.0370598
0.08999786 -0.11812036 0.046325967 0.023020789 -0.11736423 -0.06842022 -0.09945051 -0.11703183
0.10545972 -0.046280608 0.052015394 0.10939634 -0.03318347 -0.03745137 -0.08452329 -0.09365633
00000000: c475 8dbd 5a95 a0bd a8cd f3bd b067 75bd
00000010: 26ea bfbd 946a e0bd 30b6 9b3d d877 223d
00000020: a8da 22bd 783c 4abd 409e 753c 0612 8cbd
00000030: 007e f5ba e04c 5abd 7233 e13d f823 253d
00000040: bc74 f3bd 921d d5bd 6c70 b63d 806e bbbc
00000050: 0457 bb3d dad1 eebd 8883 593d b2cd a0bd
00000060: 20a6 c1bb 080b 1d3d 84f5 a43d cc7c 59bd
00000070: 98c7 60bd 00ae e9bc 5c04 2cbd b6eb a53d
00000080: 787a f3bc 4ece e3bd d0dc c7bc 40e3 d4bc
00000090: 2061 6ebd fc9b 4ebd eca1 6abd d8c6 f23c
000000a0: 402e 513c 7293 febd 8034 d6bd 3674 fcbd
000000b0: ce98 b83d 6cd2 3c3d 0065 783b 04cc 17bd
000000c0: cc50 b83d 16e9 f1bd 4cc0 3d3d 1896 bc3c
000000d0: a85c f0bd e61f 8cbd b6ac cbbd 62ae efbd
000000e0: 44fb d73d bc90 3dbd 180e 553d 300b e03d
000000f0: 64eb 07bd 9c66 19bd 8c1a adbd e4ce bfbd
