pk_trained.pth (torch, 39993 bytes, 5 tensors)

model.0.weight f4 [128, 6]
000000 00 32 85 3e 3e a0 e2 3c 06 8e bf 3e a8 f7 02 bb
       0.2601471 0.0276643 0.37413043 -0.001998404
000010 94 c2 c4 bc 86 54 59 3a 48 22 11 3f 58 01 90 3d
       -0.024018563 0.0008290488 0.56692934 0.07031506
000020 3e d8 a8 3e e8 19 12 be 46 5b 94 be bb 79 3b be
       0.3297748 -0.14267695 -0.28975886 -0.18308155
000030 04 74 5a bd 12 3c b5 3e c1 25 89 3e 87 ab 9a be
       -0.053333297 0.35397393 0.26786616 -0.3020899
000040 c7 c2 4d bd 5a 85 7c 3d 1c ea f3 bd b5 10 4b 3e
       -0.050234582 0.06165061 -0.11909887 0.19830592
000050 00 aa 2f 3f 16 4c 2e 3e 9b 02 77 3d 25 da d3 be
       0.68618774 0.17021212 0.06030522 -0.4137737
000060 68 2f 7d be c2 74 bf 3e ec 60 dc 3d 09 cd b8 be
       -0.24725115 0.37393767 0.10760674 -0.3609393
000070 56 6c 99 3e ed 65 0c bf d1 db 2e 3e 04 9a dd 3c
       0.29965466 -0.54843026 0.17076041 0.02705098
000080 bd 2a 9d 3e 45 07 96 be e5 5a c9 be 8b 1f 5a be
       0.3069667 -0.2930242 -0.3932716 -0.21301095
000090 fd e2 e8 3e 50 9e 6d 3d 93 53 d9 3e 70 3d 03 bd
       0.45485678 0.058012307 0.42446575 -0.032041013
0000a0 39 9d 56 be 7a 6c c4 be 10 89 21 3e 10 2a 0f 3f
       -0.20958413 -0.3836401 0.15774941 0.5592356
0000b0 1b f9 9b 3e 5b 29 27 3d 55 8a 48 3e c8 11 dc 3d
       0.3046349 0.040810924 0.1958402 0.10745579
0000c0 87 5d 78 3e 79 a8 21 3f bd 9c 10 3d b5 04 83 3b
       0.24254428 0.63147694 0.035305727 0.003998364
0000d0 65 ae c6 3b 6f 36 32 3f 8a 6e c9 be e0 23 95 3e
       0.00606327 0.6961431 -0.39342147 0.29128933
0000e0 5d 4a b4 3e 3f 9b bb be 14 e4 35 3e 80 d7 d0 be
       0.35212985 -0.3664188 0.17762786 -0.40789413
0000f0 11 54 e0 3e 3a 16 1e 3f af e5 c5 3e 32 d3 69 be
       0.43814138 0.61752665 0.38651797 -0.22834471
000100 9e 34 96 be 37 0c 1f 3e 29 e0 85 be f1 1c c2 3e
       -0.2933702 0.15532003 -0.26147583 0.37912706
000110 04 af ad 3e cf d2 15 3d 68 12 19 3e c2 25 73 3e
       0.3392259 0.036577996 0.14948428 0.23744872
000120 05 7f 6a 3e 45 7d df 3d 77 6e 58 bd f4 cf bc be
       0.22900017 0.10912565 -0.052839722 -0.36877406
000130 3a dd 03 3e 6d 40 9b be d1 da 0f 3e a9 e3 5b 3e
       0.1287736 -0.3032259 0.14048316 0.21473564
000140 ee ae 6f bb 46 b6 02 3f bc 31 df be c5 f2 1a bf
       -0.0036572772 0.5105938 -0.43592632 -0.60526687
000150 d9 91 55 3e f3 93 eb 3e 56 fb f8 3d d1 b7 a8 3e
       0.20856418 0.46011314 0.121573135 0.3295274
000160 4e 41 ce 3d bf a3 02 bf 84 d7 e5 3d f2 46 ab 3e
       0.1007105 -0.51031107 0.11222747 0.33452564
000170 e8 52 ac 3e 2f ea fc bc da 5b 38 3e 4c 26 84 bc
       0.33657002 -0.030873386 0.18003789 -0.016131543
000180 33 6d c2 be be 14 61 3e 3d 17 c9 3e 2a dd 58 3e
       -0.37973937 0.21980569 0.39275542 0.21178117
000190 d4 a2 bb 3d f6 c1 66 3e d1 2d 28 3e b7 ae 7d 3e
       0.091619164 0.22534928 0.16423728 0.2477368
0001a0 f7 a1 01 bd 74 25 79 be 94 66 ac 3e 49 02 04 bf
       -0.031648602 -0.24330693 0.3367201 -0.51565987
0001b0 bd f9 4c bd c8 ae 8c 3e c8 5c 20 3f 5f 3d 36 be
       -0.050042856 0.27477098 0.6264157 -0.17796849
0001c0 8b dc 44 3e 52 a2 ab be 4c e8 c5 be db d3 04 3f
       0.19224755 -0.33522278 -0.3865379 0.51885766
0001d0 5e 71 29 3e 37 05 df bd 1c 9b cf 3e 8c 6b d2 be
       0.16547152 -0.108896665 0.40548027 -0.41097677
0001e0 23 59 aa 3e b1 74 6f 3e d6 df 0b 3e 31 2c 67 bd
       0.3327113 0.23384358 0.13659605 -0.05643863
0001f0 4f ba cf 3e 9f 26 a8 be 4e b2 05 bf 47 1e 84 3e
       0.4057183 -0.32841966 -0.52225196 0.2580435
000200 d9 a8 eb 3e 4b 22 b4 3e f9 f5 a9 3c 77 17 9f 3e
       0.46027258 0.35182413 0.020747172 0.3107259
000210 9e 0b 6c 3e 6f 0d e9 3e e1 ea 24 3c 07 9a fe 3d
       0.23051307 0.45518062 0.010065765 0.12431722
000220 74 d2 df 3e 8d c1 22 3f 81 bf f0 be ab a1 97 3e
       0.4371525 0.63576585 -0.47021106 0.2961553
000230 49 79 64 3c c3 85 ca be 28 5d a2 be 03 f6 d9 3e
       0.013944932 -0.39555177 -0.31711698 0.42570505
000240 9d f0 c3 be bd 33 20 be 29 63 9e 3d d8 6d 8b 3e
       -0.3826951 -0.15644737 0.07733757 0.27232242
000250 9f ba 8a 3e 19 eb 18 bf 2c 03 94 bd 0c c3 70 3e
       0.27095506 -0.5973373 -0.072271675 0.23511904
000260 b2 3e 7a bb 8c 89 9e be a4 4d 8a be d4 e6 09 3f
       -0.0038184342 -0.30964315 -0.2701236 0.5386784
000270 76 52 fd 3e e9 5c 0b 3e a6 7f 6a 3e 86 1a df 3e
       0.49476975 0.13609661 0.22900257 0.43574923
000280 81 29 90 3e b0 d0 15 3f a2 ba cf be 64 72 82 3e
       0.28156665 0.58521557 -0.40572077 0.25477898
000290 50 f4 0c 3f 2e 4a 2d 3e 77 e5 57 3e 48 65 d7 be
       0.5506029 0.16922829 0.21083628 -0.4206946
0002a0 c8 62 eb bd 3d 08 91 3e b3 96 30 3f ba b3 f2 be
       -0.114934504 0.28326598 0.6897995 -0.47402745
0002b0 fa a8 66 be 5c de 55 be d5 d0 6c be 7f 86 86 3e
       -0.22525397 -0.20885605 -0.23126538 0.26274487
0002c0 98 82 2d 3f a3 2c c3 3d 67 52 97 3e 5a a6 85 bd
       0.67777395 0.09529998 0.29555055 -0.0652587
0002d0 96 6e 30 3d 4a df 27 bd 8c 6b 23 3f 47 44 91 3e
       0.043074213 -0.04098443 0.6383598 0.28372404
0002e0 f9 69 97 3e 64 91 bf 3e 76 06 79 3e 4d a3 c8 3e
       0.29573038 0.37415612 0.24318871 0.3918709
0002f0 1f c0 21 bc ee 01 9f 3e 17 52 43 bd f0 ee b9 3e
       -0.009872465 0.3105616 -0.04768571 0.36315107
000300 79 64 b0 bd c0 10 be 3e 1e de 93 3e f2 d1 9c bd
       -0.08612914 0.37122154 0.288804 -0.076572314
000310 d2 96 79 3e 17 12 53 be dd d1 5a 3e 59 b4 8b 3e
       0.2437394 -0.2061237 0.21369119 0.27286032
000320 34 b8 af bd 5f 18 b8 3e 74 56 a3 3e 0f e6 9f 3e
       -0.08580056 0.35956094 0.31901896 0.31230208
000330 c3 ab c8 3e f8 ea cd bd 81 b9 32 3f ca b0 d9 be
       0.39193544 -0.10054582 0.69814306 -0.42517692
000340 ad 16 ee 3d fc 39 08 3f a6 eb be 3e 55 5e 1f 3f
       0.11625419 0.5321348 0.3728916 0.62253314
000350 c6 e9 43 3e 57 8b 2b be bc 2b 11 bc 09 92 24 3f
       0.19132146 -0.16752373 -0.008860525 0.6428533
000360 7f 11 cd 3d 01 f5 26 3f 63 90 ae bd 55 cd 5e be
       0.10013103 0.65217596 -0.08523633 -0.21758015
000370 b8 21 e6 bd 37 97 ac 3e a4 bc 2a 3e 34 20 26 3f
       -0.112369 0.33709118 0.16673523 0.6489289
000380 d6 82 e1 3c c3 6b 11 3e e0 89 7c be 7e e9 9f 3e
       0.027528208 0.14201264 -0.2466197 0.31232828
000390 d1 64 b0 3d 86 b9 d8 3e ae f4 e4 3e f8 6c 23 3e
       0.08612979 0.42329043 0.44717926 0.15959537
0003a0 8d ec 4b 3e 3a fa d5 be 2f e5 d5 3e bd b9 97 3e
       0.19914456 -0.4179247 0.41776416 0.29633895
0003b0 ba 4b bd 3e ef 25 57 bd f9 5e e2 3e c1 3a 90 3e
       0.36971837 -0.05252641 0.44213083 0.28169826
0003c0 7e 90 09 3f c7 74 fe 3e 2d 76 b0 bd 5e d8 07 bf
       0.537361 0.4969847 -0.0861629 -0.53064525
0003d0 0c a0 ed 3e 31 3e 7a be 9d e9 bf 3d bd ac ef 3e
       0.4641117 -0.24437787 0.0937073 0.46811476
0003e0 65 0a a3 3e f5 fa 75 be 3d 77 1e 3c a8 85 c4 3e
       0.31843868 -0.24021514 0.009671983 0.38383222
0003f0 5f 99 a8 be c9 2b da 3e c4 cc 9c 3b 84 7f 1b bd
       -0.32929513 0.4261153 0.004785152 -0.037963405

model.0.bias f4 [128]
000000 5d de 0e 3f 10 37 e4 3d d0 eb 26 3f 57 95 dd 3d
       0.5580805 0.11143315 0.6520357 0.108195
000010 ec d6 36 bc e8 f9 27 3f ee fc 1e 3f dc 4d 22 3f
       -0.01115964 0.656157 0.6210469 0.63400054
000020 b1 54 6b 3d 19 80 87 3d 1f be a9 3e b2 de 0c 3f
       0.057453815 0.066162296 0.33152863 0.55027306
000030 53 b5 13 be 8c 29 91 3c ba 61 8d 3e fc 1a 7e 3e
       -0.14424638 0.017720006 0.27613622 0.24814981
000040 51 22 20 be fc 08 a3 3e 3f 94 48 bc 83 c9 10 bc
       -0.1563809 0.31842792 -0.012242376 -0.008837107
000050 ab b6 1b 3e 30 24 0a be 7f d5 f6 bd 30 8e b9 3e
       0.15206401 -0.13490367 -0.1205244 0.36241293
000060 08 38 00 3f 80 fd c5 3e 86 db c9 bd 59 9b 40 3d
       0.50085497 0.38669968 -0.09856324 0.04702315
000070 d3 4a e9 bd ba a9 e0 3d 8d 85 22 3f c5 87 00 3f
       -0.11391225 0.10969873 0.6348503 0.5020717
000080 67 f9 0f 3f 22 52 ca 3e 94 06 af 3e 38 0c e6 3d
       0.5623993 0.39515787 0.34184706 0.11232799
000090 f2 22 96 3e 7f e5 a9 3e d7 b0 18 bc b3 39 1f 3e
       0.29323536 0.33182904 -0.009319506 0.15549354
0000a0 31 3c cd bd 0c fb d9 3d 1f cb b3 3e 9d 74 b2 bd
       -0.10021246 0.106435865 0.35115907 -0.087136485
0000b0 a7 96 c8 3d 88 74 0e bc 76 1c e4 3e 12 ba ac bd
       0.0979436 -0.008694775 0.44552964 -0.084339276
0000c0 ae 65 bb 3e 3b 00 66 3d a4 72 1f bc 27 2f 8a 3e
       0.36601013 0.056152564 -0.009731922 0.269891
0000d0 dd ee 82 3e 13 9a e2 bd 24 9d c1 3d 97 d4 65 3e
       0.25572863 -0.110645436 0.094538 0.22444378
0000e0 c8 4c f8 3d ab 2a dc 3e e4 e7 c8 3e ce 07 9c 3e
       0.1212402 0.43001303 0.39239419 0.30474705
0000f0 5e 27 a7 3e 9e 70 da 3e 03 fe 89 3e 60 19 50 3e
       0.32647222 0.42664045 0.26951608 0.2032218
000100 57 18 86 3e d6 a4 72 bb 04 66 da 3e ae b1 ee 3e
       0.26190445 -0.003702452 0.42655957 0.46619934
000110 54 78 b9 bd ee eb 9a 3e e0 c2 81 3c bf fd 42 bd
       -0.09056154 0.30258125 0.015839994 -0.047605272
000120 14 57 3d 3d d1 57 28 bd 54 a1 d1 3c ea 6a 7e 3d
       0.046225622 -0.041099373 0.025589623 0.06211368
000130 71 67 27 bd 28 ed 38 be f3 88 41 3d ab 3d 83 3e
       -0.040870134 -0.18059218 0.047249746 0.25632986
000140 28 99 dd 3e 83 fc 98 3e 14 c0 c3 3e 51 49 ae 3d
       0.4328091 0.2988015 0.3823248 0.08510078
000150 b8 05 31 3e e8 c4 9a 3e 54 f2 fd 3d 15 49 4c be
       0.17287338 0.30228353 0.12399736 -0.19949754
000160 68 5e 61 3e f7 6b 0d 3f 79 8b ef 3e a4 25 ce bd
       0.2200867 0.55242866 0.46786097 -0.10065773
000170 c7 83 fd 3e cd 56 cf 3e 4b 72 84 3d d8 af f3 3d
       0.495146 0.4049591 0.06467112 0.11898774
000180 36 04 c6 3e 6a f4 f4 3e 79 a3 ad 3e f0 9e d6 3e
       0.38675088 0.47842723 0.33913782 0.41918135
000190 d7 0d 1a 3f 24 4e 01 3e 2c 30 b5 bd 93 0f 1f 3f
       0.6017737 0.12627465 -0.08847079 0.6213314
0001a0 08 fe 7c 3e a5 d2 0b 3f ed f9 1c 3f 3e c7 78 3e
       0.2470628 0.54618293 0.61318856 0.24294755
0001b0 d2 39 f2 3e fa d5 21 3f bb 98 a3 3e a9 d8 48 3e
       0.47309738 0.6321713 0.31952462 0.196139
0001c0 50 46 13 3f 0b 77 3c 3e e7 86 16 3e 24 f5 0c bd
       0.57529163 0.18404786 0.14699899 -0.03441347
0001d0 09 85 08 3f cd b1 70 3c 5d 62 d3 bd 01 51 d1 3e
       0.53327996 0.0146908285 -0.10321496 0.40882114
0001e0 56 a0 5a 3e aa a6 86 3e 39 f9 95 bd 78 4a 24 3f
       0.21350226 0.2629903 -0.07322926 0.6417613
0001f0 b0 63 a3 bd 24 7c 5a 3e 77 6a 1e 3e c1 72 c5 3d
       -0.07977998 0.21336418 0.154703 0.09641028

model.2.weight f4 [64, 128]
000000 21 f7 98 bd 73 c0 d1 bb 90 37 ee 3c 14 a8 0e bd
       -0.07469011 -0.0064011156 0.029079229 -0.03482826
000010 86 49 18 bb 63 17 02 3c 66 71 b9 bd be fa 02 3d
       -0.0023237183 0.007940146 -0.09054832 0.031977408
000020 01 73 13 bd 8d f5 59 3d 16 d2 ad bd 79 1c 86 bd
       -0.03599835 0.05321269 -0.08487336 -0.065483995
000030 6c f9 02 3d 7d e4 5a 3d 42 e8 83 3d d8 cd a9 bd
       0.03197615 0.05344056 0.06440784 -0.08291215
000040 9d 82 3b bd c7 56 97 bd 07 ab 25 3c ed c0 8c 3d
       -0.04577886 -0.07389598 0.010111577 0.06872735
000050 dc a8 a4 3d 78 f7 32 3d 3f 13 f4 bc 1a a7 8c 3d
       0.0804002 0.043693036 -0.029794334 0.068678096
000060 bf 42 20 3c b1 a7 24 3b 4e c3 c0 bd c5 72 eb 3c
       0.0097815385 0.0025124366 -0.094122514 0.02874125
000070 5c 8b 71 bd 80 db 93 3c f8 55 a9 bd c1 42 29 bc
       -0.058970794 0.018049002 -0.0826835 -0.010330857
000080 b2 17 82 bd 7b 78 34 3d 9c eb 09 bd bf 16 44 bb
       -0.06352176 0.04406021 -0.03367196 -0.0029920784
000090 c5 d3 96 3b 39 1e ae bc f5 d9 18 3d b4 f2 c2 bc
       0.0046028816 -0.021254646 0.037317235 -0.02379737
0000a0 61 cf fd 3c 97 77 b9 bc ff 72 67 3d ac d4 9e 3c
       0.030982675 -0.022640033 0.056506153 0.01938852
0000b0 41 1e ba bd d2 e8 8e bc ae c7 b4 bd b2 39 a1 3d
       -0.09087802 -0.017445002 -0.088271484 0.07872333
0000c0 af bd 85 bd 8f d1 9c bd 8c 1a a8 3d c4 40 38 bd
       -0.0653032 -0.07657158 0.082081884 -0.04498364
0000d0 0e 65 81 bd d9 aa 97 bd b3 db a2 bd 36 04 1f bd
       -0.06318103 -0.074056335 -0.079520606 -0.038822375
0000e0 c5 9f 34 3d 50 d4 d6 bb ab da 95 3d 98 e2 0f bd
       0.04409768 -0.0065560713 0.07317098 -0.035128206
0000f0 b8 ff 6e bd 6b 1b 96 bd cd 8e 18 bd 4b 97 84 bc
       -0.05834934 -0.07329448 -0.03724556 -0.016185423
000100 c6 b3 bf bc 29 c3 71 bd fe d9 b7 bd f0 73 cf bc
       -0.023401152 -0.05902401 -0.089771256 -0.025323838
000110 77 0f 84 3d dd 6b 9f bd 49 31 91 bd 1f d1 94 bd
       0.06448262 -0.07784245 -0.070894785 -0.07266449
000120 7e 2c ee bc 26 ea 9b bd 52 d9 5b bd 01 99 70 bd
       -0.02907395 -0.0761302 -0.05367405 -0.058739666
000130 cb 03 bc bd 4d 2d 82 bc 9f de 47 3d ec 9a 5a 3d
       -0.09180411 -0.015890742 0.048796292 0.0533704
000140 2c fb c0 bd 01 2b 4f 3d 9f 9d 86 bb 20 97 52 bd
       -0.09422907 0.05057812 -0.0041081454 -0.051413655
000150 24 f4 ee bc 6f fd 21 bd 05 d8 a8 bd f2 ef 2f 3d
       -0.02916915 -0.039548334 -0.082443275 0.04295344
000160 16 72 af bd ee 21 25 3d 68 72 21 bd f1 a8 a1 bc
       -0.08566682 0.04031556 -0.039415747 -0.019733878
000170 63 5f 09 bd aa 54 97 bd 0d 2d aa bc 3a a3 45 3d
       -0.033538233 -0.07389195 -0.020773435 0.048251368
000180 94 5e 06 3c a2 09 05 bd ed fa 88 3d 0f 36 95 bd
       0.00820126 -0.03247989 0.06688485 -0.072857015
000190 77 24 a6 bb 2c 9c c8 3c 16 ae 23 bb 91 cd 38 3d
       -0.005070265 0.024488531 -0.002497559 0.04511792
0001a0 df a8 30 3d d0 09 52 bd f0 b6 ca 3c 8f c7 58 bc
       0.043129798 -0.05127889 0.024745435 -0.013231172
0001b0 2a 4b 85 3d 4f 08 97 3d 91 19 a9 bd dc 69 9a 3d
       0.06508477 0.073746316 -0.082568295 0.07539722
0001c0 36 59 18 3c b7 f9 25 bb 7d 2a 41 bd cc c3 45 3d
       0.009298613 -0.0025325844 -0.04715966 0.04828243
0001d0 9a 1e 9f bb b6 04 3b 3d 49 76 32 3d 0b 47 ab bd
       -0.004855943 0.04565879 0.043569837 -0.0836316
0001e0 91 79 9e 3c c1 c9 9f 3d 8d 74 b5 bd 50 91 6a 3d
       0.019345077 0.078021534 -0.08860121 0.057267487
0001f0 6b 00 46 bc 8f 72 ae 3d 5e 7d e1 3a a5 ed 8f bd
       -0.012085061 0.08517944 0.00172035 -0.07027749
000200 15 ec 62 3e e7 08 49 3e 49 7e 80 3e 55 71 9e 3e
       0.2216037 0.19632302 0.25096348 0.3094584
000210 e0 9a 88 3e 88 9e 64 3e 5a a0 a3 3e fd f6 9a 3e
       0.2668066 0.223261 0.31958276 0.30266562
000220 f2 4b 1b 3e 2d c2 37 3e 69 ce 6e 3e d3 9f 76 3e
       0.1516569 0.17945166 0.23320927 0.24084406
000230 ab 29 12 3e f3 21 05 3e 4a 92 96 3e dc 85 41 3e
       0.14273708 0.13001232 0.29408485 0.1889872
000240 17 31 66 3e 24 1e 45 3e b6 55 9a 3e bd da 95 3e
       0.22479664 0.19249779 0.30143517 0.29268447
000250 af 77 85 3e b3 0a 77 3e 9e cb 99 3e 7c 40 42 3e
       0.26067874 0.24125175 0.3003816 0.18969911
000260 46 bc 01 3d 9a 1d 7b 3e b4 fb 4c 3e ad 87 6a 3e
       0.031673692 0.24523011 0.20017892 0.22903319
000270 5d 5d aa 3e ac d2 42 3e eb 0a 4c 3e db 25 2a 3e
       0.33274356 0.19025677 0.1992604 0.16616003
000280 62 8c 37 3e c5 98 4f 3e d6 6e 97 3e 16 31 17 3e
       0.17924646 0.2027312 0.2957675 0.14764819
000290 b2 9b 8c 3e d9 85 37 3e 34 63 a0 3e 49 b5 85 3e
       0.27462536 0.17922153 0.31325686 0.26114872
0002a0 08 f7 fb 3d d9 42 a5 3e 29 e6 25 3e d7 8a 90 3e
       0.12302977 0.32277563 0.1620108 0.28230926
0002b0 07 d6 65 3e 84 32 24 3e a9 0d 48 3e d6 1b 77 3e
       0.22444926 0.16034895 0.19536461 0.24131712
0002c0 bb 08 42 3e 5b cb cd bd 24 fd 01 3e d2 5d 42 3e
       0.18948643 -0.100485526 0.12694222 0.18981102
0002d0 ff 6a 88 3e 40 0c 4f 3e 81 08 ad 3d d8 4d 4b 3e
       0.26644132 0.20219517 0.084488876 0.19853914
0002e0 e2 a1 22 3e 46 7f 6b 3e 99 10 4c 3e 3b 1d 6e 3e
       0.15882066 0.2299777 0.19928207 0.23253338
0002f0 53 55 89 3e 2c 3c 51 3e fa 8a 8e 3e 26 2e 68 3e
       0.2682291 0.2043311 0.27840406 0.22673854
000300 55 03 85 3e 1a 28 90 3e f1 8d a1 3e 74 5c 2c 3e
       0.25979105 0.28155595 0.31553605 0.16832143
000310 da 4e 90 3e 62 ee 45 3e 14 dd 3a 3e b4 ec a7 3e
       0.2818516 0.19329217 0.18248397 0.32797778
000320 e6 38 5a 3e f0 a6 7a 3e 4a 00 9c 3e 43 1f 91 3e
       0.21310768 0.24477744 0.3046897 0.28344163
000330 77 d4 ca 3d f4 00 33 3e 14 0a 36 3e 51 99 5d 3e
       0.09903806 0.17480832 0.17777282 0.21640517
000340 68 53 49 3e af 86 93 3e 25 96 93 3e bb 95 39 3e
       0.19660723 0.28813693 0.2882549 0.18123524
000350 25 68 b3 bd 4a a4 3f 3e 59 b3 3a 3e 26 26 21 3e
       -0.08760098 0.18715015 0.18232478 0.15737209
000360 4f d4 54 3e 96 86 29 3e c3 46 54 3e b9 3c 82 3e
       0.20784114 0.16555247 0.20730118 0.25436953
000370 ab eb 4e 3e 41 33 4a 3e e6 d8 54 3e 69 a4 a5 3e
       0.20207088 0.19746114 0.20785865 0.32351997
000380 08 6b 85 3e d3 d4 47 3e 5a e5 60 3e 12 5e 72 3e
       0.2605822 0.1951478 0.2196249 0.23668697
000390 6f 14 62 3e 1b 6b 26 3e 8a c1 88 3e 71 f8 90 3e
       0.22078107 0.16251795 0.2671016 0.28314546
0003a0 74 95 8a 3e f9 9f 9a 3e 3e eb 7c 3e a7 9c 43 3e
       0.2706715 0.30200174 0.24699113 0.19102727
0003b0 39 c9 28 3e a2 d8 80 3e 40 de 85 3e a4 06 5f 3e
       0.1648301 0.25165278 0.26146126 0.21779877
0003c0 8d ce 9b 3e 2f e2 51 bd f6 d4 69 3d 4f d1 57 3e
       0.30431023 -0.051241096 0.05708786 0.21075939
0003d0 e0 52 62 3e a7 dc 1c 3e 50 c8 81 3e 96 0a 64 3e
       0.22101927 0.15318547 0.2534814 0.22269663
0003e0 f6 1a 7f 3e b5 d7 39 3e 30 64 a1 3e c6 53 5c 3e
       0.24912629 0.18148692 0.3152175 0.21516332
0003f0 51 1d 02 3e ee 95 a1 3e f5 d9 6c 3e 61 0f 37 be
       0.12706496 0.315597 0.23130019 -0.1787696

model.2.bias f4 [64]
000000 d4 d8 11 bd 66 8a 05 3e b4 14 ba 3e e2 7e ec 3d
       -0.035607174 0.13041076 0.3634392 0.115476385
000010 0f 43 6a 3e f2 88 38 bc 04 8c 82 3e ab 12 bd 3d
       0.22877143 -0.011263119 0.25497448 0.09232076
000020 6c b1 84 3e cf e0 6a 3a 12 e0 7f 3e 95 ee 5d 3e
       0.25916612 0.00089598907 0.2498782 0.21673043
000030 dd 60 3f 3e 13 93 24 3e ef ab 89 bd 11 4e be bd
       0.18689294 0.1607173 -0.06722247 -0.09292234
000040 df 0c 9f 3d 2d 5f 48 3e b5 91 b7 3d a7 49 82 bd
       0.07766127 0.19567557 0.08963338 -0.06361704
000050 49 55 dd 3d f5 4a 14 3e 41 7d 26 3e 9f 3f 6d 3e
       0.108072825 0.14481719 0.16258718 0.23168801
000060 b5 d1 22 3e 6f a1 65 3c 61 8e 66 3e e4 c0 aa 3d
       0.1590031 0.01401554 0.2251525 0.08337572
000070 19 1f a1 3e 29 48 46 3e 7b 8c 4f 3e d1 22 b3 bd
       0.31469038 0.19363464 0.20268433 -0.08746875
000080 89 01 e9 3c d3 8a 89 bd b9 06 56 3e b5 ba 67 3e
       0.028443115 -0.06715932 0.20901002 0.22629817
000090 30 d3 2f 3e 55 af d3 3e 34 c1 06 3e cb 3a b4 3c
       0.17170405 0.41344705 0.13159639 0.02200069
0000a0 28 ed 1e b9 fe f9 32 3e e3 07 e8 3c 03 08 79 3e
       -0.00015156402 0.17478177 0.028324073 0.24319462
0000b0 cb 09 e1 3e 2d 25 0a 3e d2 37 0a 3e bb 4d c6 3d
       0.43952784 0.13490744 0.13497856 0.09682795
0000c0 8a ce 23 3e 5c ae 6b 3e 3d e1 78 3e 70 10 3c 3e
       0.15996757 0.23015732 0.24304672 0.18365645
0000d0 77 6a 1b 3e 53 39 71 3e cf bf 57 bd a8 5d 60 3e
       0.15177332 0.23557024 -0.052673157 0.21910727
0000e0 05 8f 95 3d 96 bf 39 3e 80 b7 57 3e c8 30 2a bd
       0.073026694 0.1813949 0.21066093 -0.041550428
0000f0 0f ee 5f 3e 7b 11 a5 bd 52 f8 ef 3d 44 e1 61 bd
       0.21868156 -0.08059975 0.11717285 -0.05514647

model.4.weight f4 [1, 64]
000000 b0 63 88 bd 3e d9 b1 3e ab ef dc be bb 57 ac 3e
       -0.06659639 0.34736055 -0.43151602 0.33660683
000010 41 c3 c7 3e 67 f6 c5 be f4 ce 9e 3e 00 dd a2 3e
       0.39016154 -0.38664553 0.31017268 0.31809235
000020 b5 2b 12 bf 5c 50 3d bd c2 fd 8f 3e a9 50 b7 3e
       -0.5709794 -0.046219215 0.2812329 0.35803726
000030 f5 1a e3 be 50 6f 2b bf 9c a9 9f bd 8c b1 2d ba
       -0.44356504 -0.66966724 -0.07796022 -0.0006625883
000040 5c 57 ac 3e 26 85 a6 3e c8 f3 e9 be d6 0f 89 bd
       0.336604 0.3252346 -0.45693803 -0.066924736
000050 85 df b0 3e aa ee e3 be 0b 43 c6 3e 27 80 c4 3e
       0.34545532 -0.44518024 0.38723025 0.38379022
000060 44 6b bf 3e d8 e3 fd bc 73 5a 25 bf fc 65 71 3e
       0.37386525 -0.030992433 -0.6459114 0.2357406
000070 a7 bd 09 bf 9b 60 c4 3e 60 77 ec be a7 f2 e0 bb
       -0.5380501 0.38354954 -0.46184826 -0.006864864
000080 48 25 95 bd 40 54 ad bd bb 62 9a 3e ab 42 a5 3e
       -0.072825015 -0.08463335 0.3015345 0.32277426
000090 ae 4e c1 3e 24 0a 23 bf 9f 4e c1 3e 33 33 70 bd
       0.3775534 -0.6368735 0.37755296 -0.058642577
0000a0 90 c1 81 bd e7 0a 9a 3e 74 cd d5 bd 2d 2d c9 be
       -0.06335747 0.30086443 -0.10439578 -0.3929228
0000b0 e7 7d 1d bf 35 ff 14 bf 54 cc a1 3e e4 47 af 3e
       -0.61520237 -0.58201915 0.31601202 0.34234536
0000c0 ff 84 a7 3e 40 29 de be 69 03 ae 3e ab 16 a4 3e
       0.32718655 -0.43390846 0.33986977 0.32048544
0000d0 d6 81 c2 3e 80 c7 1a bf 01 ff 9d bd dd dc 88 3e
       0.37989682 -0.6046066 -0.07714654 0.26731005
0000e0 16 16 9d be e9 6d c1 3e 95 00 90 3e 0f 80 a3 bc
       -0.30680913 0.37779167 0.28125444 -0.019958524
0000f0 a7 8d a8 3e d3 02 a7 bd 4d 56 96 3e f5 c6 ce bd
       0.32920572 -0.081548356 0.29362717 -0.10096542
