pk_trained.pth (torch, 39993 bytes, 5 tensors)

model.0.weight f4 [128, 6]
0	0x3eba3ab1	0.36372903
1	0x3e8c6b3e	0.2742557
2	0x3d9d897f	0.07692241
3	0xbe8b1cde	-0.2717046
4	0x3ea8b330	0.3294921
5	0xbe9dd2c8	-0.30824876
6	0xbf227478	-0.6345897
7	0xbebb5f09	-0.36595944
8	0xbdbb8ed1	-0.091580994
9	0xbd44b6ec	-0.04802601
10	0x3e36b264	0.17841488
11	0xbe459b47	-0.19297515
12	0xbf5635b1	-0.83675677
13	0xbef8a4ed	-0.48563328
14	0xbda3e0a1	-0.08001829
15	0xbd43d89d	-0.047814
16	0x3e41d1a6	0.18927631
17	0xbe7225a8	-0.23647177
18	0xbe303f67	-0.17211686
19	0x3ea25266	0.3170349
20	0x3f00f314	0.5037091
21	0x3e7d86c3	0.24758439
22	0x3d5a33d4	0.053272083
23	0x3edae2c6	0.4275114
24	0xbec4b2a6	-0.38417548
25	0x3f0b9bde	0.5453471
26	0x3d694d9b	0.056958776
27	0x3e66d299	0.22541274
28	0x3ed94260	0.42433453
29	0x3ea320b7	0.31860897
30	0x3f10e79a	0.56603396
31	0x3c96d18c	0.018410467
32	0xbdeaffbd	-0.114745595
33	0xbe9da5f3	-0.30790672
34	0x3f17271b	0.59044045
35	0xbea15f07	-0.31517813
36	0xbf38e49c	-0.7222383
37	0xbf062792	-0.5240413
38	0xbd217970	-0.039422452
39	0x3eb561dd	0.35426226
40	0xbe55003d	-0.20800872
41	0x3e6bd50a	0.23030487
42	0x3dbde274	0.09271708
43	0x3e0b26ae	0.13588974
44	0x3e73acdf	0.23796414
45	0x3e62c0c3	0.22143845
46	0xbe06d9cd	-0.13169022
47	0xbeb99027	-0.36242792
48	0x3ed1a7f7	0.4094846
49	0xbf44e690	-0.7691431
50	0xbec01ee4	-0.37523568
51	0x3e28873b	0.16457836
52	0xbeb6849b	-0.35648045
53	0x3e8e4f69	0.2779496
54	0xbf44e851	-0.76916987
55	0x3e55012a	0.20801225
56	0x3f23cab0	0.6398115
57	0x3e3f7b7f	0.18699454
58	0xbc94bc1d	-0.018156106
59	0x3d84c307	0.06482511
60	0xbf2dda93	-0.6791164
61	0x3de808eb	0.11329826
62	0x3f01f1b2	0.5075942
63	0x3d83c70b	0.06434449
64	0xbd326ecf	-0.043562707
65	0xbe025520	-0.12727785
66	0x3dc20273	0.094731234
67	0x3e14e5ac	0.14540738
68	0x3ebfa246	0.37428492
69	0xbed44c4a	-0.41464454
70	0xbe9fa9b7	-0.3118417
71	0xbe1dfa34	-0.15427476
72	0x3dd478aa	0.10374577
73	0x3e828ee7	0.2549965
74	0x3f16c6b9	0.58896977
75	0xbd5c9145	-0.053849477
76	0xbe779bb1	-0.24180485
77	0x3e86b35f	0.26308724
78	0xbeef1e44	-0.46702778
79	0x3d884aca	0.0665489
80	0x3f1097b2	0.5648147
81	0xbc2a8703	-0.010408166
82	0xbdce21b3	-0.10065021
83	0x3e8205aa	0.25394946
84	0x3e00cc1b	0.1257786
85	0x3dcb63fa	0.099311784
86	0x3e3c39a0	0.18381357
87	0xbed57281	-0.41688922
88	0x3e7372d2	0.23774269
89	0xbe85a207	-0.2610018
90	0xbf628596	-0.88485086
91	0xbf424f5d	-0.7590235
92	0xbdd34ed3	-0.10317769
93	0x3f2291a3	0.63503474
94	0x3e93fb75	0.28902784
95	0x3ec877bb	0.39153847
96	0xbeec48ef	-0.46149394
97	0x3e6649f1	0.22489144
98	0x3f10d502	0.56575024
99	0xbe2670ac	-0.16253918
100	0xbd8965a1	-0.06708837
101	0x3efd4313	0.49465236
102	0x3efe82e6	0.49709243
103	0xbe5a04e3	-0.21290927
104	0x3d80167d	0.06254289
105	0xbee0ce60	-0.43907452
106	0x3ee11b71	0.4396625
107	0x3ef9906f	0.48743007
108	0xbea44c55	-0.32089487
109	0xbf14c3e7	-0.58111423
110	0xbe9684b4	-0.2939812
111	0x3f182997	0.5943846
112	0xbea047a8	-0.3130467
113	0x3f21e498	0.6323943
114	0x3dbd6987	0.09248643
115	0xbf8e6b04	-1.1126409
116	0xbefa48e7	-0.48883745
117	0xbeffd26a	-0.4996522
118	0xbe4732f4	-0.19453031
119	0xbf0a752c	-0.5408504
120	0x3cffdc56	0.031232994
121	0x3f0a4ea4	0.54026246
122	0xbdefde47	-0.11712318
123	0xbed099b5	-0.4074227
124	0x3e4ae3bb	0.19813435
125	0x3e67de28	0.2264334
126	0xbe18b82f	-0.1491401
127	0xbe01fca2	-0.12694028
128	0x3f0cee79	0.5505138
129	0x3ee99638	0.4562242
130	0xbd317fba	-0.0433347
131	0x3f20e3a5	0.6284736
132	0xbf49a900	-0.787735
133	0x3e5330ea	0.20624128
134	0x3ef0102b	0.46887335
135	0xbe2515d6	-0.16121611
136	0x3e75297e	0.2394161
137	0x3f054c14	0.5206921
138	0xbd310bf9	-0.04322431
139	0x3f25e69b	0.64805
140	0x3f1c9842	0.61169827
141	0x3ce8c24f	0.028412966
142	0xbed5e850	-0.41778803
143	0x3e2d8624	0.16945702
144	0xbeb8950c	-0.36051214
145	0xbb95cef7	-0.0045717913
146	0x3f016078	0.50537825
147	0xbef3aeb7	-0.47594234
148	0xbde33d63	-0.11095693
149	0xbeac2b3f	-0.33626744
150	0xbf51fb40	-0.82024
151	0xbf369932	-0.7132751
152	0xbe764fb6	-0.24053845
153	0xbf0b239b	-0.54351205
154	0xbd80a7eb	-0.06282028
155	0x3f21ed48	0.6325269
156	0x3d25b18a	0.040452518
157	0xbf19eae9	-0.6012407
158	0xbe9ba906	-0.30402392
159	0xbead23dd	-0.33816424
160	0x3f016c44	0.50555825
161	0x3ea0d14b	0.31409678
162	0x3de19c6a	0.11016162
163	0x3f24be0e	0.643525
164	0x3e75b94c	0.23996466
165	0x3e9738af	0.29535434
166	0x3e126f00	0.14300156
167	0xbdf12af1	-0.117757685
168	0xbe3bfb20	-0.18357515
169	0x3e8929fa	0.26789838
170	0xbb725629	-0.0036977625
171	0xbd151e06	-0.036405586
172	0x3eed3205	0.46327224
173	0xbe2c391e	-0.16818663
174	0x3e5864be	0.2113218
175	0x3eec202b	0.46118292
176	0x3f0c160c	0.5472114
177	0xbea8fc88	-0.33005166
178	0x3e604ccf	0.219043
179	0x3cf63288	0.030053392
180	0xbe12cd41	-0.1433611
181	0x3e4010eb	0.18756454
182	0x3ef9ebc9	0.48812702
183	0xbeb84c1b	-0.35995564
184	0x3e1cb22a	0.15302339
185	0xbe43a7a8	-0.19106925
186	0x3de6189c	0.112351626
187	0x3f220467	0.6328797
188	0x3f18ff98	0.59765005
189	0xbdf65129	-0.12027199
190	0xbeba95ef	-0.36442515
191	0xbe688516	-0.22707018
192	0x3e05013b	0.1298875
193	0x3f0af9bc	0.54287314
194	0x3f118280	0.5683975
195	0xbd9608f0	-0.073259234
196	0xbeb4aa65	-0.3528625
197	0xbe3b2194	-0.18274528
198	0xbf2746ec	-0.65342593
199	0x3f17432d	0.5908688
200	0x3eb3e3b9	0.35134676
201	0x3e499de4	0.19689137
202	0xbd10fe9f	-0.035399076
203	0xbe2b7652	-0.16744354
204	0xbdc1591a	-0.09440823
205	0x3e47015f	0.19434117
206	0x3f196da7	0.5993294
207	0x3d873381	0.066016205
208	0xbe88c2d8	-0.26711154
209	0xbe77ac5f	-0.24186848
210	0x3cb6a647	0.022296084
211	0x3ef37076	0.47546738
212	0xbc877080	-0.016533136
213	0xbebc1808	-0.36737084
214	0x3e87bff1	0.26513627
215	0xbe7e4e76	-0.24834618
216	0xbd21bba0	-0.039485574
217	0x3e993c8a	0.29929
218	0xbd07d8c6	-0.033165716
219	0xbeff8923	-0.49909315
220	0x3e1c9fa8	0.15295279
221	0xbe9a6c49	-0.3016074
222	0xbf223be8	-0.6337266
223	0x3eed69ea	0.4636987
224	0x3e76f7e2	0.24117997
225	0xbeda5456	-0.42642468
226	0x3e9c8432	0.30569607
227	0x3e60b6ee	0.21944782
228	0xbeee2291	-0.46510747
229	0x3e1d5b82	0.15366939
230	0x3ec2d127	0.38050196
231	0x3e195f54	0.14977771
232	0xbed5ba67	-0.41743776
233	0xbe8707d8	-0.26373172
234	0xbe9ca9c9	-0.30598286
235	0xbf467e1e	-0.7753619
236	0xbea69d0d	-0.32541695
237	0x3f17d7e7	0.59313816
238	0xbea23c5b	-0.31686673
239	0xbf440bfa	-0.76580775
240	0xbcc314a8	-0.02381356
241	0x3f18e075	0.59717494
242	0x3e5ff7eb	0.21871917
243	0xbd91f4b1	-0.07126749
244	0x3e3793c4	0.17927462
245	0xbe8b592a	-0.27216464
246	0x3e5220f9	0.2052039
247	0x3ed488e0	0.41510677
248	0xbeeb0ba6	-0.45907325
249	0x3e8d35a2	0.2757998
250	0x3d2d8a1e	0.042368047
251	0xbec47537	-0.38370678
252	0x3e1507dd	0.14553781
253	0x3ec34aae	0.38142914
254	0x3ecae12c	0.39624918
255	0x3e24fc69	0.16111912

model.0.bias f4 [128]
0	0x3efd06c3	0.4941922
1	0x3f102c12	0.56317246
2	0x3f26fa59	0.6522575
3	0x3f295fc8	0.66161776
4	0x3f0bf2e0	0.5466747
5	0x3ee82ebc	0.45348155
6	0x3eb65bb5	0.35616842
7	0x3ead13ef	0.3380427
8	0x3ee5c9a6	0.44880408
9	0x3ec7cff1	0.39025834
10	0xbcfd5583	-0.030924564
11	0x3e894d4c	0.26816785
12	0x3f0b7c8d	0.54486924
13	0x3f3314ae	0.6995343
14	0x3f179226	0.5920738
15	0x3e3bb2a0	0.18329859
16	0x3d5587cc	0.05213146
17	0x3ed23d05	0.4106218
18	0x3d162269	0.03665391
19	0x3ea1d68e	0.31609005
20	0x3f07cf37	0.5305056
21	0x3ec9cfac	0.39416254
22	0x3d875bd0	0.06609309
23	0x3f405cbe	0.75141513
24	0x3e1278a9	0.1430384
25	0x3c1ee5fc	0.009698387
26	0x3f34c6ab	0.70615643
27	0x3e5223a3	0.20521407
28	0x3e87c670	0.26518583
29	0x3efde23a	0.4958666
30	0x3f2ca6c0	0.6744194
31	0x3f2c9c34	0.6742585
32	0x3e141f67	0.14465104
33	0x3ce939c6	0.028469931
34	0x3ec3fe14	0.38279784
35	0x3ef21cc0	0.4728756
36	0x3f544518	0.8291793
37	0x3e045f8e	0.12927076
38	0x3ee54e56	0.44786328
39	0x3e9b5e00	0.30345154
40	0x3eba8494	0.36429274
41	0x3c883dfd	0.01663112
42	0x3d913a26	0.07091169
43	0x3f353ca2	0.70795643
44	0x3ed67db1	0.4189277
45	0x3f1873d0	0.59551716
46	0xbdbff762	-0.093733564
47	0xbb37cf47	-0.002804713
48	0x3da5c0de	0.08093427
49	0x3e783838	0.24240196
50	0x3ea66a0e	0.32502788
51	0x3ee8cafc	0.45467365
52	0x3d4b4fef	0.049636777
53	0x3e8dfb41	0.27730754
54	0x3dc559ea	0.0963629
55	0x3f0851c0	0.5324974
56	0x3e80edeb	0.25181517
57	0x3e526f85	0.20550354
58	0x3c0fe43e	0.0087824445
59	0x3d6d4dcd	0.057935525
60	0x3d661658	0.056173652
61	0x3e9257bc	0.2858256
62	0xbd6aa08e	-0.057282023
63	0x3e33539c	0.17512363
64	0x3d24f194	0.04026945
65	0x3e9c8ef5	0.30577818
66	0x3ccf6a65	0.025319288
67	0x3f0f36ab	0.5594279
68	0x3f06164c	0.5237777
69	0x3f0db47b	0.55353516
70	0x3eedecc4	0.464697
71	0x3ed020b2	0.40649945
72	0x3ebc139a	0.36733705
73	0x3f44507f	0.7668533
74	0x3f204b39	0.6261478
75	0x3d1298b7	0.03579017
76	0x3cb84476	0.022493582
77	0x3ec45cc2	0.3835202
78	0xbb6184c0	-0.00344114
79	0x3df152f4	0.117834
80	0x3ebd7532	0.37003475
81	0x3e42d98d	0.19028302
82	0x3f083646	0.53207815
83	0x3f53e50b	0.82771367
84	0x3ba9bd40	0.005180031
85	0x3ef706c3	0.48247346
86	0x3f2f63dd	0.68511754
87	0x3f1ca6ca	0.61192
88	0x3ee9c675	0.45659223
89	0x3e9bf37e	0.30459207
90	0x3f1695a4	0.58822083
91	0x3c92ef5d	0.017936403
92	0x3da990b8	0.08279556
93	0xbe4e6933	-0.20157318
94	0x3e9b2b86	0.30306643
95	0x3ef81328	0.48452115
96	0x3f3d3914	0.7391522
97	0x3e30ebef	0.17277502
98	0xbc2164ac	-0.009850662
99	0x3e69c9fc	0.22830957
100	0x3e59af52	0.21258286
101	0x3e716cfa	0.23576728
102	0x3f0e8f95	0.5568784
103	0x3ddfc992	0.10927118
104	0x3d936599	0.071971126
105	0x3e305363	0.1721931
106	0x3f44d9c6	0.76894796
107	0x3f2e2c3f	0.68036264
108	0x3f2b9d32	0.67036736
109	0x3d10c4e4	0.03534402
110	0x3e42c6b9	0.19021119
111	0x3f1cb505	0.61213714
112	0x3f212948	0.62953615
113	0x3ed1b02e	0.40954727
114	0x3e57aa26	0.21061
115	0x3e20881f	0.15676926
116	0x3c93d810	0.018047363
117	0x3ea84d53	0.32871494
118	0x3ebf3112	0.37342125
119	0xbdc7448a	-0.0972987
120	0x3ea63dd8	0.32469058
121	0x3d996051	0.07489074
122	0x3eb49a52	0.35273987
123	0x3ecb908f	0.39758727
124	0xbd1de0df	-0.038544532
125	0x3d9b559b	0.07584687
126	0x3f36b289	0.71366173
127	0xbe317b2c	-0.17332143

model.2.weight f4 [64, 128]
0	0xbcb24f14	-0.021766223
1	0xbc8523a1	-0.01625234
2	0xbd195740	-0.037436724
3	0xbc157de1	-0.00912425
4	0xbd921661	-0.07133175
5	0x3bd02a24	0.00635268
6	0x3c1833c6	0.0092896875
7	0xbd17c3cd	-0.037051965
8	0x3d9b46a8	0.07581836
9	0xbd75fbaf	-0.060054477
10	0x3cf3ee0e	0.0297766
11	0x38a2185e	7.729301e-05
12	0xbc312a08	-0.010813244
13	0x3c887283	0.016656166
14	0xbdafbc89	-0.08580882
15	0x3d49f042	0.049301393
16	0xbd25636e	-0.040378027
17	0xbc47f4a0	-0.012204319
18	0xbd47019b	-0.048585515
19	0xbd6b1827	-0.05739608
20	0xbce27491	-0.027643474
21	0x3c578683	0.013154629
22	0xbd8030e1	-0.06259323
23	0x3cb3c6a0	0.021945298
24	0xbae7ceba	-0.0017685511
25	0x3b34ad15	0.0027568985
26	0xbd771539	-0.060322974
27	0xbbd4396e	-0.0064765727
28	0x3ced9ecb	0.029006382
29	0x3d0dfa24	0.03466238
30	0xbbd8dcd5	-0.006618122
31	0xbd37a5bf	-0.044835802
32	0xbb2a71a4	-0.0026007676
33	0xbd57bb30	-0.05266875
34	0x3d24e1e0	0.040254474
35	0xbd6c08d1	-0.057625595
36	0xbd9ab836	-0.07554667
37	0x3d56b2d8	0.052416652
38	0xbd8e0b7d	-0.06935785
39	0x3d2d5945	0.042321462
40	0x3b2a5b2d	0.0025994286
41	0xbcf5f0fb	-0.030022135
42	0x3d1d7093	0.038437437
43	0x3d5499dc	0.051904544
44	0xbcd73fcb	-0.026275536
45	0xbce62901	-0.028095724
46	0x3b045aad	0.0020195649
47	0x3d04166a	0.03224794
48	0x3bcace4b	0.006189143
49	0xbc929a58	-0.017895862
50	0xbdddb45d	-0.10825417
51	0x3d39846d	0.045292307
52	0x3ce1be1d	0.027556473
53	0x3d20a49f	0.039219495
54	0x3d9bade6	0.07601528
55	0xbda2f251	-0.079563744
56	0xbd9e7354	-0.07736841
57	0x3d58a396	0.052890383
58	0x3ce2172b	0.027598938
59	0xbd6268f2	-0.055275865
60	0xbd70f308	-0.058825523
61	0xbdd98a5c	-0.10622093
62	0xbd7c50b8	-0.061600417
63	0x3cbaf88d	0.022823596
64	0x3ca0fe59	0.019652532
65	0x3d2fe6a8	0.04294458
66	0x3d1d77ac	0.038444206
67	0xbcd2edf7	-0.025748236
68	0x3ca7aa62	0.020466987
69	0xbd6e6f42	-0.058211572
70	0x3d6adf82	0.05734206
71	0x3d42e637	0.04758283
72	0x3cdd7bb9	0.027036535
73	0xbd034856	-0.032051407
74	0xbcd49d06	-0.02595378
75	0xbcafe0fe	-0.02146959
76	0x3d4ef7ae	0.050529175
77	0x3d1e0407	0.03857806
78	0x3cef3996	0.029202264
79	0x3b4bb97e	0.0031085904
80	0xbb098de7	-0.0020989121
81	0xbdc740bd	-0.09729145
82	0x3dabf2dd	0.08395932
83	0xbcc357a1	-0.023845496
84	0x3d3a7b24	0.045527592
85	0xbd183aea	-0.03716556
86	0x3d11f99a	0.03563843
87	0xbbee2664	-0.00726776
88	0xbc8464c5	-0.016161332
89	0x3d6c955e	0.057759635
90	0xbb9a6b08	-0.004712466
91	0xbd9e8c09	-0.07741553
92	0xbd84f844	-0.064926654
93	0xbcfb1e7d	-0.030654186
94	0xbd92e431	-0.0717243
95	0x3d50d016	0.050979696
96	0xbdb3702e	-0.08761631
97	0x3b58e723	0.0033096753
98	0x3c5a7939	0.013334566
99	0xbdec6a2d	-0.11543689
100	0x3c86f30e	0.01647332
101	0xbd74714a	-0.059678353
102	0xbc258623	-0.0101027815
103	0xbd840b39	-0.06447453
104	0x3ca5a260	0.020219028
105	0xbc82a65d	-0.015948469
106	0x3c5ddbc0	0.013541162
107	0x3d39e062	0.045380004
108	0xbcb08c14	-0.02155117
109	0xbda9be0c	-0.08288202
110	0xbdc5bacd	-0.0965477
111	0xbd81a9d2	-0.06331219
112	0x3d67477f	0.05646467
113	0xbd8b7a26	-0.06810407
114	0xbcdf35c0	-0.02724731
115	0x3cadd08a	0.021217603
116	0x3d2976a2	0.041372903
117	0x3d1330c1	0.035935167
118	0xbda36dde	-0.0797994
119	0x3d46efaa	0.048568405
120	0xbd7902ed	-0.060793806
121	0x3c186981	0.009302498
122	0xbd116936	-0.035500728
123	0xbd5302c2	-0.051516302
124	0x3be6f567	0.007048297
125	0x3d3affef	0.045654234
126	0x3cd8fab9	0.026486741
127	0x3d111733	0.035422515
128	0xbc179c5c	-0.009253588
129	0x3ea5d996	0.32392567
130	0x3ecaa4d1	0.3957887
131	0xbd1e80b8	-0.038696975
132	0xbc37447d	-0.0111857625
133	0x3e5bc447	0.21461593
134	0x3eeb4b77	0.45956013
135	0x3e4b59c1	0.19858457
136	0x3eb4d53c	0.35318935
137	0x3d9776f6	0.07395737
138	0xbda18976	-0.07887547
139	0x3dad919f	0.08475041
140	0x3dd7fe88	0.10546595
141	0x3d929324	0.07156971
142	0x3e7c6151	0.24646498
143	0x3e9d7be0	0.30758572
144	0x3d709371	0.05873436
145	0x3eb51782	0.35369498
146	0x3ef838f5	0.48480955
147	0x3f03a5a2	0.5142461
148	0xbe459165	-0.19293745
149	0x3e81b072	0.2532993
150	0x3dac50ae	0.08413826
151	0xbdb8d072	-0.09024133
152	0x3e0b9290	0.13630128
153	0x3edc1876	0.42987412
154	0x3ead4658	0.3384273
155	0xbe67b013	-0.2262576
156	0x3dc6ea51	0.09712661
157	0xbd0fdc96	-0.035122477
158	0x3e067ae9	0.13132824
159	0xbe00390c	-0.12521762
160	0xbdbcd043	-0.0921941
161	0x3d4190f1	0.047257368
162	0xbd3a4ec0	-0.045485258
163	0xbe1651c4	-0.14679629
164	0x3e46f951	0.19431044
165	0x3d22a174	0.039704755
166	0x3d3ae97a	0.045632817
167	0x3eecc519	0.46244124
168	0xbdb4993b	-0.08818289
169	0xbe2faea1	-0.1715646
170	0xbe0f4bb6	-0.13993725
171	0xbc23d0cd	-0.009998512
172	0xbe84cca0	-0.25937366
173	0xbe20589c	-0.15658802
174	0xbdffaaf1	-0.12483776
175	0x3ebabaf0	0.36470747
176	0xbd97546c	-0.07389149
177	0xbd896541	-0.06708766
178	0x3e1fd5c7	0.15608893
179	0x3d127e94	0.035765246
180	0xbdb35f1d	-0.08758376
181	0xbda98d57	-0.082789116
182	0x3de1d6f1	0.11027325
183	0xbd10b699	-0.03533039
184	0xbe87600b	-0.26440462
185	0x3e816780	0.25274277
186	0xbec35ffa	-0.38159162
187	0x3e3729eb	0.17887084
188	0x3eef2a55	0.46711984
189	0xbc9e8a51	-0.019353064
190	0xbe2de06b	-0.1698014
191	0x3e0d2cb0	0.13786578
192	0x3d7fd01e	0.062454335
193	0xbbeea79a	-0.0072831633
194	0xbd3aaf9f	-0.04557764
195	0xbd27038c	-0.040774867
196	0xbdccc259	-0.099980064
197	0x3f107de9	0.56442124
198	0xbcc859f1	-0.02445695
199	0x3ecadeb5	0.39623037
200	0xbe205d99	-0.15660705
201	0x3f12258d	0.5708855
202	0x3e84f4fc	0.25968158
203	0xbd716693	-0.058935713
204	0x3d57b89d	0.052666295
205	0x3ca62c69	0.020284848
206	0x3ccf374c	0.025294922
207	0xbdc4401a	-0.09582539
208	0x3da2ad00	0.079431534
209	0x3e10e705	0.14150627
210	0x3f19c359	0.600637
211	0x3e1edc18	0.15513647
212	0x3e1e326e	0.15448925
213	0xbe1f87c6	-0.15579137
214	0x3cb81b39	0.022473918
215	0x3e4df0e0	0.20111418
216	0xbd58dda4	-0.052945748
217	0x3e5a88f1	0.21341302
218	0x3e82ab61	0.25521377
219	0x3e481fc1	0.19543363
220	0x3cd34042	0.025787476
221	0xbd762398	-0.06009254
222	0xbe4a2aab	-0.19742839
223	0x3d8b00e0	0.06787276
224	0xbe05221d	-0.13001294
225	0x3d2ef1dd	0.042711128
226	0x3d76dc87	0.060268905
227	0xbdc65a28	-0.09685165
228	0x3d9aff92	0.075682774
229	0xbc45cab0	-0.01207225
230	0x3d9bc3d5	0.07605711
231	0xbdbd8e67	-0.09255677
232	0xbd1a2670	-0.037634313
233	0x3ebdbe3e	0.37059206
234	0x3e03c43f	0.1286783
235	0xbd564251	-0.052309338
236	0x3de93618	0.11387271
237	0xbe8c8dd1	-0.27451947
238	0xbd679511	-0.056538645
239	0xbe454bc0	-0.19267178
240	0xbe1e991b	-0.15488093
241	0x3e5369a0	0.20645761
242	0xbdbaf337	-0.09128421
243	0xbe7d8c30	-0.24760509
244	0xbdafcaa3	-0.08583572
245	0x3d668df3	0.056287717
246	0xbc2123f3	-0.009835231
247	0x3e9c4a5a	0.30525476
248	0x3d598c6a	0.053112425
249	0x3e8bbfcd	0.2729477
250	0x3d64e733	0.05588455
251	0x3e120bd5	0.14262326
252	0xbd010866	-0.03150215
253	0x3eec4cef	0.46152446
254	0x3dc6c491	0.09705461
255	0x3e5c87dd	0.21536203

model.2.bias f4 [64]
0	0xbdb5e3cc	-0.088813394
1	0x3e922fb7	0.2855203
2	0x3e5a7ba3	0.21336226
3	0x3eb7c000	0.35888672
4	0x3e914797	0.2837493
5	0xbc334035	-0.010940601
6	0x3ebedfbe	0.37280077
7	0x3ea54d7f	0.32285687
8	0x3e98de59	0.29857138
9	0x3e62ee2a	0.22161165
10	0x3e7bff2a	0.24609056
11	0x3e0ba47e	0.13636968
12	0x3e94b08e	0.2904095
13	0xbd06fc18	-0.03295526
14	0x3e87654d	0.26444474
15	0x3e5f73ec	0.21821564
16	0x3eb5ca27	0.35505792
17	0xbd265108	-0.04060462
18	0x3e6b8904	0.23001486
19	0x3e821c75	0.25412336
20	0x3e2599c2	0.16171935
21	0x3e767985	0.24069794
22	0x3e564c3c	0.20927519
23	0x3e1d2947	0.15347777
24	0x3e5f0a72	0.21781328
25	0x3e510987	0.2041379
26	0x3e479bb1	0.19492985
27	0x3ea9d0f1	0.33167222
28	0x3e138fde	0.1441035
29	0x3ebd9697	0.37028953
30	0x3e40a325	0.18812235
31	0x3d977faa	0.07397397
32	0x3eab2edf	0.33434197
33	0xbcc3365b	-0.02382963
34	0x3e54daa1	0.20786525
35	0x3e8b6312	0.27224022
36	0x3e068698	0.13137281
37	0x3e47e9c2	0.19522765
38	0x3e644bdf	0.22294568
39	0x3e9cdc48	0.3063681
40	0x3e9f2351	0.31081632
41	0x3e61fcfc	0.22069162
42	0x3e572dd2	0.21013573
43	0x3d86ba7e	0.06578539
44	0x3e32062c	0.17385167
45	0x3e98691d	0.29767695
46	0x3e3e1cbe	0.18565652
47	0x3e9d0c18	0.3067329
48	0x3ea0cbee	0.31405586
49	0x3e62e78a	0.22158638
50	0x3e85ba24	0.26118577
51	0x3e996862	0.2996245
52	0x3e3990cb	0.1812164
53	0x3e5773ef	0.21040319
54	0x3e6b9c47	0.23008834
55	0x3e838ddb	0.25694165
56	0x3e6f5c8a	0.23375145
57	0x3dcd3a34	0.10020867
58	0x3e77f969	0.24216236
59	0x3ea6ab48	0.32552552
60	0x3eaf3a29	0.3422406
61	0x3e6b85cb	0.23000257
62	0xbc31408a	-0.01081861
63	0x3e687e3a	0.22704402

model.4.weight f4 [1, 64]
0	0xbd8f3599	-0.06992645
1	0xbed6122b	-0.41810736
2	0xbf0822d7	-0.5317816
3	0x3eab7eb1	0.33495095
4	0xbecb283f	-0.39679143
5	0x3c3f9d06	0.011695152
6	0x3e93c7eb	0.28863463
7	0xbef29c1a	-0.4738472
8	0xbee6dd57	-0.45090744
9	0x3eb892d9	0.36049536
10	0x3e97d846	0.2965719
11	0xbeefddcb	-0.46848902
12	0xbed791ff	-0.42103574
13	0xbd77ae86	-0.060469173
14	0xbef6d698	-0.48210597
15	0x3eb93ba3	0.36178312
16	0x3e93acd2	0.2884279
17	0x3db8fbf3	0.090324305
18	0xbef9b4c2	-0.4877072
19	0x3ea3e799	0.32012632
20	0xbf00a020	-0.5024433
21	0x3ed430ca	0.41443473
22	0x3eb5effb	0.35534653
23	0xbef78820	-0.48346043
24	0x3ec7ba5d	0.3900937
25	0xbf045b33	-0.5170166
26	0x3ecc20c5	0.3986875
27	0xbf089bc7	-0.533627
28	0xbef34c9e	-0.47519392
29	0x3e9c934a	0.30581123
30	0x3eac643a	0.33670217
31	0xbeea06ed	-0.4570841
32	0x3e990a95	0.29890886
33	0xbc1af961	-0.009458871
34	0x3ece8533	0.40335998
35	0x3ec24bda	0.37948495
36	0xbef68660	-0.48149395
37	0x3ecc7503	0.39933023
38	0x3eaf5b40	0.34249306
39	0x3ed1c7d4	0.4097277
40	0x3eb09492	0.3448835
41	0xbef0fc33	-0.47067413
42	0x3eb4859c	0.35258186
43	0xbcee476a	-0.029086787
44	0xbef7d628	-0.48405576
45	0xbef9cb34	-0.48787844
46	0xbf019621	-0.50619704
47	0xbee8173a	-0.4533022
48	0xbf032373	-0.51225966
49	0xbef5988a	-0.4796794
50	0x3ebb1d20	0.36545658
51	0x3eb8531d	0.3600091
52	0xbf0083f5	-0.5020135
53	0xbf05f78b	-0.52330846
54	0x3ed6c81f	0.41949555
55	0x3ea4b503	0.3216935
56	0xbee9590d	-0.45575753
57	0xbeb3967a	-0.35075742
58	0x3eca17d6	0.3947131
59	0x3ebac6ab	0.36479697
60	0x3eb096b8	0.3448999
61	0x3ea191e2	0.31556612
62	0x3a7e3b9e	0.00096982147
63	0x3eba8ad3	0.3643404
