pk_trained.pth (torch, 39993 bytes, 5 tensors)

model.0.weight f4 [128, 6]
0	0x3ed0f53c	0.408121
1	0x3eab207d	0.33423224
2	0xbce027d1	-0.027362736
3	0x3e1fb0c5	0.15594776
4	0x3f0ae2f9	0.5425258
5	0xbef099d0	-0.4699235
6	0xbe94130a	-0.28920776
7	0x3efb6d20	0.49106693
8	0x3f0913bb	0.5354573
9	0xbe20ebcc	-0.1571495
10	0x3cd85c97	0.026411338
11	0x3f101554	0.56282544
12	0x3e6d6d7b	0.23186295
13	0x3e6dd38c	0.2322523
14	0x3e0f25f3	0.1397932
15	0x3a1ab3db	0.00059014343
16	0xbe24e4d2	-0.16102913
17	0xbefffe39	-0.49998644
18	0xbd693b58	-0.05694136
19	0x3f1cd562	0.61263096
20	0x3e3dcb2b	0.18534534
21	0xbe2baa1b	-0.16764109
22	0x3dc318b1	0.09526194
23	0x3e783e0b	0.24242418
24	0xbebdea47	-0.37092802
25	0x3eb86e36	0.36021584
26	0x3e9c1f56	0.30492657
27	0x3d93df2c	0.07220301
28	0x3e7ed35d	0.24885316
29	0xbeaa74ba	-0.3329218
30	0xbe440ec9	-0.19146265
31	0x3e7aca0a	0.24491134
32	0x3e3c63ae	0.183974
33	0x3e026abb	0.12736027
34	0xbe934c50	-0.2876916
35	0xbd010342	-0.031497248
36	0x3dfaf400	0.122535706
37	0x3d9222d0	0.07135546
38	0x3e0dcc0c	0.13847369
39	0xbe1fbf3c	-0.15600294
40	0xbec61aba	-0.38692266
41	0xbebbd3a2	-0.366849
42	0xbe31213d	-0.17297836
43	0x3e6612d9	0.22468127
44	0x3f33e9f9	0.7027889
45	0x3b0c450a	0.0021403455
46	0x3c073fd0	0.00825496
47	0x3d0fa368	0.035067946
48	0x3f17cb59	0.5929466
49	0x3ee4e7de	0.4470815
50	0xbe091c21	-0.13389637
51	0x3e812fc9	0.2523177
52	0x3ec9ab8d	0.39388695
53	0x3ef2ecc2	0.47446257
54	0xbe82dcd4	-0.25559103
55	0x3f098a09	0.5372625
56	0x3e478e55	0.19487889
57	0xbdfd3af2	-0.123647586
58	0x3e23f293	0.16010503
59	0x3ec9205a	0.39282495
60	0x3e60002a	0.21875063
61	0x3ee5e895	0.44904009
62	0x3ecbf71f	0.39836976
63	0xbe177508	-0.14790738
64	0xbe10158f	-0.14070724
65	0x3ec15a2f	0.37764117
66	0xbe6f59ad	-0.23374052
67	0x3e4866f9	0.19570531
68	0x3dba721f	0.09103798
69	0x3e81ac48	0.25326753
70	0xbeff3814	-0.49847472
71	0x3eb1e204	0.3474275
72	0x3eb7eb29	0.359216
73	0x3f2c1f86	0.672356
74	0xbd7e8703	-0.062140476
75	0xbe808a26	-0.251054
76	0x3ed2880c	0.4111942
77	0x3db2271f	0.08698868
78	0x3e565f13	0.20934705
79	0x3bab7aba	0.005233136
80	0x3edcd3a0	0.43130207
81	0xbdee46ed	-0.11634622
82	0x3e4c1957	0.19931541
83	0x3ef267ce	0.47344822
84	0x3e81cce2	0.25351626
85	0x3efc3062	0.49255663
86	0x3e0ddf26	0.13854656
87	0xbd72ca3b	-0.059274893
88	0x3e70e058	0.2352308
89	0xbe2b0653	-0.16701631
90	0x3db538ad	0.08848701
91	0x3e91b930	0.284616
92	0x3d53e62a	0.051733173
93	0x3e17be0c	0.14818591
94	0x3ec9ff63	0.39452657
95	0xbf0475ba	-0.51742136
96	0xbec854d5	-0.39127222
97	0x3f04269b	0.5162141
98	0xbd631020	-0.0554353
99	0xbef4630a	-0.4773181
100	0x3ec2b7e5	0.38030925
101	0x3e8adfc7	0.27123854
102	0xbe797acc	-0.2436325
103	0x3e77151c	0.24129146
104	0x3e8de757	0.2771556
105	0xbcf747b2	-0.030185554
106	0xbe9c46b0	-0.3052268
107	0xbef8be02	-0.48582464
108	0x3e44194a	0.19150272
109	0x3e9ad50b	0.30240664
110	0x3e5f45c9	0.21803965
111	0x3e0e67d4	0.13906795
112	0x3db26f89	0.0871268
113	0x3d0a5cb0	0.0337798
114	0x3bde4908	0.0067836083
115	0x3f21d0f1	0.63209444
116	0x3f2b78de	0.66981304
117	0xbe17d712	-0.14828137
118	0x3e060013	0.13085966
119	0xbe303ba8	-0.17210257
120	0xbddfa3b9	-0.109198995
121	0x3e922956	0.28547162
122	0x3f0b4908	0.5440831
123	0xbe8f3042	-0.27966505
124	0x3d96b6c5	0.07359079
125	0xbeae8505	-0.3408586
126	0xbf175562	-0.5911466
127	0x3f0be0ac	0.546397
128	0x3e58250b	0.21107881
129	0xbe41d224	-0.18927819
130	0xbea38b80	-0.31942368
131	0x3b08b3fb	0.002085923
132	0xbee2e065	-0.44311824
133	0x3e2a5826	0.16635188
134	0x3f1d9e05	0.61569244
135	0x3eb92794	0.36163008
136	0x3ccc93dd	0.02497285
137	0xbf05f7c3	-0.5233118
138	0x3e454622	0.19265035
139	0x3e819620	0.2530985
140	0x3e93a56a	0.28837138
141	0x3e92d7de	0.2868032
142	0xbea72133	-0.32642516
143	0x3ed8a821	0.42315772
144	0xbdbad684	-0.09122947
145	0x3cbe4f24	0.023231097
146	0x3e751084	0.23932081
147	0x3e34c389	0.17652716
148	0x3ed449d5	0.4146258
149	0x3e46bc81	0.19407846
150	0xbe2fcc76	-0.1716784
151	0x3ebe2830	0.37140036
152	0x3e7c5cac	0.24644727
153	0xbe1bb6a1	-0.15206386
154	0xbcebce14	-0.02878479
155	0x3b68547c	0.0035450747
156	0x3d90ef20	0.070768595
157	0x3ebe84aa	0.3721059
158	0x3f2828d7	0.65687317
159	0xbdb31f9a	-0.08746262
160	0x3e2d2eda	0.16912404
161	0xbeb70153	-0.35743198
162	0xbde877db	-0.113509856
163	0x3ca09d8b	0.019606372
164	0x3f0e4281	0.55570227
165	0xbde76b65	-0.11299781
166	0x3e1f5f3a	0.1556367
167	0x3e8c6ada	0.2742527
168	0x3e38f229	0.18061127
169	0x3cfdd674	0.030986048
170	0x3dc1aaa1	0.09456373
171	0xbeefd6ee	-0.46843666
172	0xbea6b7c4	-0.32562077
173	0x3e1fe5c5	0.15614994
174	0x3e84fdc1	0.2597485
175	0x3ee8a65e	0.45439428
176	0x3eb4e388	0.35329843
177	0xbdbb17b8	-0.09135383
178	0x3d9125d4	0.07087293
179	0xbe9eff0a	-0.31053954
180	0x3f0f5f30	0.5600462
181	0xbb8590d9	-0.004076105
182	0x3e4d8310	0.20069528
183	0x3e80bd06	0.25144213
184	0xbe124697	-0.1428474
185	0xbf0224ec	-0.5083759
186	0xbdf22af6	-0.118246004
187	0x3dd02490	0.10163224
188	0x3f33c60f	0.7022409
189	0xbbd1bf9b	-0.006401015
190	0xbe9cf039	-0.30652025
191	0x3c95193c	0.01820051
192	0x3e5fd22d	0.2185752
193	0x3de79e70	0.113095164
194	0x3c8f9c7e	0.017530676
195	0xbefef65e	-0.49797338
196	0xbeee787f	-0.46576306
197	0xbeedf5cd	-0.46476594
198	0xbea56123	-0.32300672
199	0x3eec3d30	0.46140432
200	0x3f1bc75e	0.60851085
201	0x3e3cfddb	0.18456213
202	0x3e57455c	0.21022552
203	0xbe0637cb	-0.13107221
204	0x3eea60c4	0.4577695
205	0x3f0a8d8e	0.54122245
206	0xbcd17cbf	-0.025572179
207	0xbe95c2b7	-0.29250118
208	0x3d4bb636	0.049734317
209	0xbf091d25	-0.53560096
210	0xbcaf5f28	-0.021407679
211	0x3f0f0680	0.55869293
212	0x3efdf350	0.49599695
213	0xbcbea43e	-0.023271676
214	0x3b0a3d56	0.0021093688
215	0x3df587ff	0.1198883
216	0x3ee918ac	0.45526636
217	0x3e56a67b	0.20961945
218	0x3e4d4e91	0.20049502
219	0xbe9cd31d	-0.30629817
220	0xbea5861d	-0.32328883
221	0xbf0389d5	-0.5138219
222	0x3db21457	0.08695286
223	0xbe7b4436	-0.24537739
224	0x3acf20e3	0.0015802648
225	0xbee3a82d	-0.44464245
226	0x3e51e20b	0.20496385
227	0x3ec7d321	0.39028266
228	0xbf0f263e	-0.5591773
229	0x3f05a34d	0.522023
230	0x3f10512a	0.56373847
231	0x3dcf774c	0.10130176
232	0x3bdfa12f	0.0068246345
233	0x3c2205a1	0.009889037
234	0x3eba6f62	0.36413103
235	0x3f13390a	0.5750891
236	0x3ec7f1a9	0.3905156
237	0xbe6c7a01	-0.23093416
238	0x3e8fd122	0.28089243
239	0xbe0530b0	-0.13006854
240	0xbd22303a	-0.039596774
241	0xbd9b6d2f	-0.075891845
242	0x3f23093b	0.6368596
243	0xbea5653b	-0.32303795
244	0x3e7927c7	0.2433158
245	0xbea7bc26	-0.32760733
246	0xbc95da4a	-0.018292565
247	0x3e53495f	0.20633458
248	0x3f0e5844	0.5560343
249	0x3e849021	0.25891212
250	0xbd222a38	-0.039591044
251	0x3eaa5794	0.33269942
252	0x3e145c9b	0.14488451
253	0x3dadb4f7	0.08481782
254	0x3e196cb0	0.14982867
255	0xbe136100	-0.14392471

model.0.bias f4 [128]
0	0xbd75e107	-0.060029056
1	0x3df1625f	0.11786341
2	0x3e3e167e	0.18563268
3	0x3ef5da1d	0.4801797
4	0x3ea7a380	0.32741928
5	0x3f071455	0.527654
6	0x3ec11ee2	0.37718874
7	0x3f0c4f06	0.5480808
8	0x3e51594c	0.2044422
9	0x3edc6c83	0.43051538
10	0x3e8c39d8	0.2738788
11	0x3eaa5a2a	0.33271915
12	0x3e83325e	0.25624365
13	0x3ece299d	0.40266123
14	0x3f0be84c	0.5465133
15	0x3def6b5c	0.11690399
16	0xbaa52b40	-0.001260139
17	0x3ededd7b	0.4352835
18	0x3f1d2324	0.61381745
19	0x3f2f42e2	0.6846143
20	0x3ed17c69	0.4091523
21	0xbdd2d3ef	-0.102943294
22	0x3e459003	0.19293217
23	0xbdb16c40	-0.08663225
24	0x3e951f6d	0.29125538
25	0x3f129ed9	0.5727363
26	0xbbf33224	-0.0074217487
27	0x3ef0647b	0.4695166
28	0x3f0a75d5	0.5408605
29	0x3de3c88f	0.11122238
30	0xbceab6e3	-0.02865166
31	0x3e7f2681	0.24917032
32	0xbdefd3d1	-0.11710323
33	0x3e923c3d	0.28561583
34	0x3debef79	0.11520285
35	0x3f240233	0.64065856
36	0x3db026dd	0.086011626
37	0xbc09691e	-0.008386878
38	0x3bbb3fc2	0.0057143876
39	0x3e889971	0.26679567
40	0x3edcaa43	0.4309865
41	0x3eb1c8f0	0.34723616
42	0x3e0d2101	0.13782121
43	0x3ebef7f4	0.37298548
44	0x3e4aa13d	0.1978807
45	0x3f0761ef	0.5288381
46	0x3ed7234c	0.42019117
47	0xbde5b60b	-0.112163626
48	0xbdac9266	-0.08426361
49	0x3e935a7a	0.28779966
50	0x3f1e8598	0.619226
51	0x3e73e71c	0.2381863
52	0xbdd54ef7	-0.10415452
53	0x3e921634	0.28532565
54	0x3e8693d3	0.26284656
55	0xbe33918f	-0.17535995
56	0xbe842055	-0.25805917
57	0x3e4fc02a	0.20288149
58	0x3ee147ee	0.4400019
59	0xbe1fa4df	-0.15590237
60	0x3edeb1c8	0.4349501
61	0x3e82d8b4	0.25555956
62	0xbdbd9776	-0.092574045
63	0x3efbbac1	0.4916592
64	0x3edd33f8	0.43203712
65	0x3e4edaed	0.20200701
66	0xbc00ccb9	-0.00786131
67	0x3f1030ae	0.5632428
68	0x3ed0f0c8	0.40808702
69	0x3e1b3956	0.1515859
70	0x3da86b98	0.08223647
71	0x3f0ab8cf	0.54188246
72	0xbe88d96c	-0.2672838
73	0x3f08311f	0.5319995
74	0x3eb6c618	0.3569801
75	0xbe14533a	-0.14484873
76	0x3da8e8df	0.08247542
77	0x3eb48d0f	0.3526387
78	0x3f0510b1	0.51978594
79	0xbe6401da	-0.22266331
80	0x3e589872	0.21151903
81	0x3f1c9c28	0.61175776
82	0x3f040fdd	0.51586705
83	0x3db07ad9	0.08617181
84	0x3dd8bf18	0.10583323
85	0x3ea08f1d	0.31359187
86	0xbbe7fbd7	-0.007079582
87	0x3e44a180	0.19202232
88	0x3eb8b1e9	0.36073235
89	0x3e181972	0.14853457
90	0x3e5f0352	0.2177861
91	0x3e6e815c	0.23291534
92	0xbc84abba	-0.016195167
93	0xbdd9ac22	-0.10628535
94	0x3e190277	0.14942347
95	0x3d81599d	0.063159205
96	0x3e70c809	0.23513807
97	0x3decf53a	0.11570211
98	0x3ed988b7	0.42487118
99	0x3ea33499	0.31876066
100	0x3eea1fee	0.45727485
101	0xbd9c632c	-0.07636103
102	0x3ddebb71	0.10875595
103	0x3dbdc27f	0.09265613
104	0x3e7d9f6b	0.24767844
105	0x3eaa4496	0.33255452
106	0x3f044d5a	0.5168053
107	0x3f217499	0.6306854
108	0x3edcf866	0.43158263
109	0x3eef704c	0.46765363
110	0x3ec712a0	0.38881397
111	0x3eb43972	0.35200077
112	0x3d03faba	0.032221533
113	0xbdd14d41	-0.10219813
114	0x3e34d2c2	0.17658523
115	0x3edbd16a	0.42933208
116	0x3eeda97f	0.46418378
117	0x3e2dfd91	0.16991259
118	0x3d5d1dee	0.05398362
119	0xbd4f04a9	-0.050541554
120	0x3e850cf3	0.25986442
121	0x3d68212d	0.056672264
122	0x3d4249c0	0.047433615
123	0xbdf27018	-0.118377864
124	0xbd1c480c	-0.038154647
125	0xbdcd731c	-0.10031721
126	0x3ecfb01d	0.4056405
127	0x3f259b7f	0.64690393

model.2.weight f4 [64, 128]
0	0x3e17e330	0.14832759
1	0x3e63a7a2	0.22231916
2	0x3e84d714	0.25945342
3	0x3e9c4055	0.3051783
4	0x3e0193cc	0.12654036
5	0x3e782745	0.2423373
6	0x3e642dd3	0.22283106
7	0x3e82763d	0.25480834
8	0x3e801ed5	0.25023523
9	0x3e81763d	0.2528552
10	0x3e5ee9ce	0.21768877
11	0x3dfb30f1	0.12265194
12	0x3e8f5c74	0.28000224
13	0x3e5f3385	0.21796997
14	0x3e80219f	0.2502565
15	0x3e59a968	0.2125603
16	0x3df457a0	0.11930776
17	0x3e84dbef	0.25949046
18	0x3e4e19cc	0.20127028
19	0x3e7f0bb6	0.24906811
20	0x3e436f94	0.19085532
21	0x3ea57923	0.32318982
22	0x3e835e2e	0.2565779
23	0x3e425ce0	0.18980742
24	0x3e157ff9	0.14599599
25	0x3e76db0e	0.24107
26	0x3e50847e	0.20363042
27	0x3e650057	0.22363411
28	0x3d8cfeac	0.06884512
29	0x3e536e54	0.20647556
30	0x3db582fe	0.088628754
31	0x3ea25160	0.3170271
32	0x3e3367a0	0.17519999
33	0x3e560e50	0.20903897
34	0x3e0422d1	0.12903906
35	0x3e39de10	0.18151116
36	0x3df792e0	0.12088561
37	0xba9ca392	-0.0011950603
38	0x3e748e79	0.23882474
39	0x3df604e9	0.12012655
40	0x3e1a25cd	0.15053482
41	0x3e4821cc	0.19544142
42	0x3de00574	0.1093854
43	0x3e19b6fa	0.15011206
44	0x3e802903	0.2503129
45	0x3e53d35e	0.20686099
46	0x3e7c8b9a	0.24662629
47	0x3e5709ad	0.20999785
48	0x3e3b8ba8	0.18314993
49	0x3e360de3	0.17778735
50	0x3e3c90cd	0.18414612
51	0x3e487f96	0.1957992
52	0x3e8b59a7	0.27216837
53	0x3e49c5a4	0.197043
54	0x3e873621	0.26408485
55	0x3e572881	0.21011545
56	0x3bd7c0e1	0.0065842723
57	0x3e8e673d	0.2781314
58	0x3e31f610	0.17379022
59	0x3e745bc8	0.23863137
60	0x3e267b39	0.16257943
61	0x3e8b79da	0.27241403
62	0x3e6bec4d	0.2303936
63	0x3e394e70	0.18096328
64	0x3dfa5469	0.12223131
65	0x3e522770	0.20522857
66	0x3e865fca	0.26244956
67	0x3e906a3c	0.2820605
68	0x3e880c43	0.26571855
69	0x3e8f92be	0.28041643
70	0x3e218fab	0.15777461
71	0x3e4031a4	0.18768936
72	0xbe0a920d	-0.13532276
73	0xbe3eb614	-0.18624145
74	0x3e74e8cf	0.23916934
75	0x3de085af	0.10962998
76	0x3e941182	0.28919607
77	0x3e3177a5	0.17330797
78	0x3e47ba51	0.19504668
79	0x3d9f3391	0.077735074
80	0x3e2ddf02	0.16979602
81	0x3e52107f	0.20514105
82	0x3e85b014	0.261109
83	0x3e4d5e30	0.20055461
84	0x3e836b78	0.2566793
85	0x3e99948e	0.2999615
86	0x3e9a6eb1	0.30162576
87	0x3e4e45e1	0.20143844
88	0x3e2deb84	0.16984373
89	0x3ea578d0	0.32318735
90	0x3e9ae019	0.30249098
91	0x3e3195dd	0.17342325
92	0x3e2bfb23	0.1679502
93	0x3dbb6367	0.09149819
94	0x3e1b6bf1	0.15177895
95	0xbed795c1	-0.4210644
96	0x3e5b5b2b	0.21421497
97	0x3df7c8a9	0.1209882
98	0x3e3ba407	0.1832429
99	0x3e870801	0.26373294
100	0x3e7ba236	0.24573597
101	0x3eb0d2af	0.3453574
102	0x3e3e1de8	0.18566096
103	0x3e07c183	0.13257413
104	0x3e1e9571	0.15486695
105	0x3e87cd6a	0.26523906
106	0x3e7f3172	0.24921206
107	0x3e4957f3	0.19662456
108	0x3e58aeae	0.21160385
109	0x3e246d50	0.16057324
110	0x3e2d7c77	0.16942011
111	0x3e5cae0c	0.21550769
112	0x3d80710b	0.06271561
113	0x3e14ae6a	0.14519659
114	0x3ead7af4	0.33882868
115	0x3e248ced	0.16069384
116	0x3e2e7095	0.17035134
117	0xbcae4eb1	-0.021277757
118	0x3e48b5c0	0.19600582
119	0x3e647387	0.22309695
120	0x3e6d7a2d	0.23191138
121	0x3e57f178	0.21088207
122	0x3e6b138e	0.22956678
123	0x3e4329ae	0.19058868
124	0xbec52745	-0.38506523
125	0x3e44a736	0.19204411
126	0x3e501440	0.20320225
127	0x3e21290c	0.15738314
128	0xbd498b23	-0.049204957
129	0xbda7673e	-0.08173989
130	0x3d814f15	0.06313912
131	0xbbb8d8fd	-0.0056411014
132	0xbd61a5b4	-0.055089667
133	0xbdbd6600	-0.092479706
134	0xbd88b046	-0.066742465
135	0xbdae7491	-0.08518327
136	0xbd9bd1c7	-0.07608371
137	0x39f4edd3	0.000467165
138	0x3d8b00e8	0.06787282
139	0xbd8c51d5	-0.06851546
140	0x3c56e800	0.013116837
141	0xbbac3ab9	-0.0052560237
142	0xbdb36225	-0.08758954
143	0xbdc802c6	-0.09766154
144	0xbdaa5070	-0.083161235
145	0x3c001a04	0.007818703
146	0x3cbc8628	0.02301319
147	0x3d05fd79	0.032712433
148	0xbd7d1590	-0.06178814
149	0xbda3a449	-0.07990319
150	0xbd3c7edb	-0.046019416
151	0xbda47980	-0.08030987
152	0x3d8405f7	0.0644645
153	0xbdc70cf3	-0.09719267
154	0xbc1b1032	-0.0094643105
155	0xbc72be44	-0.014815871
156	0xbc1682b2	-0.009186434
157	0xbb099938	-0.0020995867
158	0x3caeea7e	0.021352049
159	0xbdd02300	-0.10162926
160	0x3d64b26f	0.05583423
161	0x3cffc955	0.031223932
162	0xbc0afaa1	-0.008482606
163	0x3d012d2e	0.031537227
164	0xbd911024	-0.07083157
165	0xbb38d23f	-0.0028201488
166	0x3d07a246	0.03311374
167	0xbd3e98a9	-0.046532307
168	0xbd535ca9	-0.05160204
169	0xbd378cae	-0.044811897
170	0x3b70d57a	0.0036748336
171	0xbd4776fd	-0.04869746
172	0xbd1d4aba	-0.038401343
173	0xbda09a8f	-0.0784198
174	0x3bacd728	0.005274672
175	0x3d2ae0cd	0.041718293
176	0x3c62eaca	0.013849923
177	0x3d368c41	0.04456735
178	0xbd88d3b1	-0.06681002
179	0xbcaf7379	-0.021417366
180	0xbdb3fb43	-0.08788159
181	0xbdc2a6d3	-0.095044754
182	0x3d89d323	0.06729724
183	0x3d410fa7	0.047134068
184	0xbd03fa19	-0.032220934
185	0xbdc2544e	-0.09488736
186	0x3d768e11	0.06019408
187	0x3d8611d9	0.06546373
188	0xbce38650	-0.027774006
189	0xbcf3d791	-0.029765876
190	0x3d296c0f	0.04136282
191	0xbbc964dd	-0.006146057
192	0x3c641202	0.013920309
193	0xbd047564	-0.032338515
194	0xbdb3b4bc	-0.08774707
195	0x3c6cf004	0.014461521
196	0x3d40a8ec	0.047036096
197	0x3c6f5887	0.014608509
198	0xbda3be5f	-0.07995295
199	0x3d84cf6d	0.06484876
200	0xbd64ba7e	-0.055841915
201	0x3d636092	0.05551202
202	0x3b28297f	0.00256595
203	0xbd2e68ec	-0.04258053
204	0xbdb2ceea	-0.08730872
205	0xbcd8bc3d	-0.026456947
206	0xbd033c09	-0.032039676
207	0x3d2c60ec	0.04208462
208	0x3cfb7166	0.030693721
209	0xbdad65e6	-0.08466701
210	0x3cec10fd	0.028816694
211	0xbd03c809	-0.03217319
212	0x3cb90d93	0.02258948
213	0x3d7eb957	0.062188473
214	0x3cda41a6	0.026642632
215	0xbd6a6cf9	-0.05723283
216	0xbdb799bf	-0.089648716
217	0x3ade9820	0.0016982593
218	0x3d7b4837	0.061348166
219	0x3d83a4dc	0.06427929
220	0x3d8beb97	0.068320446
221	0x3d41f3de	0.04735171
222	0xbd3fa895	-0.04679163
223	0xbce63d6c	-0.02810546
224	0x3d9408e8	0.07228261
225	0xbc9cc40b	-0.01913645
226	0xbdc7bfb7	-0.097533636
227	0x3d62ea14	0.055399016
228	0xbdc3d0c9	-0.09561307
229	0xb9186db7	-0.00014536722
230	0x3b1f5591	0.0024312476
231	0x3cf6002e	0.030029383
232	0x3d337653	0.043814015
233	0x3d892b5c	0.06697723
234	0x3d7efa63	0.062250506
235	0x3cac04ed	0.020998443
236	0xbca71f2a	-0.020400602
237	0x3cfd0786	0.030887377
238	0x3d88d964	0.06682089
239	0x3d91dd9d	0.071223475
240	0x3bb68502	0.005570055
241	0x3d44a99e	0.048013322
242	0x3b9196cc	0.004443025
243	0xbc72911d	-0.0148051055
244	0xbd848794	-0.06471172
245	0xbdb65ea1	-0.08904768
246	0x3d5a08c3	0.053231012
247	0xbd108f05	-0.035292644
248	0xbd931fb8	-0.07183784
249	0xbdc01515	-0.09379021
250	0x3d203956	0.03911718
251	0xbcd4537d	-0.025918717
252	0x3d51e249	0.051241193
253	0x3d50e3e4	0.050998583
254	0xbc9f84ce	-0.019472506
255	0xbd7b53c9	-0.0613592

model.2.bias f4 [64]
0	0x3e33353e	0.17500779
1	0xbcdba2aa	-0.026810963
2	0x3de4395f	0.11143755
3	0xbc9f6c53	-0.019460833
4	0xbd7a69d5	-0.061136086
5	0x3e0ea72f	0.13930963
6	0x3e430aa9	0.19047035
7	0x3dbf1556	0.093302414
8	0x3e0ed587	0.13948642
9	0x3dce7eef	0.100828044
10	0x3bf9b07b	0.007619915
11	0x3e4c6979	0.1996211
12	0xbce2fe9d	-0.0277093
13	0x3ec2fa77	0.38081715
14	0x3e540b4d	0.20707436
15	0x3d8a3011	0.06747449
16	0x3e5040c9	0.20337214
17	0x3e0af856	0.13571295
18	0x3e3758a3	0.17904906
19	0x3e1f6dc8	0.15569222
20	0x3e4078da	0.18796101
21	0x3e417fb4	0.18896371
22	0xbbeaf54e	-0.007170356
23	0x3e052dd4	0.13005763
24	0x3e724b6c	0.23661584
25	0x3e0d5637	0.1380242
26	0x3e692f3a	0.22771922
27	0x3e06de9a	0.13170853
28	0x3da7bd67	0.081904225
29	0x3de77895	0.11302296
30	0x3de4f906	0.1118031
31	0x3e3a9018	0.1821903
32	0x3d71a972	0.058999486
33	0xbdf42132	-0.11920394
34	0x3d5ab52b	0.05339543
35	0x3de68aed	0.11256967
36	0x3e02d850	0.12777829
37	0x3e62ded9	0.22155322
38	0x3e3b0436	0.18263325
39	0x3e65f759	0.22457637
40	0xbdc336da	-0.095319465
41	0x3db93a43	0.09044316
42	0x3e54b492	0.20772007
43	0x3d799e9c	0.060942277
44	0x3e068744	0.13137537
45	0x3e5f07b5	0.21780284
46	0xbdcafccf	-0.09911501
47	0x3d2d7dea	0.04235641
48	0x3dafab41	0.08577586
49	0x3e5c4a62	0.2151275
50	0xbd631381	-0.055438522
51	0x3e212dd1	0.15740134
52	0x3dbbdd83	0.091731094
53	0x3e0db3cb	0.13838117
54	0x3d4cab95	0.04996832
55	0x3c3bf9b0	0.011473104
56	0x3e63f84b	0.22262685
57	0xbd8a07f1	-0.06739796
58	0x3e6a4c71	0.22880723
59	0x3e4e9ffd	0.20178218
60	0x3e6ca3a6	0.23109302
61	0xbcbaaaef	-0.022786586
62	0x3de4bfc6	0.111693904
63	0x3cd3da7b	0.025861016

model.4.weight f4 [1, 64]
0	0x3eb0a378	0.34499717
1	0xbc30e636	-0.010797074
2	0xbf02b6d6	-0.51060236
3	0xbd977b2b	-0.07396539
4	0xbd5b79cf	-0.053582963
5	0x3e844f94	0.25841963
6	0x3e9001c8	0.2812636
7	0x3e9ff119	0.3123863
8	0x3e86a432	0.26297146
9	0xbed70e18	-0.4200294
10	0xb8a642e5	-7.927957e-05
11	0x3e9a2a05	0.30110183
12	0xbee0159f	-0.43766496
13	0xbf1a39ed	-0.6024464
14	0xbed69035	-0.41906896
15	0x3e9effe2	0.31054598
16	0x3e9d6230	0.30738974
17	0x3e81dae6	0.2536232
18	0x3ebb0594	0.36527693
19	0xbeec80b8	-0.46191955
20	0x3e9e516c	0.30921495
21	0x3eadf725	0.3397762
22	0xbdc93659	-0.09824819
23	0x3ea7c8e2	0.3277045
24	0x3e96958e	0.29410976
25	0x3eb9522b	0.36195502
26	0x3e9ab286	0.30214328
27	0x3e80fdff	0.25193784
28	0x3eb8007a	0.35937864
29	0xbed39139	-0.41321734
30	0x3e9fca79	0.31209162
31	0x3eae54c0	0.34049034
32	0x3ea8ce7a	0.3297003
33	0xbec80a23	-0.39070234
34	0xbee561a1	-0.44801047
35	0xbece76c5	-0.4032499
36	0x3ea99a4d	0.33125535
37	0xbed751fd	-0.4205474
38	0x3e916ad5	0.2840182
39	0xbeb81ab5	-0.35957876
40	0xbd5241af	-0.051332172
41	0x3e97fa5e	0.29683203
42	0x3eafbb2f	0.34322497
43	0x3e99fe9e	0.3007707
44	0x3e82e284	0.25563443
45	0x3ea846d2	0.32866532
46	0xbab7bde8	-0.0014018388
47	0xbdca3bf8	-0.098747194
48	0x3e896ce6	0.26840895
49	0x3e91ea57	0.284991
50	0xbd99f344	-0.07517102
51	0x3e83476d	0.2564043
52	0x3ea46dec	0.32115114
53	0x3ea65792	0.32488686
54	0xbec3c536	-0.38236398
55	0xbc1d83cc	-0.009613942
56	0x3e8cc346	0.27492732
57	0xbd593788	-0.053031474
58	0x3e9aff6b	0.30272993
59	0x3eb9720c	0.36219823
60	0x3e86d359	0.2633312
61	0xbba3b25d	-0.004995628
62	0x3e8a2aab	0.26985678
63	0xbd8f348b	-0.06992444
