pk_trained.pth (torch, 39993 bytes, 5 tensors)

model.0.weight f4 [128, 6]
0	0xbf13e9e9	-0.57778794
1	0x3df61fda	0.12017794
2	0x3f0b3106	0.5437168
3	0xbe039de5	-0.128532
4	0xbd55155c	-0.052022323
5	0x3e17636a	0.14784017
6	0x3e0df11c	0.13861507
7	0x3f01d79e	0.5071963
8	0x3f182e97	0.5944609
9	0xbdcad5d4	-0.09904066
10	0xbe1e33b9	-0.15449418
11	0x3d7952bf	0.06086993
12	0xbeb5c9dc	-0.3550557
13	0xbce31e79	-0.027724491
14	0x3efb74b1	0.49112466
15	0xbe483cbe	-0.19554421
16	0xbe58714e	-0.21136972
17	0xbd9748ca	-0.0738693
18	0xbea5d8e6	-0.32392043
19	0x3f15ddc8	0.58541536
20	0x3f06d990	0.52675724
21	0x3e320734	0.1738556
22	0x3c39dcc8	0.011344142
23	0xbe702bd2	-0.23454216
24	0x3e700b8b	0.23441903
25	0x3dedb9ca	0.11607702
26	0x3f0b7624	0.54477143
27	0x3dd4209a	0.10357781
28	0x3ebb0851	0.36529782
29	0x3eb0f3d6	0.34561032
30	0x3e7dadd7	0.24773346
31	0xbf53094d	-0.82436067
32	0xbe6e4a79	-0.23270597
33	0x3cdaf872	0.026729796
34	0x3f148649	0.580174
35	0x3e736a43	0.23771004
36	0x3e75a30d	0.2398798
37	0x3e7cf465	0.24702604
38	0x3efdcf59	0.49572256
39	0x3e4e6b0f	0.20158027
40	0xbe128fcb	-0.14312665
41	0xbe850ce0	-0.25986385
42	0xbeacc3e6	-0.3374321
43	0x3e63cf65	0.22247083
44	0x3d7ce1e2	0.061738856
45	0xbe7be835	-0.24600299
46	0x3eb39a55	0.35078683
47	0xbb90f6b4	-0.0044239406
48	0xbe29c00f	-0.16577171
49	0x3e235747	0.15951262
50	0x3eb8c803	0.36090097
51	0x3e02eb48	0.12785065
52	0x3e3a1988	0.18173802
53	0xbe156936	-0.14590916
54	0x3e0e0a46	0.13871107
55	0x3ea3ac0a	0.31967193
56	0x3eb42798	0.35186458
57	0x3e7db57a	0.24776259
58	0x3e44b97e	0.19211385
59	0xbe932670	-0.28740263
60	0xbec1ab33	-0.37825927
61	0xbefe55c2	-0.49674803
62	0xbe91e6f9	-0.2849653
63	0x3d62ff15	0.055419046
64	0x3e80cc41	0.25155833
65	0x3f35e347	0.7104992
66	0x3e7a7f8d	0.2446272
67	0xbd966074	-0.07342616
68	0x3ee85f3a	0.45385152
69	0xbe392db0	-0.18083835
70	0xbde1560f	-0.110027425
71	0x3ecbe11f	0.3982019
72	0xbf0e6403	-0.55621356
73	0xbf3de724	-0.7418082
74	0xbf11d6b4	-0.56968236
75	0x3f104f33	0.5637085
76	0xbf517085	-0.81812316
77	0xbec7b351	-0.39003995
78	0x3e3a9865	0.18222196
79	0x3e24cb66	0.16093215
80	0x3e982d83	0.29722223
81	0x3ec07595	0.37589708
82	0xbd80f52c	-0.06296763
83	0x3e0ad3fc	0.13557428
84	0x3e8d9d3c	0.27659023
85	0x3f03c362	0.51470006
86	0x3f0293a4	0.5100653
87	0xbd0b8ec6	-0.034071706
88	0x3e17ce73	0.14824848
89	0x3e4e6e5a	0.20159283
90	0xbec8671f	-0.39141175
91	0x3e809938	0.25116897
92	0x3e669f1b	0.22521631
93	0xbca16b5a	-0.01970451
94	0xbeb7887c	-0.35846317
95	0xbe96d58c	-0.29459798
96	0x3f0ef5c9	0.5584379
97	0xbe4d9718	-0.20077169
98	0xbeac64a1	-0.33670524
99	0xba47d914	-0.0007623595
100	0x3eab3982	0.33442312
101	0x3cab7c1e	0.020933207
102	0x3c9210eb	0.017830333
103	0x3d03075e	0.031989448
104	0x3ea883ce	0.3291306
105	0xbe48f12e	-0.19623253
106	0xbd8676cd	-0.06565628
107	0x3ee190f1	0.44055894
108	0x3e75581b	0.23959391
109	0x3ec45fe8	0.3835442
110	0x3e875491	0.26431707
111	0xbe4c9122	-0.19977239
112	0xbe523bb7	-0.20530592
113	0x3e83faa8	0.25777173
114	0xbce5da44	-0.028058179
115	0x3f24704f	0.6423387
116	0xbe295d3c	-0.16539472
117	0x3e0e3a01	0.13889314
118	0x3c9de912	0.019276176
119	0xbda59c31	-0.08086432
120	0xbd942667	-0.07233887
121	0x3f02522e	0.50906646
122	0xbe60c0e6	-0.21948585
123	0x3ede497c	0.4341544
124	0x3d2ec192	0.04266507
125	0xbe5fb57e	-0.21846578
126	0xbf434076	-0.76270235
127	0x3e977e88	0.29588723
128	0xb8e8f4f8	-0.00011108251
129	0x3eca3ad6	0.39498013
130	0xbdb85e17	-0.09002321
131	0x3bf41f1f	0.007449999
132	0x3ed8fb9d	0.42379466
133	0x3ef15553	0.4713541
134	0xbebcbfad	-0.36864987
135	0x3ea0b52b	0.3138822
136	0xbecfebe9	-0.40609673
137	0xbe3781b2	-0.17920569
138	0xbf23252e	-0.63728607
139	0xbd8e7431	-0.069557555
140	0x3ed8230c	0.4221424
141	0xbefb0333	-0.49025878
142	0x3ed0c770	0.4077716
143	0x3e16406f	0.14673017
144	0x3e164eed	0.14678545
145	0x3e4c8b39	0.19974984
146	0x3ed92003	0.42407236
147	0x3e91c8e5	0.28473583
148	0x3eab4047	0.33447477
149	0xbc92769c	-0.017878823
150	0x3eb40dcc	0.35166776
151	0x3e06ac00	0.1315155
152	0x3edb5174	0.4283558
153	0x3e67c26c	0.2263276
154	0xbdf74d86	-0.12075333
155	0x3ea0cfe2	0.31408602
156	0x3e30dd03	0.1727181
157	0x3e7aba91	0.24485232
158	0xbeec5f09	-0.46166256
159	0x3e9fe469	0.3122895
160	0x3f1c4500	0.61042786
161	0x3d3ee6d4	0.046606854
162	0xbf0ba7ad	-0.5455273
163	0x3ebd1587	0.36930487
164	0x3d418422	0.047245152
165	0x3e4bcd4a	0.1990253
166	0x3e2121d8	0.15735567
167	0xbeb75951	-0.3581033
168	0xbefab269	-0.4896424
169	0x3f147bce	0.5800141
170	0xbdb4d05e	-0.088288054
171	0x3e9e0009	0.30859402
172	0x3cf16948	0.029469147
173	0xbd4b5d86	-0.049649738
174	0xbefd707d	-0.49499884
175	0x3ee47162	0.44617754
176	0x3ebc4cd8	0.36777377
177	0xbda7e7b3	-0.0819849
178	0x3e106cef	0.14104055
179	0x3eb8b9a1	0.36079124
180	0xbe9d147a	-0.30679685
181	0xbd27d411	-0.040973727
182	0x3f0a1e16	0.5395216
183	0xbda76257	-0.08173054
184	0x3e937008	0.2879641
185	0x3e929291	0.28627446
186	0x3ec47457	0.3837001
187	0xbf2e39f6	-0.6805719
188	0xbd3da802	-0.046302803
189	0xbe9b49de	-0.30329794
190	0xbe0b8111	-0.13623454
191	0x3e34b97d	0.17648883
192	0x3db6e984	0.08931258
193	0x3f1659e7	0.5873093
194	0xbe084074	-0.13305837
195	0xbeb759b2	-0.3581062
196	0xbe9a3322	-0.30117136
197	0x3e434a15	0.19071229
198	0x3dc77007	0.097381644
199	0x3f13e6ba	0.57773936
200	0x3c2624cc	0.010140609
201	0xbe03d059	-0.12872447
202	0xbdbe8c61	-0.09304119
203	0x3ebf51df	0.3736715
204	0xbf371430	-0.7151518
205	0x3e96b6d4	0.29436362
206	0x3e9f0c3d	0.31064025
207	0xbb8a9f83	-0.004230441
208	0x3d856f79	0.06515402
209	0x3db3ad7c	0.08773324
210	0x3e105826	0.14096126
211	0x3e4124d5	0.18861707
212	0x3f02b251	0.5105334
213	0xbe9c3097	-0.3050582
214	0x3e4703e1	0.19435073
215	0x3c7ce015	0.015434285
216	0x3e56708b	0.20941369
217	0x3f2ce600	0.6753845
218	0x3ebf71b7	0.37391445
219	0xbe10f312	-0.14155224
220	0x3ea1ed48	0.31626344
221	0x3db6da7b	0.089283906
222	0xbd20078e	-0.039069705
223	0x3ed71c44	0.42013752
224	0x3cc7efa4	0.024406262
225	0x3eb41684	0.35173428
226	0x3e8e0578	0.27738547
227	0x3ee89daa	0.45432788
228	0x3e3c3026	0.18377742
229	0x3ec578f5	0.38568845
230	0x3f09418d	0.5361565
231	0x3e196b1d	0.14982267
232	0xbebc2af4	-0.3675152
233	0xbc3bc4a0	-0.011460453
234	0x3e885ff5	0.2663571
235	0x3f3335c4	0.70003915
236	0x3e0201ec	0.12696046
237	0xbe0c86c2	-0.13723281
238	0x3e1c223a	0.15247431
239	0x3e6bc914	0.23025924
240	0x3e9add29	0.30246857
241	0x3d84df54	0.06487909
242	0x3e68f10b	0.227482
243	0x3d3b2820	0.045692563
244	0x3d760982	0.06006766
245	0x3eab1142	0.33411604
246	0x3e9df9df	0.308547
247	0x3ea67dbe	0.3251781
248	0x3f23ae9a	0.63938296
249	0x3e71378f	0.2355635
250	0x3ea2a59e	0.3176698
251	0xbda0d90a	-0.07853897
252	0x3ec64cc2	0.38730437
253	0x3e56170b	0.20907228
254	0x3cbc8ced	0.023016417
255	0x3cfd5b67	0.030927373

model.0.bias f4 [128]
0	0x3e9130ce	0.28357548
1	0x3dedf727	0.11619406
2	0x3e664b99	0.22489776
3	0x3e1e8034	0.15478593
4	0x3f01acfd	0.50654584
5	0x3ed391e1	0.41322234
6	0x3e6cedae	0.23137543
7	0x3ec4cb2c	0.38436258
8	0x3eb552ff	0.35414883
9	0x3f2c5aa8	0.6732583
10	0x3f3d9ec3	0.74070376
11	0x3f4a67a2	0.7906438
12	0x3db38c1c	0.08766958
13	0x3edf4b31	0.43612054
14	0x3ea794ce	0.32730716
15	0x3e0f2937	0.13980566
16	0x3e614051	0.21997191
17	0x3d81e87b	0.0634317
18	0x3eebf70c	0.4608692
19	0x3e351f2a	0.1768767
20	0x3e2a6c27	0.1664282
21	0x3efb8ba5	0.49129978
22	0xbdc3bba9	-0.09557278
23	0x3f47e10c	0.7807777
24	0x3eed662a	0.46367007
25	0x3ed53266	0.41640013
26	0xbd8acdce	-0.067775354
27	0x3ed8b111	0.4232259
28	0x3e5631df	0.20917462
29	0x3f070468	0.527411
30	0xbd18818d	-0.037232924
31	0x3f31ba97	0.6942534
32	0x3c9cd4a7	0.01914437
33	0x3dd2f40e	0.10300456
34	0x3d83de24	0.06438854
35	0x3f0433b9	0.5164142
36	0x3e67d246	0.22638807
37	0x3ef4c6e1	0.47807983
38	0xbd3e8bc8	-0.046520025
39	0x3ebf8a83	0.37410364
40	0x3f308e75	0.6896737
41	0x3f0b4f50	0.54417896
42	0x3f290e41	0.66037375
43	0x3f08534c	0.532521
44	0x3ebc63dc	0.36794937
45	0x3e911ea3	0.28343686
46	0x3e2c196d	0.16806574
47	0x3eaabc33	0.3334671
48	0x3eb76c3a	0.35824758
49	0x3f09ebf4	0.5387566
50	0x3f192d5a	0.59834826
51	0x3e53b219	0.20673408
52	0x3e6084df	0.21925686
53	0x3f44d9f9	0.768951
54	0x3e96c956	0.29450482
55	0x3f411dd5	0.75436145
56	0x3f3f965b	0.748388
57	0x3f2c05ba	0.6719624
58	0x3f54b37c	0.8308637
59	0x3f3289b0	0.69741344
60	0xbd4e71fd	-0.050401676
61	0x3c95e55b	0.018297842
62	0x3f2c57ab	0.6732127
63	0x3d19adda	0.037519313
64	0x3ed75ef3	0.42064628
65	0x3ea566ca	0.32304984
66	0x3ea04df2	0.31309468
67	0x3eaa1698	0.33220363
68	0x3d24ed62	0.04026545
69	0x3f19eb7f	0.60124964
70	0x3f2b2086	0.668465
71	0x3e8a90c3	0.2706357
72	0x3f41684d	0.75549775
73	0x3f00ecb6	0.5036119
74	0x3ef00948	0.4688208
75	0x3e8b35d7	0.27189514
76	0x3eaf6caa	0.34262592
77	0x3e0fd046	0.14044294
78	0x3d7cc77a	0.061713673
79	0xbd32ecce	-0.043682866
80	0xbd79d833	-0.0609972
81	0xbc11889e	-0.00888267
82	0x3f44a14c	0.7680862
83	0x3e0293a7	0.12751637
84	0x3f3159db	0.69277734
85	0x3dba99d2	0.0911137
86	0x3cd36f2a	0.025809843
87	0x3c2e983f	0.0106564155
88	0x3ee68632	0.45024258
89	0x3ece3f60	0.40282726
90	0x3d847fed	0.064697124
91	0x3e098a38	0.13431633
92	0x3c8cbcce	0.017179873
93	0x3ebc128e	0.36732906
94	0x3e2de852	0.16983154
95	0x3d84c992	0.06483759
96	0x3dd0a476	0.101876184
97	0x3efe2e5b	0.4964474
98	0x3e12a6b8	0.1432141
99	0x3d81790f	0.06321918
100	0x3e6ce1f5	0.23133071
101	0x3ecc8ab8	0.39949584
102	0x3f3117f6	0.69177186
103	0x3e467e56	0.19384131
104	0x3d04dcf9	0.0324373
105	0x3f13397c	0.5750959
106	0x3e24bdef	0.16088079
107	0x3f1d8212	0.61526597
108	0x3f356f73	0.70873183
109	0x3f2c7c21	0.67376906
110	0x3d45cc22	0.04829038
111	0x3e623e1e	0.22094008
112	0x3f2f3a9e	0.6844882
113	0x3d9456e4	0.072431356
114	0x3e07bfbf	0.13256739
115	0x3f22bb4f	0.6356706
116	0x3f1d649a	0.6148163
117	0x3f2a59aa	0.66543067
118	0x3f4962cb	0.7866637
119	0x3f2764a7	0.6538796
120	0x3e55ffe9	0.20898403
121	0x3f2fc338	0.68657255
122	0x3dd5d9df	0.10441946
123	0x3ec53a26	0.38520926
124	0x3d98a50b	0.074533544
125	0x3d8664f9	0.06562228
126	0x3e1e8055	0.15478642
127	0x3ecfa4a4	0.40555298

model.2.weight f4 [64, 128]
0	0x3e977afe	0.29586023
1	0x3e99dfd7	0.3005359
2	0x3e9423b4	0.2893349
3	0x3e89cde5	0.26914898
4	0x3e4544e8	0.19264567
5	0xbebd30b1	-0.3695121
6	0x3e9c2cc8	0.30502915
7	0x3e13d48a	0.14436546
8	0x3e7e8187	0.24854098
9	0x3e6587b1	0.22415043
10	0xbea24fb9	-0.3170145
11	0x3e56f776	0.20992836
12	0xbeeb1534	-0.45914614
13	0x3e8f4e93	0.27989635
14	0x3e553224	0.20819908
15	0x3e488c71	0.19584824
16	0x3e18e6e2	0.14931825
17	0x3e254e20	0.16143084
18	0x3e93043a	0.28714162
19	0x3e99fbb4	0.30074847
20	0x3e8d1a79	0.2755926
21	0x3e8a0c29	0.26962402
22	0x3e355874	0.17709523
23	0x3e8a1f5b	0.26977047
24	0x3e62a6d7	0.22133957
25	0x3eaaf348	0.33388734
26	0x3e97fa27	0.2968304
27	0x3ea5d3e8	0.32388234
28	0x3e276e48	0.16350663
29	0x3e2db15a	0.16962186
30	0x3e6f791b	0.23386042
31	0xbe329a84	-0.17441756
32	0x3e986fc6	0.29772776
33	0x3e857ce5	0.2607185
34	0x3ead884b	0.33893046
35	0x3e521d5e	0.20519015
36	0x3e0d0f86	0.13775453
37	0x3e8cb8f4	0.27484858
38	0x3e087986	0.13327608
39	0x3e7b89e7	0.24564324
40	0x3eb489a5	0.35261264
41	0x3e82cc4e	0.25546497
42	0x3e8191bf	0.25306508
43	0x3e77e135	0.24207003
44	0xbdf624b2	-0.12018718
45	0xbef50c71	-0.47861055
46	0xbe801ec7	-0.2502348
47	0x3e45f234	0.19330674
48	0x3e0c7116	0.13715014
49	0x3e2ab5f7	0.16670977
50	0x3e71a87c	0.23599428
51	0xbebe3079	-0.37146357
52	0x3e171990	0.14755845
53	0x3e808733	0.2510315
54	0x3e8c44e1	0.273963
55	0x3e83ca79	0.25740412
56	0x3e80e0a1	0.25171378
57	0xbe56d3d0	-0.20979238
58	0xbe3c3e32	-0.183831
59	0x3e94121f	0.28920075
60	0x3e8f19ba	0.27949315
61	0x3e2c2492	0.16810825
62	0x3e692730	0.22768855
63	0x3eaed10c	0.34143865
64	0x3e5de245	0.21668346
65	0x3e74e7f0	0.23916602
66	0x3e827a58	0.25483966
67	0x3e6f1ecb	0.2335159
68	0xbecd0c2c	-0.4004835
69	0x3e4f1ea3	0.2022653
70	0xbe63c74a	-0.22243991
71	0xbeb9dfc6	-0.36303538
72	0x3e889d07	0.26682302
73	0x3e6df440	0.23237705
74	0x3e832aa6	0.25618476
75	0x3e87d685	0.26530853
76	0xbd4bb8af	-0.049736675
77	0x3e8f838f	0.2803006
78	0x3eab009c	0.33398902
79	0x3e200049	0.15625109
80	0x3ecc545e	0.39908117
81	0xbed9bc6a	-0.4252656
82	0x3e85b631	0.26115564
83	0x3e3a9e74	0.18224508
84	0x3e8aedc8	0.27134538
85	0x3e89bfb4	0.2690407
86	0xbe9ef452	-0.31045777
87	0x3bb7a29b	0.005604101
88	0xbe8bf2b3	-0.27333602
89	0x3e960faf	0.2930884
90	0x3e10a853	0.1412671
91	0xbe05d4cd	-0.13069458
92	0x3ea1e190	0.31617403
93	0x3ea8abdc	0.32943618
94	0x3e8daf6e	0.27672905
95	0x3e1db4cd	0.15401001
96	0x3e9f123d	0.31068602
97	0x3e8344fe	0.25638574
98	0x3e3bc0a5	0.18335207
99	0x3e827dbe	0.2548656
100	0x3e894c9f	0.2681627
101	0x3ea1426a	0.31495982
102	0xbea701e8	-0.32618642
103	0xbeacd546	-0.33756465
104	0x3e979cc6	0.29611796
105	0x3e2eddd6	0.17076811
106	0xbee4cbc0	-0.446867
107	0x3e6e987c	0.23300356
108	0x3e6cba1b	0.23117869
109	0x3ea2cfff	0.31799313
110	0x3e3252a1	0.17414333
111	0x3e849efe	0.2590255
112	0x3e8024f0	0.2502818
113	0x3e56b165	0.20966108
114	0x3e4fdeda	0.20299855
115	0x3e5067f7	0.2035216
116	0x3e5bd0fe	0.21466443
117	0x3e5ced94	0.21575004
118	0x3ea5a46d	0.3235201
119	0x3e7df304	0.24799734
120	0x3e925600	0.28581238
121	0x3e11c955	0.14236958
122	0x3e938a3f	0.2881641
123	0x3e8bc469	0.27298287
124	0x3e5c7a56	0.21531042
125	0xbeb90708	-0.36138177
126	0x3e4ee21f	0.20203446
127	0x3e82498a	0.2544673
128	0x3ea64865	0.32477108
129	0x3ea715d6	0.32633847
130	0x3e950958	0.2910869
131	0x3e245fcc	0.16052169
132	0x3e90b5bc	0.28263652
133	0xbe9c4235	-0.30519262
134	0x3e61bdeb	0.22045104
135	0x3e952356	0.29128522
136	0x3e3fac30	0.18718028
137	0x3e89522e	0.2682051
138	0xbe911bd7	-0.28341553
139	0x3e9308dd	0.287177
140	0xbeab381b	-0.33441243
141	0x3e8ea18f	0.27857634
142	0x3e863769	0.2621415
143	0x3e7b773e	0.24557206
144	0x3dd651f9	0.10464854
145	0x3e425562	0.18977883
146	0x3eab0b34	0.33406985
147	0x3e8c39df	0.27387902
148	0x3e90855b	0.28226742
149	0x3e9ffa72	0.31245762
150	0x3e704a49	0.23465838
151	0x3e4ffe79	0.20311917
152	0x3e9bc79c	0.30425727
153	0x3e8f8c6d	0.28036824
154	0x3e93623a	0.28785878
155	0x3e9fc59d	0.31205454
156	0x3e473048	0.19452012
157	0x3e8047cc	0.25054777
158	0x3e97fc67	0.29684755
159	0xbe2f465f	-0.17116688
160	0x3ea20162	0.3164168
161	0x3eb05dff	0.34446713
162	0x3eb1b7b4	0.34710467
163	0x3e9ab241	0.30214122
164	0x3e39e77a	0.18154708
165	0x3e53a834	0.20669633
166	0x3e9d6b68	0.30746007
167	0x3ea3518d	0.31898156
168	0x3e922e57	0.2855098
169	0x3ea9ad99	0.33140257
170	0x3e6471bb	0.2230901
171	0x3e5ab65b	0.21358626
172	0xbe5848c2	-0.21121505
173	0xbee9e3e5	-0.45681682
174	0xbe7f2a98	-0.24918592
175	0x3e557ab1	0.20847584
176	0x3e683215	0.22675355
177	0x3e97d2f7	0.2965314
178	0x3eb24211	0.3481603
179	0xbed37911	-0.41303304
180	0x3e8dd4c4	0.2770139
181	0x3e9a3e39	0.30125597
182	0x3e85174d	0.2599434
183	0x3e4e108b	0.20123498
184	0x3e69a8f1	0.22818352
185	0xbe558421	-0.20851184
186	0xbeadc9d9	-0.3394306
187	0x3e8d5625	0.27604786
188	0x3e731a32	0.23740461
189	0x3e801740	0.25017738
190	0x3e46ae68	0.19402468
191	0x3e8a8093	0.2705122
192	0x3e98797f	0.29780194
193	0x3e6c73dc	0.23091072
194	0x3e8c03df	0.27346703
195	0x3e65f0f6	0.224552
196	0xbec5b715	-0.38616243
197	0x3ead001b	0.33789143
198	0xbe6ff4c2	-0.23433211
199	0xbe9cb9fd	-0.30610648
200	0x3ec1f0ac	0.3787893
201	0x3ea8a2fb	0.32936844
202	0x3e87142c	0.26382577
203	0x3ea1e4eb	0.31619963
204	0xbe03c7d2	-0.12869194
205	0x3e90daca	0.28291923
206	0x3ea01697	0.31267235
207	0x3e5835d4	0.21114284
208	0x3f01fd77	0.5077738
209	0xbec98b6a	-0.39364177
210	0x3e837886	0.2567789
211	0x3e37889f	0.1792321
212	0x3e98955e	0.29801458
213	0x3eafee12	0.3436132
214	0xbe56257f	-0.20912741
215	0x3d96100b	0.07327279
216	0xbe0611df	-0.13092755
217	0x3eb2e335	0.3493897
218	0x3ea945fd	0.3306121
219	0xbd8f99b9	-0.07011742
220	0x3eaae227	0.33375666
221	0x3e8250d7	0.254523
222	0x3e4b4dca	0.19853893
223	0x3e77ef24	0.24212319
224	0x3ea53783	0.32268915
225	0x3e557a0a	0.20847335
226	0x3e9dd4ec	0.3082651
227	0x3e68bacf	0.22727512
228	0x3e74b598	0.23897398
229	0x3ebabcd1	0.3647218
230	0xbebd716d	-0.370006
231	0xbe94534e	-0.28969806
232	0x3e832f0e	0.25621837
233	0x3e6cd576	0.23128304
234	0xbf068c81	-0.5255814
235	0x3ea4edc8	0.32212663
236	0x3e845da8	0.25852704
237	0x3eb78c2a	0.35849124
238	0x3e9e5a89	0.30928448
239	0x3e2fd5f3	0.17171459
240	0x3e86356a	0.26212627
241	0x3e7602e8	0.24024546
242	0x3e6c6f03	0.23089223
243	0x3e577361	0.21040107
244	0x3eac9fbd	0.3371562
245	0x3ed3a9d8	0.41340518
246	0x3e6f8252	0.23389557
247	0x3eafa46d	0.34305134
248	0x3e3f4218	0.18677557
249	0x3e6ddf43	0.23229699
250	0x3e62ef01	0.22161485
251	0x3ea6ee65	0.32603756
252	0x3e57c63d	0.21071716
253	0xbef1703c	-0.4715594
254	0x3e922b3d	0.28548613
255	0x3e88461f	0.26615998

model.2.bias f4 [64]
0	0x3e8097ca	0.25115806
1	0x3eae9a18	0.3410194
2	0x3eabccc8	0.33554673
3	0x3e8a6596	0.2703063
4	0x3e7d6dda	0.24748936
5	0x3e908c8d	0.28232232
6	0xbd8aa6fa	-0.067701295
7	0x3e9c056a	0.3047288
8	0x3e8d6abc	0.27620494
9	0x3e4640f9	0.19360723
10	0x3e819c9a	0.2531479
11	0x3e2bff68	0.16796649
12	0x3d60d2aa	0.054888405
13	0x3e3335f2	0.17501047
14	0x3e911847	0.28338835
15	0x3ebd18b2	0.36932904
16	0x3e943aa7	0.28950998
17	0x3e9e96c9	0.30974415
18	0x3e1fb4b4	0.15596277
19	0x3ea3ad61	0.31968215
20	0x3ea513c0	0.3224163
21	0x3e93e4a6	0.28885382
22	0x3e9848b5	0.2974297
23	0x3e44a786	0.1920453
24	0xbdc70b3a	-0.09718938
25	0x3c829133	0.015938377
26	0x3e349122	0.17633489
27	0x3ebd1763	0.36931905
28	0x3e79d82b	0.24398868
29	0x3e5f4a1d	0.21805616
30	0x3e5ed4bd	0.2176084
31	0x3e91f910	0.28510332
32	0x3e43b637	0.19112478
33	0x3e26ec82	0.16301158
34	0x3e253777	0.1613444
35	0x3e91c745	0.28472343
36	0x3c20f47e	0.0098239165
37	0x3e6dfecb	0.23241727
38	0x3de9bcdb	0.114129744
39	0x3e3fd598	0.18733823
40	0x3eb61e71	0.355701
41	0x3e95cb51	0.2925668
42	0x3e9aa834	0.30206454
43	0x3eb3e495	0.35135332
44	0x3e5274a9	0.20552315
45	0xbdc3220e	-0.0952798
46	0x3e03b548	0.12862122
47	0x3eab1deb	0.33421263
48	0x3e93a902	0.2883988
49	0x3eac4224	0.3364421
50	0x3ea99ea9	0.3312886
51	0x3eabbafa	0.3354109
52	0x3e78014a	0.24219242
53	0x3e87343c	0.2640704
54	0x3e9fa052	0.31177002
55	0x3e8fa8e8	0.28058553
56	0xbd78eb28	-0.060771137
57	0x3e3ec974	0.18631536
58	0x3e825efc	0.25463092
59	0x3eb65dcb	0.35618433
60	0x3d20152e	0.0390827
61	0x3e8c7ea8	0.2744038
62	0x3e9d3833	0.3070694
63	0x3e87903a	0.26477224

model.4.weight f4 [1, 64]
0	0x3ec043b8	0.37551665
1	0x3e91277b	0.28350434
2	0xbed8d3fb	-0.42349228
3	0x3ec00d36	0.3751008
4	0xbef5ff3d	-0.48046294
5	0x3e992223	0.29908857
6	0xbcaac694	-0.020846643
7	0xbedf24b9	-0.43582705
8	0x3ec9a7a9	0.39385727
9	0xbed46fe0	-0.41491604
10	0xbf00687c	-0.5015943
11	0x3ec6bbb8	0.38815093
12	0x3d37988e	0.04482322
13	0x3ebb70c8	0.36609483
14	0xbf023662	-0.5086423
15	0xbefc38a0	-0.4926195
16	0x3ea1bde1	0.3159018
17	0x3ecf3350	0.40468836
18	0xbee49350	-0.4464364
19	0x3e994f8d	0.29943505
20	0x3e9ff795	0.31243578
21	0x3e9c3bd2	0.3051439
22	0x3ec9deab	0.39427695
23	0x3ea78c20	0.32724094
24	0x3d4b10ce	0.049576573
25	0x3b949780	0.004534662
26	0xbeeb4817	-0.45953438
27	0xbefd352b	-0.49454626
28	0xbedae4e2	-0.4275275
29	0x3eb9df30	0.3630309
30	0x3ec90c05	0.39266983
31	0xbed98af8	-0.42488837
32	0x3eba7b91	0.364224
33	0x3ea7fb7b	0.32809052
34	0x3ec442dc	0.3833226
35	0xbedecd2b	-0.43515906
36	0x3c770d43	0.015078845
37	0x3ea95773	0.3307453
38	0xbeefd559	-0.4684246
39	0xbeeb21a7	-0.45924112
40	0xbeda309d	-0.42615214
41	0xbeedf8e8	-0.46478963
42	0xbedd37c1	-0.432066
43	0xbefd744c	-0.4950279
44	0x3ec55599	0.38541868
45	0xbc6b3f30	-0.014358327
46	0xbefb4cc4	-0.49082005
47	0x3e9a1595	0.3009459
48	0x3e9c2c99	0.30502775
49	0xbed5784d	-0.41693345
50	0x3e9ab4a0	0.3021593
51	0x3e9eb19b	0.30994877
52	0x3eb6dc6b	0.3571504
53	0x3ec5ce3e	0.38633913
54	0x3ea710d5	0.3263003
55	0x3ea9e0e0	0.33179379
56	0xbdc16748	-0.094435275
57	0x3ea33ca4	0.31882203
58	0x3ec19cf3	0.37815055
59	0x3e921e7f	0.28538892
60	0xbcc413e0	-0.023935258
61	0x3e9622d8	0.2932346
62	0xbedf7d72	-0.43650395
63	0xbf08f14f	-0.5349321
